models/ipod_model_expand_pdf.pt (torch, 135593 bytes, 20 tensors)

encoder.0.linear.weight f4 [128, 39]
00000000: 8f05 323d 9a19 043e 719b ac3d 501a ccbe
00000010: ec1e f7bc e1ec 0fbe b626 1bbd 33c0 5f3e
00000020: 4b89 a53d 596f 233e 13d4 b13d 95ff c6bd
00000030: c7b0 b63e f9e5 003d b519 353d 224b d9bd
00000040: 1208 ae3d 66ac b83d 1f36 b63d f178 1e3e
00000050: 7f35 46bd 73b7 673e 53a8 dcbc e604 12be
00000060: 4b4a 1fbe e5fc 2f3e 201a dbbd acc8 2f3d
00000070: 800d 813d 3965 813e db3b d03d ece3 f43d
00000080: bad6 b7bd 1484 9f3b bfa4 013e 2ef4 d73d
00000090: 46c5 3a3e a128 283e 911e 19be f98f 36be
000000a0: 6f10 8cbe 95ae d0bd 1826 943e 1f5a 903e
000000b0: 32a5 13be 975b f0bd 8c73 a7be c993 a63d
000000c0: 7ca7 1fbe 1828 ed3c 4a06 00bd a59d dabe
000000d0: 21ec 7fbd 737c a63e 780f 01bd 6fcd e5bd
000000e0: 5972 963b 422b 4f3e 5e3d bfbd d5a3 713d
000000f0: b877 2e3e 8114 b1bd c5f1 22be 273c c4bd
00000100: 31e0 233d a393 d8bc b3dc 323e 3aef f53d
00000110: f545 ac3d e0f0 52bc 69df d6bd bfa6 8e3d
00000120: 0f20 8d3d 95c7 b5bd 42a2 6e3b 5d94 4b3e
00000130: 3a73 96be bee7 903e c4d9 dabd 2e96 c3bf
00000140: 7f01 053f fa81 623f 0291 2cbf ca87 e93e
00000150: 35e7 7abc 234e 293e 093a 6dbd 6cb5 bc3d
00000160: 0869 1f3c ada8 0a3d 0811 acbe 01c7 2dbd
00000170: 3e93 db3d c2a7 36bd 1b1d 8cbd b56e 7bbc
00000180: 4c99 14be 1d1a 56bd 144d 2fbc 6fe9 e23e
00000190: cbac c13c 6a59 5d3d bb68 51be 4c5c 3d3e
000001a0: 2905 0cbe 71ff 173d d195 823c cc7a 003e
000001b0: 269b 87bd dcbc f23d 7b49 8fbc f2ca 2fbe
000001c0: 849e 6bbd c5eb 0ebe 8c7e df3e 9d37 c4bc
000001d0: 2a72 dc3d a396 993d bc91 983c cfbb 93bd
000001e0: 1d7e 553e 346c 34bd 8bf6 893d 52ed 25be
000001f0: cc65 7abe 8566 4f3e d968 a63d 42ca 013c
00000200: 0950 0d3e 026d a6be e283 9cbe 96ca 00be
00000210: a2e7 02bd 27ea 783d 1d51 943c 4a08 443e
00000220: 2555 15bc cca1 e3bd 1462 a6bd 48fa 9bbd
00000230: 6dc6 dbbe a2e3 833d ae2a 76b9 93bd 813e
00000240: 5964 1e3e 633c 00be bdb6 d3bd 77d6 e73d
00000250: 10f0 4fbd 3b9c 013e b1d9 913e b4d9 a73c
00000260: 537b 643d e2e1 7f3e 1717 453d 4109 afbb
00000270: bc2c 13be e457 cc3e 64cb cabd 76cb 5f3c
00000280: 0b23 bfbd 4cf1 3a3f 9a34 2e3e 6a0d d63d
00000290: c2a2 173d d596 cfbd 0f9c b03b 46ad 523d
000002a0: d7c9 5cbe 33a1 88be 653d 1c3e 5215 0abd
000002b0: 250a b3bd 2194 12be 0fe2 b9bc 6975 2c3e
000002c0: c33e 69bd 451f 0a3e 2d1f 57be b9fc 313e
000002d0: 3297 ac3d fe73 dd3c 11d8 23bc 1358 3fbe
000002e0: 06e6 5f3d f968 053a 9717 353e 3443 aa3d
000002f0: 8755 023e f7b2 8fbd 074b 7e3e 3632 2b3e
00000300: 51c7 c1be 84d2 163e ff80 3b3e 16b7 a33d
00000310: 03d3 28bf 19f3 14bb b87e 58bd 50b7 9a3e
00000320: fe9d 5e3d 153e 33be 8c5b 6f3e f618 1b3e
00000330: 854c 1fbe 85d1 debd faf6 113e 9338 b0bd
00000340: 245b 683d 8522 683e 1db8 db3b 411a 14bd
00000350: a697 d03c 8fb2 fabd 9168 843d 290b 3cbe
00000360: cf3e 093f 0a0b cf3e 0806 8c3e bfb2 2cbe
00000370: 7cd4 6ebd d4ef c3bd 8a79 08be 3cfb 273e
00000380: 2223 4dbe 29ad 47be 0f31 f33d 624c b1bd
00000390: 4298 f43d 6f77 0cbe 75a8 a63d d85e b9bd
000003a0: 6600 ab3e d4b1 e13e c866 fcbe b468 c6be
000003b0: 4ce6 793e a236 d3be 602e ffbb d12d 32bd
000003c0: ea47 0fbd 61ea 0abf f078 823e 124c 233e
000003d0: 3bb9 21bd b5f2 2dbd 4ddb b13e 6d28 a2bc
000003e0: 9602 7f3e 8f2b 5b3e cd80 1abb 6eac d33d
000003f0: 6e31 853d e74c 61bd b843 a63d 554e e0be
0.043462332 0.12900391 0.084280856 -0.39863825 -0.030166112 -0.14055206 -0.037878715 0.21850662
0.08082827 0.15960445 0.08683028 -0.09716717 0.35681745 0.03146932 0.04421397 -0.106100336
0.08497633 0.090172574 0.088970415 0.15475823 -0.04839086 0.22628574 -0.026935732 -0.14259681
-0.15555684 0.17186315 -0.10698342 0.042915985 0.06301403 0.2527254 0.101676665 0.11957535
-0.08976503 0.00486804 0.12660502 0.105446205 0.18239316 0.16421749 -0.14953066 -0.17828359
-0.27356288 -0.10189549 0.28935313 0.28193757 -0.14418486 -0.117362194 -0.32705343 0.081336565
-0.15591234 0.028949782 -0.031255998 -0.42698398 -0.06248105 0.32516822 -0.031508893 -0.11220824
0.004591268 0.20231345 -0.09337877 0.058994133 0.17037857 -0.08646489 -0.1591254 -0.09581786
0.040008727 -0.026437586 0.17467003 0.120085195 0.08411781 -0.012874812 -0.10491831 0.06965398
0.0689088 -0.08875958 0.003641263 0.19880815 -0.29384786 0.28301805 -0.10686067 -1.5280206
0.5195541 0.8847958 -0.67408764 0.4561141 -0.015313913 0.16533713 -0.057916675 0.09214291
0.009729631 0.033852268 -0.33606744 -0.042426113 0.107214436 -0.04459358 -0.06841489 -0.015346219
-0.14511603 -0.052270997 -0.010699529 0.4431872 0.023641964 0.05404035 -0.20450108 0.1849224
-0.13673843 0.037108842 0.015940579 0.12546843 -0.06621389 0.11852428 -0.017491093 -0.17167261
-0.05752422 -0.13957126 0.43651235 -0.0239523 0.107639626 0.07499435 0.018624179 -0.07213556
0.2084889 -0.044048503 0.067364775 -0.16203812 -0.24452895 0.20253952 0.08125467 0.007921757
0.13800062 -0.3250504 -0.3056937 -0.1257728 -0.031959184 0.06077018 0.018105084 0.19143787
-0.009114538 -0.11114845 -0.08124176 -0.07616097 -0.42924824 0.06439902 -0.00023476288 0.25339946
0.15467967 -0.12523036 -0.10337589 0.11320203 -0.05076605 0.12657253 0.28486398 0.020489551
0.055781674 0.24988511 0.048117723 -0.0053416793 -0.14372534 0.39910805 -0.09902075 0.013659349
-0.09332856 0.7302444 0.17012253 0.10451777 0.037020452 -0.10136191 0.0053896974 0.051434778
-0.21561371 -0.26685485 0.15257795 -0.03371174 -0.08742169 -0.14314319 -0.022690801 0.16841663
-0.05694462 0.13488491 -0.21007986 0.17381562 0.08427276 0.027032848 -0.010000245 -0.18685941
0.054662727 0.00050891895 0.1768478 0.08313599 0.12727939 -0.07016557 0.24833308 0.16718373
-0.3784738 0.14728743 0.18310927 0.07993905 -0.6594698 -0.0022727905 -0.052855223 0.3021798
0.05434989 -0.17504151 0.23374766 0.1514624 -0.15556534 -0.108798064 0.1425437 -0.08604541
0.056727543 0.22669418 0.0067052976 -0.03615785 0.025462937 -0.122410886 0.06465257 -0.18363632
0.53611463 0.4043811 0.2734835 -0.16865061 -0.05830811 -0.09567228 -0.13327613 0.16404432
-0.20032933 -0.19499649 0.118745916 -0.08657147 0.119431034 -0.13717435 0.081375994 -0.09051293
0.3339874 0.44080985 -0.49297166 -0.38751757 0.24404258 -0.4125262 -0.0077875108 -0.043500725
-0.034980692 -0.54263884 0.25482893 0.15946987 -0.03948329 -0.04246779 0.34737626 -0.019794667
0.2490333 0.21403335 -0.0023575306 0.10335623 0.065035686 -0.05500498 0.08118385 -0.43809763

encoder.0.linear.bias f4 [128]
00000000: 83e9 4abc e57d 3d3e eb9d 4ebe 01dd 033e
00000010: 8de6 afbc f3f3 f53d f021 8abe 5c4e 823d
00000020: 4f91 50be a2f2 363e 5ed5 323e fb2f 00be
00000030: 731b 313e df41 7abc 2b89 2fbe 0135 923d
00000040: 43a6 1c3e ae9e 39be b4c7 88bd 0ee8 2f3e
00000050: 5654 eebd b203 bebe 007a 87bd efe4 50be
00000060: 4cd2 e2bd 17aa 36bd db53 23be 37ef 5fbe
00000070: a650 08be 4b09 4b3e 77f3 1abe 77bf 293d
00000080: 13bb 14be 93c5 bcbd b03d 5abe d257 70bc
00000090: 3d09 2dbd 88c9 3fbc 21d2 82be 6a20 c73d
000000a0: 7317 fa3d 634c 143e 72d6 4ebe c5b8 98bd
000000b0: 11dc 91bd 86cf 20be c3c7 933d ee88 74bc
000000c0: 7a54 4e3e 657c 89bc 55a1 d83d 303f 87bc
000000d0: 703d 92bd 1a7b 9fbd afd6 f2bd 6c3b 3b3d
000000e0: 4c24 433e 41d9 c1bd 9ef0 aa3e c795 59be
000000f0: 6875 32bc ff42 babd 6071 b23b d5f9 06be
00000100: 8215 72bd abae 58be 4d63 6cbd 1a3c 15be
00000110: bd68 243e ebae 153e 792a 5fbe 7da5 4cbd
00000120: 73d8 c7bd 3e4a 22be 9bdb d23d 3505 f3bd
00000130: b0b6 733d 1cd0 85bd 8da5 02bd 853f 843e
00000140: 52cf 793d b163 463c af08 b7bd f289 083e
00000150: ea80 583e 9b64 41bd 3cb7 fcbd d48c 043e
00000160: 604b cabc 8469 29bd c423 fcbd d2e7 0d3e
00000170: eb14 9dbd 8ced 6bbe 42bb 69be 9e90 8ebe
00000180: 824c 88bd 20c0 4dbd 0e68 09be 3062 a73e
00000190: e8f4 26bd 3988 84bd 5b59 5b3e ebcf bbbd
000001a0: a376 2cbe 76bd 6cbd e0d8 19be 3455 9abd
000001b0: f4e6 eabd 2c22 0fbe c6f0 f2bb 56ca 0d3d
000001c0: 90b8 0a3a 498d aa3d 33e7 353c c0ea 26be
000001d0: 073c cfbd 8d6b f73d 18b6 e5bd f0ed b73c
000001e0: f61e 5bbe ea7c af3d abb1 373e 6009 ae3d
000001f0: 4eb0 d4bd 4a26 abbd 4e49 0fbe 3ad5 0fbe
-0.012384775 0.18505056 -0.20177428 0.12877275 -0.02147224 0.1200942 -0.26979017 0.06362602
-0.20367931 0.17865995 0.17464206 -0.12518303 0.17295627 -0.015274494 -0.17142169 0.07139016
0.15297799 -0.18126938 -0.06678715 0.17178366 -0.116371796 -0.37112194 -0.066150665 -0.20399831
-0.11075267 -0.044595804 -0.15949957 -0.21868597 -0.13312015 0.19827764 -0.15131937 0.04144236
-0.14524488 -0.09217372 -0.21312594 -0.0146693755 -0.04224514 -0.011705764 -0.2555094 0.09722979
0.12211504 0.14482264 -0.20198992 -0.07457117 -0.071220525 -0.15704164 0.07215836 -0.014925225
0.20149413 -0.016782949 0.10577647 -0.016509622 -0.071406245 -0.07787152 -0.11857354 0.045710966
0.19056815 -0.09465266 0.333867 -0.21248542 -0.01089225 -0.0909481 0.0054456443 -0.13181241
-0.059102543 -0.2116038 -0.057711888 -0.14573708 0.1605558 0.14617507 -0.21793546 -0.04996251
-0.09758081 -0.15848634 0.10295793 -0.118662275 0.059500396 -0.06533834 -0.031896163 0.25829712
0.06098873 0.012108729 -0.08937203 0.13333872 0.21142927 -0.047215085 -0.12339637 0.12944347
-0.024694145 -0.041360393 -0.12311509 0.13857964 -0.076700054 -0.23039836 -0.2282534 -0.2784471
-0.06655218 -0.050232053 -0.134186 0.326921 -0.040760905 -0.06471295 0.21420805 -0.091705166
-0.16842131 -0.05779787 -0.15024137 -0.075357825 -0.11469832 -0.1397788 -0.0074139563 0.03461679
0.0005291784 0.08327729 0.0111024855 -0.16300488 -0.10118871 0.120810606 -0.11216372 0.022452325
-0.2139853 0.08568747 0.17938869 0.08497882 -0.1038519 -0.083569124 -0.13992807 -0.14046183

encoder.1.linear.weight f4 [64, 128]
00000000: e543 ed3d 3925 61be 461f 113e df1b ecbe
00000010: 384f 65bd 0015 003f 041e 593e d269 443e
00000020: 2091 bcbe 539f 173e 5514 e2be 8305 cc3b
00000030: c892 c1be c940 a83d 7853 253e 36a0 0b3d
00000040: 0a57 a23e e736 cd3d e18a 573e 8cdc f7be
00000050: d6da d13e 90f6 02bc d117 a5bd fd9b 52bf
00000060: 255a 7abd a4f4 743d bb30 3fbe c844 f23e
00000070: 284a cc3c 4017 b03b 47bb 383d 2340 113e
00000080: 3262 1abc b0fa a1bb 2b42 003d c172 f73d
00000090: 6bfd e6bc 7c0c 1dbc 2baf 85be a132 4f3e
000000a0: 6119 bebe f75c 14bf 09f6 783d de1a bf3d
000000b0: 2f44 dd3d 840b 53be eaf6 853a 57f3 dbbd
000000c0: 17e5 3cbf 3a28 8cbf 5fc6 00bf a866 343c
000000d0: 483e 90bd decf 5fbd 2dc7 acbd 1bec 7bbd
000000e0: ea3a a2be 6e5b 9f3e 434d acbd c83e 68bd
000000f0: 2402 dd3d d4fa 353d 8679 7ebd b5f2 863d
00000100: d87a cc3d a5c7 e23d 2208 c13d e49d c73b
00000110: 249f 82be a7ec 963d e0a4 c2bf 9537 5d3e
00000120: d756 863d 7f43 a2bc 07e3 6cbd 6143 babd
00000130: 965c 363e a927 9ebc 8693 6abd 986f 5ebf
00000140: c97c 8fbe c0ad 15be c923 1cbd 561f 723d
00000150: ff47 c9be 6527 00bf eaf6 243f 7c45 7c3e
00000160: aaeb 48bd 73e0 c63d 2c94 23bd 1c49 953b
00000170: ef3f 70bc 0751 57be edc1 7a3e f4df a0bd
00000180: 6e6a 88bc 7a86 8cbc 75f7 77bd d95c 88bf
00000190: 9b19 cc3e 1d4a 99bc c71e 4a3e 7ace 963d
000001a0: 2d43 313d da81 7bbd afb4 0abf 82ab 7a3d
000001b0: c596 55bd cec8 e83d 7fc7 6fbc 6119 443e
000001c0: f69b 23bd c1f5 423d c3a2 003e e5a9 ba3d
000001d0: 6fc3 5d3d 7a12 03bf 9f46 dbba c23a f1bd
000001e0: d5e5 e4bd c88b db3c a796 83bf ba87 dabc
000001f0: 9b46 b33d 20f3 dfbe a3f5 45bd 5bd3 943d
00000200: d15b 243d f579 2b3e fbe7 2abe 4f32 8bbe
00000210: 369c 9abe 6c11 3bbe 168d 413e a5a4 88be
00000220: 340a 533e 98ca 56be 11d3 dd3d e935 253d
00000230: cf0b 17bf 95a3 2abc a6d8 933e 9598 0d3e
00000240: 4aea 59bf 4950 103c 153c 4c3e d263 02be
00000250: 9963 1cbe 995d e3bd 22c3 e23d b960 1c3e
00000260: f646 07bd 9d9a bbbd 20e7 ab3e 0f68 72bd
00000270: f9a6 4abd fd2f 74bd 1347 4fbc 4b18 573d
00000280: 9d7a 883d 7056 9cbc 944b 283e 4741 4d3e
00000290: ed0a 0e3e 8962 b0bd f789 043d 22e1 00bf
000002a0: c18c 9bbd cf80 b73d 1c8e d3bd 04f9 fa3d
000002b0: 0781 f5bc bfd8 c5bb e849 1e3d 7a4f 4e3e
000002c0: 0ec2 93be 48e7 5abe 1797 24bc 4887 043c
000002d0: 5808 413e e675 533e 0709 0c3e bcec d83e
000002e0: 1b44 e4bd 484c ae3b c383 4bbd 1ad6 d73d
000002f0: 31f7 34be d8b6 8e3d c297 a6bd 83c5 0abf
00000300: 902a 10bd dae2 bf3d 4573 bebc 723f 923d
00000310: 8e1a 0cbe bf68 653d 03c3 0e3c 3967 253e
00000320: 4351 a2bb bb11 963c 3dc5 46bd eb9e 91bd
00000330: 8d57 f8be 27d7 3d3d 952c 103f 1f92 4f3d
00000340: 32ad 36bd 9b4b 5cbe 4486 313c 014a 78bd
00000350: 2c47 873d f084 213c bd4f 903d 35b4 2fbe
00000360: 3099 8ebd eadf e0bb dc47 2b3e 33af 903e
00000370: d1c6 8a3e 5121 0c3e 8096 54be f19c ad3e
00000380: 2390 2e3e 93d7 ca3d 6dbe bc3d 17b2 0cbf
00000390: e00e 533e 4c39 fa3d 978c 7dbe 324c ea3d
000003a0: 232b 3cbd 5c3a f4bc 3cf3 4cbd 4f4e 3f3d
000003b0: f85f d43e 2ba1 a73d 57de 943d 3589 bf3d
000003c0: 98ea e13d 6344 e23c cf10 253d 075a adbd
000003d0: c701 3a3d a5cd 1a3e 05f8 113d 44ef eebd
000003e0: def2 4c3e 4509 1d3d 54c6 92bf a2b8 39bd
000003f0: 548f ffbc f928 0ebc a49e 033e fb3e 003e
0.115852155 -0.21986856 0.14172086 -0.46115014 -0.055983752 0.50032043 0.21202856 0.19180992
-0.36829472 0.14806871 -0.44156137 0.006226243 -0.37807298 0.08215482 0.16145122 0.034088336
0.3170703 0.100202374 0.21049072 -0.4841045 0.4098727 -0.007993355 -0.08061183 -0.8226927
-0.061121125 0.05980362 -0.18670933 0.473181 0.024937704 0.0053738654 0.045100477 0.14184622
-0.009422826 -0.0049432144 0.031313103 0.120824344 -0.028197011 -0.009585496 -0.26110205 0.20234157
-0.37128738 -0.57954353 0.060781512 0.093312964 0.108040206 -0.20609862 0.0010220681 -0.10739773
-0.73787063 -1.0949776 -0.5030269 0.011010803 -0.07043129 -0.054641597 -0.08436427 -0.061504465
-0.31685573 0.31124443 -0.08413174 -0.056700498 0.10791424 0.04442866 -0.062127613 0.065892614
0.09984368 0.110732354 0.09425379 0.00609182 -0.2551204 0.073693566 -1.5206566 0.21603234
0.06559532 -0.019807575 -0.057833698 -0.09094883 0.17808756 -0.01930602 -0.057269596 -0.8688903
-0.2802489 -0.14617062 -0.038120065 0.059111916 -0.3931274 -0.5006011 0.6443926 0.24635881
-0.04905287 0.09710779 -0.03993623 0.0045558345 -0.01466368 -0.21027003 0.2448804 -0.07855216
-0.016652312 -0.017153967 -0.060538728 -1.0653335 0.39863285 -0.018712098 0.19738303 0.07363601
0.043276954 -0.061403133 -0.5418195 0.06119872 -0.05214574 0.113664255 -0.014634966 0.19150306
-0.039943658 0.04759765 0.12562089 0.09114436 0.054141458 -0.5120007 -0.0016729421 -0.11778785
-0.111766495 0.026800051 -1.028035 -0.026676048 0.08753701 -0.43740177 -0.04832996 0.07266875
0.040126625 0.16745742 -0.16690056 -0.2718682 -0.30197304 -0.18268365 0.18901476 -0.26688114
0.20609361 -0.20975721 0.10831273 0.040334616 -0.59002393 -0.010414978 0.28876227 0.13827737
-0.8512312 0.008808204 0.19944794 -0.12733391 -0.15272368 -0.11101837 0.11072375 0.15271272
-0.033026658 -0.091603495 0.33574772 -0.05918127 -0.049475644 -0.059616078 -0.012651223 0.052513402
0.066640116 -0.019084185 0.16435081 0.20044433 0.13871355 -0.08612544 0.032358136 -0.50343525
-0.07595206 0.08960115 -0.103298396 0.12254527 -0.029968752 -0.006037801 0.0386447 0.20147505
-0.2885899 -0.2137729 -0.010045788 0.008088894 0.18850839 0.20650443 0.13675319 0.42368114
-0.111458026 0.005319152 -0.049686205 0.105388835 -0.17672421 0.069684684 -0.08134414 -0.5420763
-0.03519684 0.093694404 -0.023248324 0.071410075 -0.13682005 0.056008097 0.008713487 0.16152658
-0.004953535 0.018319001 -0.048527945 -0.07110389 -0.48504296 0.046347763 0.56318027 0.05067646
-0.044598766 -0.21513216 0.010835234 -0.06061745 0.06605372 0.009858355 0.07046459 -0.17158587
-0.06962812 -0.00686263 0.16726631 0.28258666 0.2710481 0.13684584 -0.20760536 0.339088
0.17047171 0.09904399 0.09216008 -0.54959244 0.20611143 0.1221796 -0.24760662 0.11440314
-0.045939576 -0.029812984 -0.050036654 0.04670554 0.41479468 0.08185037 0.072689705 0.09352342
0.11031073 0.0276205 0.040299233 -0.08464437 0.04541185 0.1511751 0.03563692 -0.1166673
0.20014521 0.03833892 -1.1466775 -0.045342095 -0.031196274 -0.008676761 0.12853485 0.12524025

encoder.1.linear.bias f4 [64]
00000000: 0042 5a3d d07b 013e 6db9 eb3c b0f4 65bd
00000010: 164e 3fbd 38cc 0a3e 48a0 cf3d 0567 1b3e
00000020: 952c 37bd 8bd4 92bc a7d0 0f3e 9b4a 1e3c
00000030: ef60 323d f901 e1bd 8cba 8f3d 848c 88bd
00000040: 212e cebc 2fb2 9abd f01d 563d 630d ee3c
00000050: 4083 cc3c 861c 99bb 0012 10bd 3d65 2e3c
00000060: fda5 2bbd 56b4 c4bc cd64 74bd 349f 88bb
00000070: 06a8 90bd 6c01 703d 5e90 203d a1eb 663d
00000080: 3f5f 46bd 1544 093e b93c 9a3e 76bb 6bbd
00000090: f699 babd 085b 14be c4d9 7b3d d552 4b3d
000000a0: e97f 693d 3449 eb3d e152 4c3e c781 463d
000000b0: f122 ad3d b2dc 43bd 6573 dcbb 57db a3bd
000000c0: 62d7 933d fd83 0ebe a098 0a3d 6b53 a3bc
000000d0: d79a 95bd 921a 903c dad1 2abd b24d 123e
000000e0: 45b7 e13d 0c0b a63b d9bc 4a3c 40a4 1b3b
000000f0: b670 993c 518f c1bc f973 d23d 3901 b73d
0.0532856 0.12644887 0.028774941 -0.056141555 -0.046705328 0.13554466 0.10137993 0.15176018
-0.04472025 -0.017923614 0.14044438 0.009661342 0.043549474 -0.109867044 0.07018003 -0.06667426
-0.02516848 -0.07553517 0.052274644 0.029059118 0.024964929 -0.0046725897 -0.035173416 0.010644254
-0.041906346 -0.024011772 -0.059666444 -0.004169369 -0.07063298 0.058595106 0.03920018 0.056377057
-0.048430678 0.13404877 0.30124453 -0.057551824 -0.09111397 -0.1448785 0.061486974 0.04963954
0.05700675 0.11488572 0.19953491 0.04846361 0.0845393 -0.047817893 -0.0067276233 -0.0800082
0.072188154 -0.13917537 0.03383696 -0.019937238 -0.07304924 0.017590795 -0.041704036 0.14287451
0.11021284 0.005067235 0.012374126 0.0023749024 0.018730503 -0.023627909 0.10276026 0.0893578

encoder.2.linear.weight f4 [32, 64]
00000000: 4318 99bc cb74 96be 18d2 433e 5f07 3a3d
00000010: f8a3 79bd c1ca c4bd 02ea 8cbc c5f1 44be
00000020: e846 803d 6a3b 9bbb 3cfd c8be 372f c03d
00000030: c91c 553d 5720 883c 936e f43c 0bf9 8a3d
00000040: f0e9 423d fc02 9a3d d2de 81bd 9a28 04be
00000050: 3094 04bd b235 eebd 1adf 0dbe 2917 6f3e
00000060: 013c 39bd 0ddd d93d d921 c2bd 1b09 0dbd
00000070: 926b 8d3d c955 ab3e a502 f8bd 1c52 f43c
00000080: 0d97 89bd 257b 1ebf bc8d 53be 80d4 03bc
00000090: 7067 39bd 03c5 443e 7e2f a8bd be1f dabd
000000a0: 7c21 01be c479 13bf 6813 12bf 21f4 893d
000000b0: 80d1 3c3e 6271 f2bd 9a91 06bf aa68 d2bd
000000c0: edc5 033f 1f72 c2bc 7472 acbe f445 d1ba
000000d0: 5449 9bbb 2e23 0e3f e060 a6bc bb0e 17bf
000000e0: 2b65 d63e bbe3 7bbd 1458 a03e 401e 32bc
000000f0: 551f 81bd 6dea 11be 56f5 7f3d 399c 59bf
00000100: 5efe 8d3e aca3 123e ecec d0bc baa2 8abd
00000110: be8f 9a3e 9a57 d7bd c50a c93d f7d5 913d
00000120: 9ad2 653d 6d05 9b3d ad8c 493e b64e a53c
00000130: 201c efbd 00b2 ca3d b91e 7e3d 7e9f c43d
00000140: 4790 07bb 18f9 dfbc c0ff 29bd 0725 8e3e
00000150: 04fc ac3d 4c73 1d3d da7e e1be 89d6 60be
00000160: 587a 013e 907c b7bc 6a89 4e3e 8d2b bf3d
00000170: 4a7d 47bd 8d2d a13e ef67 8abe a74d a33c
00000180: 5c92 e0bd d96f 863e f13c 9abe b24a eebd
00000190: 3dae edbd d60c c73e ce10 38bd cc86 12be
000001a0: 8959 2fbd e60c 1e3e beb5 91bc 0664 f83c
000001b0: 6790 4c3d 3f6f 813d 0227 38bd 5428 4bbd
000001c0: b427 b03c cffd 9f3d 572d be3e 5a7f 913d
000001d0: 2eb1 d2bd 5a92 793e fcf2 a33d defa 3c3e
000001e0: e4ea c83c ac82 7c3d 7d83 dabd 56cf d83d
000001f0: c1a3 37bd 6fe9 c73e 6d1d d93c 11ce ba3d
00000200: 5049 bbbd 80de c3bd 0e52 e6bd 1e72 c53d
00000210: cbf2 adbd f4eb 80bd 7e18 583b d52a bf3b
00000220: 9882 5ebd e815 6d3d b9cb 9a3a 91a7 d23d
00000230: 1e14 03bd fa14 8ebd 954a ddbd aadc 193d
00000240: 9b53 9a3d 5a18 95bd 39b7 9e3d 3ddd 0abe
00000250: 51fe 1fbd f759 a9bb 5024 89bd 9827 e33d
00000260: b0da 713c d025 b93d 2b50 943d 0e05 f3bd
00000270: 6d2e c53c 3c99 11bd 32f6 fb3c a7ed b7bd
00000280: e4ab a7bd 8d24 0d3d be23 8cbc 62eb c73d
00000290: bb08 bfbc 0b6e a6bd 458e a2bd d47c 7fbd
000002a0: aa7e d23d 574a c9bd d224 a83d 2a74 273d
000002b0: 7d6c db3c badb 93bd 9b8a 213c 9dd9 12bd
000002c0: 2ba1 593d 301b c43d c1c8 c93d d350 713d
000002d0: 33d5 913c 126c a23d 384a b8bc 66a0 c13d
000002e0: a8fc d0bd 09ff 483c 0775 063b ee72 afbd
000002f0: 02bc 8d3d ed1b e83c f4c7 27bd 7fc3 d23b
00000300: e2ba a03b 20e8 7a3d 2a31 55bb 9c13 953d
00000310: d309 65bd 6426 d4bd 201d cb3c 0025 feba
00000320: 4c1a 2b3d 5c6e aabd b47b 333d 18d8 dcbc
00000330: 0b25 33bb 280b bcbc 298a 0bbe b0fa 5a3c
00000340: 4cf1 b03d 2081 9b3c a89a d2bc e782 d9bd
00000350: b67c 8fbd 11dc 3d3d 3a6b ce3c 4d7b 6fbd
00000360: 1c1a 3fbd 0009 ed3b 18fd fdbc e685 823d
00000370: 00ab dcbd 685a bdbc ba98 c5bd e128 8d3d
00000380: 1e78 f63d c05f c7bc 2f20 d0bc a4fa b3bd
00000390: 501b bcbd a1b2 433c 44e3 1abe fc54 4b3d
000003a0: a055 533c 8095 aabb b3db 99bb 063c d9bd
000003b0: cbe8 6cbd ec6a e2bd 6201 04bd 6226 f6bd
000003c0: cf56 e439 4176 07be 0853 cb3c b26d a3bd
000003d0: 30c9 51bc 3a08 c03d 7861 49bd 488b 4cbd
000003e0: 4333 bcbd fcd3 32bd 3484 ccbd 20fa 2cbc
000003f0: 924a 8bbd b371 09be 20d9 0f3d 8239 b4bd
-0.018688327 -0.2938598 0.19123113 0.045417186 -0.06094739 -0.09608985 -0.017201427 -0.19232853
0.06263524 -0.0047373073 -0.39255702 0.093840055 0.052029405 0.016616983 0.029837882 0.067857824
0.04758638 0.075201005 -0.06341328 -0.12906113 -0.032367885 -0.11631335 -0.13854638 0.23348679
-0.04522324 0.10637865 -0.09479112 -0.03443251 0.06905283 0.33463886 -0.121098794 0.029824309
-0.06718264 -0.61906654 -0.20659536 -0.008046269 -0.04526466 0.19215779 -0.082121834 -0.106505856
-0.1261043 -0.57607675 -0.5706086 0.06736017 0.18439293 -0.11838032 -0.5256592 -0.10273869
0.51473886 -0.023736058 -0.3368107 -0.0015966282 -0.004738966 0.5552243 -0.020309865 -0.5900685
0.4187406 -0.061496478 0.31317198 -0.01087147 -0.06304804 -0.14249583 0.06248983 -0.85004
0.2773313 0.14320248 -0.025503598 -0.06769319 0.30187792 -0.105147555 0.09816507 0.07120889
0.05610905 0.07569394 0.1968257 0.020179134 -0.11675286 0.09897232 0.06204102 0.09600733
-0.0020685361 -0.027340457 -0.041503668 0.27762625 0.08446506 0.038440034 -0.44042093 -0.21956839
0.12644327 -0.022398263 0.20169607 0.093344785 -0.04870347 0.31480065 -0.2703242 0.019934488
-0.10965416 0.26257208 -0.3012462 -0.11635341 -0.11605499 0.3887698 -0.0449379 -0.14309233
-0.042809997 0.15434608 -0.017786857 0.030321132 0.0499424 0.06320047 -0.044959076 -0.049599007
0.021503307 0.07812082 0.37143967 0.071043685 -0.102877006 0.24372235 0.0800533 0.18455073
0.024526067 0.061648056 -0.10669611 0.10586421 -0.044833902 0.39045283 0.02650329 0.09121335
-0.091448426 -0.09563923 -0.112461194 0.09640907 -0.08493575 -0.062950045 0.0032973583 0.0058339634
-0.054323763 0.05788222 0.0011809982 0.10285867 -0.032001607 -0.06937595 -0.10805241 0.037563957
0.07535478 -0.07280035 0.07749791 -0.13560958 -0.039060894 -0.0051681953 -0.06696379 0.11091536
0.014761612 0.09040415 0.07241853 -0.118661985 0.02406999 -0.035546526 0.030757044 -0.089808755
-0.081870824 0.034458686 -0.017106887 0.097616926 -0.023319593 -0.08126458 -0.07937292 -0.062374905
0.102780655 -0.09828632 0.08210148 0.040882267 0.02678513 -0.07219644 0.009859706 -0.035852063
0.053132217 0.09575498 0.09852744 0.05891497 0.017801857 0.07930769 -0.022496328 0.09454422
-0.1020444 0.012267836 0.002051653 -0.08566843 0.06920625 0.028333629 -0.040962175 0.0064319964
0.0049050907 0.061256528 -0.0032530525 0.07279131 -0.055917572 -0.10358885 0.024794161 -0.0019389689
0.041773126 -0.08321831 0.043819144 -0.02695851 -0.0027335312 -0.022954538 -0.13626923 0.013365433
0.08639774 0.01898247 -0.025708511 -0.10620671 -0.070062086 0.04635245 0.025197614 -0.0584672
-0.04665576 0.007233739 -0.031004474 0.06373195 -0.10774803 -0.023114398 -0.09648271 0.06892563
0.12034629 -0.02433765 -0.025405971 -0.0878804 -0.09184897 0.011944444 -0.15125757 0.049641594
0.012898833 -0.00520581 -0.0046953796 -0.10607152 -0.057839196 -0.1105555 -0.03222788 -0.1201904
0.00043552226 -0.13228704 0.024819866 -0.07979907 -0.0128043145 0.09376569 -0.04916522 -0.049937516
-0.09189465 -0.043659195 -0.09986153 -0.010557681 -0.068013325 -0.13422279 0.035119176 -0.08800031

encoder.2.linear.bias f4 [32]
00000000: 60fb 3ebe f8f3 65bd 6051 de3b 9ef5 f1bc
00000010: 7f9e 0ebe f9a1 443c dbe6 3c3d b007 2ebd
00000020: 4e53 b13e fda3 753d dfc7 d8bd c1a3 ffbc
00000030: 0d0c 093a 36ec 703c 3ff4 8dbe f350 ff3d
00000040: 84c0 a5bd a774 24be e410 9e3d 6e33 ec3d
00000050: 99b1 683e bb0f 17bd 5081 62be cf15 27be
00000060: 5861 783e 6d5f 173e b953 91bd ee3b 933c
00000070: 70d2 e93c 4b29 3c3e 2a37 32be 623c 06bd
-0.1865058 -0.05614087 0.006784603 -0.029536065 -0.13927649 0.012001508 0.0461186 -0.0424878
0.3463387 0.059970845 -0.105849974 -0.031206014 0.0005227931 0.014704755 -0.27725407 0.12466612
-0.0809336 -0.16060124 0.077180654 0.11533247 0.22723998 -0.036880236 -0.22119641 -0.16316913
0.24255884 0.14782496 -0.07096047 0.017972913 0.028542727 0.18375127 -0.17403856 -0.03277243

encoder.3.linear.weight f4 [16, 32]
00000000: 343f 1d3e 2403 db3c ac81 04be bc1f 023d
00000010: 5a9c 88bd 3ac4 cf3d 8b4d 37be 5b7c 8bbd
00000020: d63b 2fbe 46a0 2fbd bed8 a43d 314b dbbd
00000030: edd0 3e3d 6082 093b f073 4dbd 51a8 d2bd
00000040: a433 41bd 2576 6cbe 6b20 143b c6b9 cb3d
00000050: 53d7 c9bd 27b4 4bbe 2c7b 163d 96df bb3d
00000060: 539c 0abc d3a9 d73d 50a2 c63d 008e c0ba
00000070: 5810 65bd 5e76 3fbe a26b f13d 2d8c 62be
00000080: dac3 ad3d 18bc 20be f8c1 a63c 4d75 203e
00000090: e5ad ab3d b1cd 7ebd f440 1f3e a2e6 ccbd
000000a0: 1535 a13e b49b 03be 90c6 523e dc26 263e
000000b0: 0f52 40bd 1831 00be 5571 f9be babf 6d3e
000000c0: 0058 d638 a51a 0c3e 1fba febc 11d1 1ebe
000000d0: c26e e8be 2f78 2cbe a6aa d9bd 7e6b aabd
000000e0: ddf5 0d3e 5470 33bd 3f73 63bd 6029 da3b
000000f0: e91a 02be a53f 513e f284 13bf 4547 383e
00000100: 752d 6e3d 0fb1 043e c2f1 1e3c 36d2 993d
00000110: 4dc7 4fbe aa5a 15bf 2e58 823d 2398 da3c
00000120: a5e8 a1bd 4b9c a0bd f16e 283e bc1f 0fbd
00000130: f5ba 773d f506 a03d 8b82 a03e 461e 2b3e
00000140: ccf8 1dbe df9c 08be 0977 65bc 4b90 9b3d
00000150: dce5 5c3e e69e 903e f188 e63e aa1d f23e
00000160: 9d6e 4c3d ff67 91be 8152 32be c36b ac3e
00000170: ebf7 30be 9e4d 13bf 1ca6 e13e 6279 03bf
00000180: 6019 92bd 04d8 cabd 20c6 3a3d f836 2a3d
00000190: b330 053e 37e3 1bbd 052c 39be dcf3 88bd
000001a0: d3da 01bd f855 853b 33a3 e1bd d5d2 933d
000001b0: 56ea 72bd 9ed8 ca3d 7158 b5bd d47a 7f3d
000001c0: 90ec 01bc 9836 23be 7f64 afbd 51c9 ccbd
000001d0: acf3 11bd 84cf 30be 0c64 2cbe 97ca 273e
000001e0: f761 033e 40ee b4bc 7d49 39be 60eb 243c
000001f0: b3d9 48bd fdb4 973d b42d e8bd 7f1a b8bd
00000200: 5fad 3ebe f86a dabb 1baa 073d 268e 693d
00000210: b10d 8e3c b40a 8b3e 82fb 3dbe a1ce 3f3e
00000220: 22a8 203d d617 993e 53a0 a83d 41f1 663c
00000230: d752 92be 5c9c 743e 83e8 b5bd 276d a93e
00000240: 0c16 2d3d 253d e43e 9707 ad3d 5929 b03d
00000250: 2e3e 8f3e b810 a03d 5cff a8be 2459 703e
00000260: 1d4a 6e3e 5a55 df3b 6f61 0e3e 4cf3 6dbe
00000270: 6b6e 203e 4f0f 213e 3b34 e73e bb14 b93d
00000280: f926 d1be 1561 60be b14f a33d 80b9 71bc
00000290: af50 243e c3d0 2ebd 8c8c eb3e f949 d13e
000002a0: af98 263f eaca ab3d 39de 62bd 1adb 883e
000002b0: 4190 fa3e 9298 fcbd e205 4dbe 82d3 adbe
000002c0: 0d8d 11be bb18 5d3e 1059 41be 32ac f0bd
000002d0: 4f50 c33d a2d1 06be a48b 88bd d322 43be
000002e0: 873c aebd ec04 e33d fb9a f33d 319f 01bf
000002f0: 29a1 8bbd 8a33 2a3e d6ef e1be 2325 293d
00000300: a6be 453d 7c06 5bbc 80bc 0dbb f1bb f13c
00000310: 89db 34be 354b 14bc 9e16 86be 6e52 e4be
00000320: 8730 c2bd ab14 a43d ce7a a93d 8fea 9cbe
00000330: fdae cdbe 9f2c c1ba 498c 0f3f c327 993e
00000340: e619 ea3d 64cd 34bd f210 b9bd d937 babd
00000350: d975 f43e d062 743e e503 2f3e b616 ccbe
00000360: 9031 debd c97c 7a3d 8c4f 5bbe baeb 93be
00000370: 2261 183c 8380 1dbe 59e7 e4be c785 38be
00000380: 0594 84be 6a04 503e 3a57 883d 0ef6 f5bd
00000390: 46f4 e93d 8632 3e3e 296a ce3e 4cc4 a43e
000003a0: 5409 fabe 205e 923e 8a30 cf3d 2872 33bb
000003b0: 3a47 593e abab d7bd c34c 24be 6f12 4cbe
000003c0: f48b 00be 4bdf b03d cf8b 74be cc76 b4bc
000003d0: 12a3 e33d 22de 37bd 4855 5abe 6680 653b
000003e0: f0c1 06bd 00b8 9abd 76f6 083e e099 cabe
000003f0: 0739 063c bd05 3bbc 4cdc 82bb c5b5 8dbd
0.15356141 0.026734896 -0.12940091 0.031768546 -0.06670447 0.10144849 -0.17900674 -0.06810828
-0.1711267 -0.042877458 0.08049153 -0.10707701 0.046585966 0.002098225 -0.050159395 -0.1028601
-0.04716839 -0.23091944 0.002260233 0.09947543 -0.09855523 -0.19892941 0.03673856 0.09173505
-0.008460122 0.10530438 0.096989274 -0.0014690757 -0.05592379 -0.18697497 0.117881075 -0.22123785
0.08484621 -0.15696752 0.020356163 0.15669747 0.08382777 -0.06220788 0.15552121 -0.10004927
0.3148581 -0.12852365 0.20583558 0.16225761 -0.046953257 -0.12518728 -0.48719278 0.23217669
0.000102207065 0.13682039 -0.031094609 -0.1550944 -0.45397002 -0.16842721 -0.10628252 -0.08321284
0.1386332 -0.043808296 -0.05552983 0.0066577643 -0.12705578 0.20434435 -0.57624733 0.17995937
0.05814882 0.12958167 0.009701194 0.07510798 -0.20290871 -0.5834147 0.06364475 0.026683873
-0.079057015 -0.078423105 0.16448571 -0.034942374 0.06048103 0.07813827 0.31349596 0.16710767
-0.1542694 -0.13341092 -0.014005431 0.07595881 0.2157206 0.2824623 0.45026353 0.47288257
0.049910177 -0.28399655 -0.17414285 0.33675966 -0.17282073 -0.5754031 0.44072044 -0.5135709
-0.07133746 -0.09904483 0.045599103 0.04155633 0.13006859 -0.038058486 -0.18083198 -0.066871375
-0.031702828 0.004069086 -0.11017456 0.072179474 -0.05930551 0.09904598 -0.088547595 0.062372997
-0.007929936 -0.15938795 -0.0856409 -0.099993356 -0.035632774 -0.17266661 -0.1683504 0.16385876
0.1283034 -0.022086263 -0.1809444 0.010065883 -0.04903574 0.07407568 -0.11336842 -0.08989429
-0.18620823 -0.0066655837 0.03312121 0.05702033 0.017340513 0.27156603 -0.18552974 0.18731166
0.039222844 0.29900998 0.082337044 0.014095605 -0.28578827 0.23887771 -0.08882239 0.3309109
0.042257354 0.445779 0.08448713 0.086016364 0.27977127 0.07815689 -0.33007324 0.23471504
0.2327046 0.0068155946 0.13904355 -0.23237342 0.15667121 0.15728496 0.45157036 0.09037157
-0.40850046 -0.21912034 0.07974184 -0.014753699 0.16046403 -0.04267956 0.46005666 0.4087675
0.65076727 0.08388312 -0.05538771 0.2672966 0.48938182 -0.12333788 -0.20021775 -0.3395043
-0.14213963 0.21591465 -0.18881631 -0.11751594 0.09536802 -0.13165906 -0.06667259 -0.19056253
-0.085076384 0.11084923 0.118947946 -0.5063353 -0.06817848 0.16621223 -0.44128293 0.041295182
0.04827752 -0.013368245 -0.0021627247 0.029508563 -0.17661871 -0.009051134 -0.2618913 -0.4459414
-0.09481912 0.080117546 0.08275376 -0.30647704 -0.40172568 -0.001473803 0.56073433 0.29913148
0.11430721 -0.04414119 -0.09036435 -0.09092683 0.4774616 0.23865819 0.1709133 -0.39861077
-0.10849297 0.06115416 -0.21417063 -0.28890783 0.009300502 -0.15381055 -0.44707754 -0.18019782
-0.2589418 0.20314184 0.06657262 -0.12009822 0.114235446 0.1857396 0.4031537 0.32181013
-0.48835242 0.28587437 0.1011668 -0.0027381275 0.21218577 -0.1053079 -0.16044907 -0.19928907
-0.12553388 0.0863634 -0.23881458 -0.022029303 0.111150876 -0.044889577 -0.21321595 0.0035019158
-0.032899797 -0.075546265 0.13375267 -0.39570522 0.008192307 -0.011414942 -0.0039935466 -0.069194354

encoder.3.linear.bias f4 [16]
00000000: fca7 e03b 0e4f 913d 0287 dbbc bba7 4cbe
00000010: 3268 233d c1fa 42be 18c0 5dbe 2b2b c03c
00000020: 1832 4e3e c6b8 3ebd d06e 193e 5e69 0c3e
00000030: 8b68 1c3d 9315 233d 3432 183e 0ecf cf3d
0.006855963 0.070951566 -0.026797775 -0.19985859 0.03989429 -0.19040968 -0.21655309 0.023458084
0.20136297 -0.046562932 0.14983678 0.1371207 0.038185637 0.039815497 0.14862901 0.101469144

encoder.4.linear.weight f4 [8, 16]
00000000: aa15 a83d 7822 3ebe 52f0 c1bd d27c 5ebe
00000010: 65e1 173e 7fef dbbe 45c8 f43d 47a3 32bd
00000020: 71be 8abe 0e3b b7bd 26a5 ed3d 1aa4 01be
00000030: 8d33 93bc 6449 7fbe b4c1 483d b4d8 fcbd
00000040: ce98 b73d 7880 bdbe 336e dfbe 4daa e9bb
00000050: 729c ab3e 261b 57be 007e 433f 3683 85be
00000060: 491d 80bd e884 dd3e 2408 cabc e3a9 8b3e
00000070: 216b be3d 7924 80be 2da6 4d3e 0229 ad3e
00000080: 54ad 0cbe b102 0e3d f3b8 69be b355 523e
00000090: 61df ce3e 863c acbd 9511 78be 1720 b2bd
000000a0: 3cb5 993e 4ced 8cbe 806a d83e 797f 9f3e
000000b0: 016b 2a3e 880c 9a3d 44cc c93d 979f 043d
000000c0: 01ed d6bd cc90 ae3e deb7 e9be f0e6 00be
000000d0: 39e8 42be ff54 023e 8b35 22be 443b d0bd
000000e0: 2bfd c53d b658 13bf 9537 4b3e 765a 723e
000000f0: b890 5f3d cf59 19be fdd6 f23d bd22 92bd
00000100: 496c b5bd 2bb6 febd 83a8 96be 2a3f 363e
00000110: a943 a63d 474f ed3e 7b41 473e a7f5 e13e
00000120: 5953 3cbd 7ce4 7e3c d9a4 4ebd 2af8 973d
00000130: 2aea 2c3e 0049 c33e 8ca0 6cbe 50fe 84bb
00000140: 8ada 52be 239c 83be b9f0 593e 8625 28be
00000150: b779 a9bd 791a b1be b910 8b3e aaeb 85bd
00000160: a7f9 9fbe 5358 8b3e 2765 39bf 7c9f 70be
00000170: f3f3 9cbd a604 eabe 6d1b 13be 5d95 e33d
00000180: 3c5b 793e 5314 8b3e 7714 bdbe 7653 7a3d
00000190: cfd3 ed3d 1e2f d13e 4835 4f3e 6c26 ecbd
000001a0: 88c4 953d 631b 59bc fb96 58be c415 41be
000001b0: e15e 063e cdd0 883d 6bce 1a3f 1b08 d73e
000001c0: 98e9 37bd 756b 3e3e 12ca 4cbe 0218 2fbe
000001d0: ccff 343d 334b a9be b2ca 923d 4992 e93d
000001e0: bb5a 5fbe af82 ce3d a94a 97be de55 c03c
000001f0: 517b 3fbe 0c16 24bd d40d 4fbe 8a0f 77be
0.08207257 -0.18567836 -0.094696656 -0.21727303 0.14832075 -0.4295616 0.11952261 -0.043612745
-0.2709842 -0.08946811 0.11603765 -0.12660256 -0.017968917 -0.2493034 0.049012855 -0.1234602
0.08964692 -0.37012076 -0.43638763 -0.007130897 0.33517796 -0.2100645 0.76364136 -0.26076669
-0.06255586 0.43265462 -0.024662085 0.2727805 0.09297777 -0.25027826 0.20082922 0.3382035
-0.13737994 0.034670535 -0.22824459 0.20540504 0.404048 -0.084099814 -0.24225457 -0.08697527
0.30021083 -0.27524793 0.42268753 0.3115194 0.16642381 0.075219214 0.09853414 0.03237876
-0.10494424 0.34094846 -0.45648092 -0.12588096 -0.19033898 0.12727736 -0.15840738 -0.10167554
0.096674286 -0.5755724 0.19845422 0.2366732 0.054581374 -0.14975666 0.11857412 -0.07135532
-0.088585444 -0.124370895 -0.2942544 0.17797533 0.08118374 0.46349546 0.19458573 0.4413273
-0.045977924 0.015557405 -0.05045018 0.074203804 0.16886202 0.38141632 -0.23108119 -0.0040586367
-0.20591179 -0.2570506 0.21283235 -0.16420564 -0.082751684 -0.3459051 0.27161196 -0.0653909
-0.31245157 0.27215824 -0.7241997 -0.23498338 -0.07663717 -0.4570667 -0.14365931 0.11112473
0.2435121 0.27163944 -0.36929676 0.06111475 0.11612665 0.4085626 0.20235169 -0.11530766
0.07312876 -0.013251158 -0.21151344 -0.18855959 0.13122131 0.066804506 0.6047122 0.4199837
-0.044900507 0.18595679 -0.19998959 -0.17099002 0.04418926 -0.33065185 0.07167567 0.11404855
-0.21811955 0.1008352 -0.2954915 0.023478445 -0.18699385 -0.040060088 -0.20220119 -0.24127021

encoder.4.linear.bias f4 [8]
00000000: b440 0abb 2d0c 9dbc 5a84 4c3e 8a2a 73be
00000010: c3dc 83bc fb51 8a3d 947c dd3d 75a8 1f3d
-0.0021095695 -0.019170845 0.19972363 -0.23746696 -0.016096478 0.06753918 0.10814777 0.038979013

decoder.0.linear.weight f4 [16, 8]
00000000: c793 593e ea89 e83e 9a4f 55be 8b94 f7be
00000010: aaab c43e d704 823e e7d0 0bbf 8366 abbe
00000020: 4fe9 debd 7354 3fbd cb8d c83e d815 9f3e
00000030: 11c2 bd3e 871e 2bbe 062c 2cbe 10b7 dc3e
00000040: be9e 143e e63e 283e 5866 c03e 73f8 603d
00000050: 38b1 96be a082 cdbe 131e 74be f179 15be
00000060: 7082 cb3d 50ad bcbd 29a2 69be 97b4 37be
00000070: 7cc2 01be a4df 84bd 80c6 013c 9e74 363e
00000080: cc11 69be ed57 c13e ac29 943e 996f 86be
00000090: 78d2 2dbe d0f6 8cbe 6057 36be 8c75 1c3d
000000a0: b077 9abe d2c2 bebd 12f1 bfbd 92f1 433e
000000b0: 462a 263e 9ad2 143f 3e58 953e f9ea debd
000000c0: 40ae 09bd 0417 64bd 57e0 9f3e eff2 dd3d
000000d0: fe41 3b3e a4a9 eabc 519d c2be 5fde 3f3e
000000e0: 24d6 52be 38cb 813d f0b1 ca3e bad8 d03e
000000f0: 283d 0cbf 8839 8cbe 13b5 d5be ddf8 b3bd
00000100: 69f3 a33e 5420 26bf 1886 b03e e4e3 b13e
00000110: 09f8 a63d ac82 24be e0cc a13e c495 2b3f
00000120: 27a7 47be fb88 d4bd 251f a13e f2ea 573d
00000130: 3018 a43e 421e c53b ff3f 4cbe 8cfc 30bd
00000140: 32d7 7fbd a0b4 a5be 9977 aebe 6a33 74be
00000150: 688a d13e ce83 e03e 1984 8e3e b33b a7be
00000160: d7f2 243e 464e 4ebd 21d2 a43e 8369 8fbe
00000170: 3119 83be 9d7c 9bbe 8386 c03e 14f6 71be
00000180: 783c 8b3e 1fe5 35bd 1c33 79be 4aed 753e
00000190: eefa 903d 4089 023f 3947 b9be 058e 8dbd
000001a0: 5634 af3e 9cc1 ec3d 0788 2bbe 7ee6 f03e
000001b0: 89b8 0b3d 58e9 b93e c462 303f ff75 0abe
000001c0: 3331 5bbd 1c5b 46bd 71d5 c73e 4b21 3d3e
000001d0: a30d a5be e05f ccbe e9f3 b53e e65a 42bd
000001e0: 5f58 edbc 01ca 223d 0574 5abe 4c04 e03d
000001f0: bfc6 0bbe 3700 a2be 0fbe 7fbe 7180 f83d
0.21247779 0.4541772 -0.20831147 -0.48355517 0.3841222 0.25394318 -0.54615635 -0.33476648
-0.10884344 -0.046711396 0.3917068 0.31071353 0.37062123 -0.16710864 -0.16813669 0.43108416
0.1451368 0.16430244 0.37578082 0.05492444 -0.29432082 -0.4013872 -0.23839597 -0.14597298
0.09936988 -0.09212744 -0.22815765 -0.17939983 -0.12671846 -0.064879686 0.007920861 0.17817923
-0.22760695 0.37762395 0.28938043 -0.26257017 -0.16974819 -0.27532053 -0.17806768 0.03819804
-0.3016944 -0.09314503 -0.093721524 0.1913512 0.16227064 0.5813385 0.29168886 -0.10884661
-0.033613443 -0.055686012 0.31225845 0.108373515 0.18286893 -0.028645344 -0.38010648 0.18737172
-0.205895 0.06337589 0.3958888 0.4079035 -0.5478082 -0.27387643 -0.4173971 -0.08787701
0.32021645 -0.6489308 0.34477305 0.3474418 0.08152778 -0.16065472 0.3160162 0.670254
-0.19497357 -0.103776895 0.31469074 0.052714296 0.32049704 0.00601557 -0.19946288 -0.043209597
-0.062461086 -0.32364368 -0.3407562 -0.23847738 0.40925908 0.4385056 0.27835158 -0.32662734
0.16108261 -0.050367616 0.32191566 -0.28010187 -0.25605157 -0.3036851 0.37602624 -0.23629028
0.27194571 -0.04440796 -0.24335903 0.240163 0.07079111 0.50990677 -0.3618715 -0.06911854
0.34219617 0.115603656 -0.16751109 0.47050852 0.034111533 0.3631084 0.68900704 -0.13521574
-0.053513717 -0.048426732 0.3903003 0.18469732 -0.32236966 -0.39916897 0.3553765 -0.04744997
-0.028972803 0.039743427 -0.2133332 0.109383196 -0.13650034 -0.3164079 -0.24974845 0.12133873

decoder.0.linear.bias f4 [16]
00000000: 670e 8cbd f2c6 1cbf 3f3d 8a3d a0c8 1dbd
00000010: ef74 153e 86ad b1bf 859e 253f 6ab4 1abd
00000020: c513 353d 1e83 c7bd c6e8 d83e 2c0a cebe
00000030: 995d ff3e aae2 103f a662 f2bc 65e2 753e
-0.068386845 -0.61241066 0.06749963 -0.03852141 0.14595388 -1.388108 0.64695007 -0.037769713
0.044208307 -0.097418055 0.42365092 -0.40242136 0.49876097 0.5659586 -0.029588055 0.24012144

decoder.1.linear.weight f4 [32, 16]
00000000: 3dc8 233f 1d5a f4bc 2448 34bc 2a1e 23be
00000010: 1ec2 013c 946d 49bf d927 b83e 53c0 323e
00000020: 1241 21be 3c8b 213e 5589 edbd df3c 20bf
00000030: 7591 193d f69c a4bf 4e82 08bf 8721 27be
00000040: ddce fdbe 6261 343e 9487 b83d 507a 663e
00000050: 3691 7ebe 6c47 903d ae00 eabb 006d 73bd
00000060: 5b12 f33d bbaa 6a3d 1589 bebc 1b69 433e
00000070: 9176 073e b5dd d8bd ee9d 593e 3c78 3abe
00000080: 6868 2e3c 91e4 163d b0ec 21be 007d 1ebd
00000090: 0d29 783e 4703 b23e 32d6 8abe f8f7 8e3d
000000a0: cc25 b13c c8db dabd 9f94 54be 1664 9f3e
000000b0: 612d f43d fbb4 683c b555 913e dd39 033e
000000c0: 04cf ff3e 0d78 c03b a3fb 96bf 62fb 04be
000000d0: 985d f63d 59c1 d43d c630 3dbe fc68 713e
000000e0: cbdb 703e c083 2dbd d1c8 0a3f 9cf1 dabd
000000f0: eb4f ec3c ea27 2a3e 9760 72be 6838 823d
00000100: 38cb 5f3e 5d7f 8fbc f932 9cbe b8f6 0f3e
00000110: 1ae2 c83d 35a9 03be d659 c53d f92e a2be
00000120: c19f 6abd e301 943c 5cab 51bc 0d1f 973e
00000130: bf8d 243e c9f5 f93c 5351 3c3e bac7 6a3e
00000140: e045 353e b49e 46bd 944f b93e 62fd 523e
00000150: 63bf cb3e e8c5 9ebe d157 7bbd a174 933e
00000160: cafb 2cbf 63f6 70be 1985 53be fce3 4bbe
00000170: 3282 2cbd e6d8 c9be f7a9 e5bd 3ec0 363d
00000180: 6c6c 31bf b983 f3bd 0d6a 4a3e f4e2 54be
00000190: 7a06 6e3e 892b c43e f96e ba3d 26dc 0b3f
000001a0: 3412 663d 17cd 0bbe da15 5f3e bf0d 543e
000001b0: 3ab3 86be af36 afbd b53e 6ebc fa06 48be
000001c0: 493a b63d 078f d73e 1e5f 073d 20d5 bd3c
000001d0: db14 78be 42fa 28be 06f2 283e 2cf7 1f3d
000001e0: 3210 2b3e 428c 823e 1a48 49bf 249c 78be
000001f0: 21ca bbbc 569c 86be 9b41 593c 2aaf 15bd
00000200: 28fd 10bd 12d7 2cbe eec9 013e a874 32be
00000210: 13d6 663e 0546 90be b363 a53e bcdb b73c
00000220: 8894 bbbd 010c 3cbc be2f 593e 2f50 82be
00000230: de03 d0bd c3e7 673e e4ed d6bd 41c6 4fbe
00000240: 9dbf bc3c 153c 5bbf 0e7d b33e eedc 2c3e
00000250: 4d68 563e b8c5 173d 4f59 c5be 23de 19bf
00000260: 62dc ebbd c6e2 4abf 559f 9abe 6cc9 9c3e
00000270: a328 25bd 5d4a 903e f2f1 da3e 7b22 14bd
00000280: 2fb9 1d3f 4937 15bf 5493 8bbf ba05 023e
00000290: 0cc3 403d c6d2 023f 1953 4fbf 6141 b33d
000002a0: 2b76 fbbd e539 18bf dd54 c43e ef48 ccbd
000002b0: e712 ac3d 4e3d d13e b139 65bd 3c92 4a3e
000002c0: 6a70 423f c681 a8bd 0453 00bc b091 62bd
000002d0: 1af9 ec3e d453 9bbe be6b 9fbe fe7b f0be
000002e0: 9612 a2be 0709 29bd b2b2 afbe c16f 383e
000002f0: 6f89 2b3f 8db0 5e3e b1cb f53d 3823 31bd
00000300: 224f 52bf 8d73 893e 5ffd a3be fe3d 273e
00000310: d8c3 103d 3e64 eebd 101b 153e 892e b8bf
00000320: cec1 8ebe e35b 21bd 4f48 3cbe 132d 1b3e
00000330: 81a1 55be a4e9 0f3e 8954 383d 879d bc3d
00000340: 1120 adbe 4f64 313e d245 333d 6040 c73d
00000350: 917f 95bd e197 02be 140e df3d b5ac 0bbf
00000360: c546 5a3e ec24 0d3e 2aa0 93be 761b b73e
00000370: cd1e 0d3e 4845 05be 1ad4 0d3e 2553 c9bd
00000380: 8eae 4a3e e61a 003e 95be 48be c0bf b83b
00000390: fad6 1b3e ac46 ce3e d7c5 bcbd db24 373d
000003a0: 9cc5 c3bc 0657 4f3e 6dce bdbe 7573 043d
000003b0: 1f86 16be d77b 113e b204 a73e 4e8e 8b3e
000003c0: 11f4 c4be 07f0 82bd 2e6d 9fbd 0a82 5dbe
000003d0: 70ce 9bbe e106 b6bc 1620 a6bd fd13 233e
000003e0: 9582 713e 956b 27bb 9d51 7b3d 8654 3c3d
000003f0: 85e5 253e 2f62 e63e 64fd e63e d63e d6bc
0.63977414 -0.029828126 -0.011003528 -0.15929475 0.007919816 -0.7868283 0.359679 0.17456178
-0.15747479 0.1577577 -0.1159846 -0.6259288 0.037492234 -1.2860401 -0.5332383 -0.16321383
-0.49571887 0.17615274 0.090102345 0.22507596 -0.24860081 0.07044873 -0.0071411943 -0.059430122
0.118687354 0.057291728 -0.023258725 0.19083063 0.13228823 -0.10589162 0.21251652 -0.18209928
0.01064501 0.03683907 -0.15812945 -0.038693428 0.2423441 0.34768125 -0.27116543 0.0698089
0.021624468 -0.10686451 -0.2075982 0.31131047 0.11922718 0.014203305 0.28385702 0.12815042
0.49962628 0.005873686 -1.1795543 -0.1298652 0.1202957 0.10388441 -0.18475637 0.23575205
0.23521344 -0.042361975 0.5421267 -0.106906146 0.028846702 0.16616789 -0.23669659 0.06358415
0.21854866 -0.017516786 -0.3050764 0.1405896 0.098087505 -0.12857516 0.096362755 -0.31676462
-0.05728126 0.018067306 -0.012797203 0.29515877 0.16069697 0.030512707 0.18390398 0.22927752
0.17702436 -0.048491195 0.36193526 0.2060447 0.39794454 -0.31010365 -0.061363045 0.28799918
-0.675717 -0.23531489 -0.20656241 -0.19911188 -0.04211635 -0.39423293 -0.11214059 0.04461693
-0.69306064 -0.118903585 0.19767018 -0.20789701 0.23244658 0.38314465 0.091031976 0.54632795
0.056169704 -0.13652454 0.2178568 0.20708369 -0.26308614 -0.08555352 -0.014541318 -0.19533911
0.08897836 0.4210131 0.033049695 0.023172915 -0.24226706 -0.16501716 0.16498575 0.03905408
0.16705397 0.25497633 -0.78625643 -0.24278313 -0.022923531 -0.2629115 0.0132602705 -0.036544003
-0.03539768 -0.16878918 0.12674686 -0.17427313 0.225426 -0.2817842 0.32302627 0.022443645
-0.091591895 -0.011477471 0.21209618 -0.254518 -0.101569876 0.22647004 -0.10494593 -0.20290472
0.023040587 -0.8563855 0.35056347 0.16881153 0.20938225 0.037053794 -0.385447 -0.6010458
-0.11516644 -0.7925228 -0.30199686 0.30622423 -0.040321957 0.28181735 0.42762715 -0.036165696
0.6161069 -0.58287483 -1.0904336 0.12697497 0.04706101 0.51102865 -0.8098617 0.087527044
-0.12278398 -0.5946334 0.38345996 -0.099748485 0.08402043 0.40867084 -0.055963222 0.19782346
0.7595278 -0.08227877 -0.0078322925 -0.05531472 0.462838 -0.30337393 -0.31136888 -0.469696
-0.31654805 -0.041268375 -0.3431602 0.1801138 0.6700658 0.21747036 0.12001742 -0.043246478
-0.82152 0.2684597 -0.32029244 0.16332242 0.03534302 -0.116402134 0.14561105 -1.4389201
-0.27882236 -0.03939427 -0.18386959 0.15153913 -0.2086239 0.1405397 0.045002494 0.092097335
-0.33813527 0.17323421 0.043767758 0.097290754 -0.07299722 -0.1275325 0.10891357 -0.54560405
0.21316059 0.13783616 -0.28833133 0.3576314 0.13781281 -0.1301471 0.13850442 -0.09830312
0.1979315 0.12510261 -0.19603951 0.0056380928 0.15218726 0.40288293 -0.092174225 0.044712882
-0.023897938 0.2024804 -0.37071553 0.03233667 -0.146996 0.14207397 0.3262077 0.27257007
-0.38467458 -0.06393438 -0.07784496 -0.21631637 -0.30430937 -0.022220077 -0.08111589 0.15925594
0.2358497 -0.0025546302 0.06135713 0.045979045 0.16200836 0.44996783 0.45115197 -0.02615301

decoder.1.linear.bias f4 [32]
00000000: a480 963d 5d4e f4be b5c5 26be 5142 8e3d
00000010: 4da2 2d3f 4962 013f 6560 6ebf 3b9f 093d
00000020: d8fa cf3f e0be 303d 408d 6a3e 8ea4 b03e
00000030: d28e 0b3e 1777 b83e 1a2c 39bf 7a50 6e3e
00000040: b373 423e 24a7 0ebf 49a6 c8bc 662a 2f3f
00000050: 7527 163e 6521 6e3f f82b d4be 4fcb 063f
00000060: 415a e73e 409b 71bc 62b8 05bf 6847 a83f
00000070: 38e2 8bbe 569c 343f a1e7 773d c605 53bf
0.07348755 -0.47716036 -0.16286357 0.069462426 0.67825776 0.50540596 -0.93115836 0.03359912
1.6248426 0.043150783 0.22905445 0.34500545 0.136287 0.36028358 -0.7233292 0.23272887
0.18989448 -0.55723786 -0.024493353 0.6842407 0.14663489 0.93019706 -0.41439795 0.52653974
0.45186046 -0.014746487 -0.5223447 1.3146791 -0.2732103 0.7055105 0.060523633 -0.82430685
