models/ipod_model_expand_concat.pt (torch, 172585 bytes, 20 tensors)

encoder.0.linear.weight f4 [128, 75]
0.32347158 -0.82654953 -0.54674697 -0.10917217 0.11026987 0.2625026 0.069082186 0.39798552
-0.07584256 0.06493636 -0.082070045 0.09624284 0.20447093 0.57202095 -0.12793551 -0.057087224
0.067346364 0.21013188 -0.021794844 -0.13138492 0.04294206 -0.26499078 0.11519639 0.30371705
-0.13343892 -0.107759 0.0094480235 0.6704464 -0.06351067 0.74781877 0.026718719 -0.16465645
-0.07312564 -0.106595926 -0.09074131 -0.011454042 0.020009218 0.18463023 0.4718928 0.12094654
0.27123484 0.016134907 0.30248338 0.009826928 -0.0006993181 0.098469116 0.03081328 0.07067448
0.2524131 0.07856474 -0.29954615 -0.045902852 -0.12001176 -0.14257349 0.10199685 0.020432731
5.8477726e-05 0.19772232 -0.1740673 -0.1484208 -0.1604991 0.06660204 -0.12184405 0.08703271
0.30436733 0.047242187 -0.14388837 0.11228256 -0.0902811 -0.16848186 0.09611897 -0.093162365
0.021760477 0.22695978 0.4508735 -0.5760163 0.16933362 -0.0080229975 0.28935546 0.84960324
-0.12229716 -0.74173003 -0.10668176 -0.3260418 -0.7830975 -0.50989306 -0.4251497 -0.1578325
0.4007631 -0.19493094 -0.66624737 -0.65748215 -0.41827428 -0.7682103 -0.70683765 -0.52589643
-0.5242184 -0.68873125 -0.8986336 -0.5584546 -0.5696214 -0.4537373 0.5864043 0.26632246
0.44658944 -0.5892919 -0.720286 -0.61018133 -0.564444 -0.755643 -0.49671564 -0.24961482
-1.0230567 -0.17740859 0.59242576 -3.4521184 -0.37558424 -0.061476707 0.13081974 0.14576109
-0.12923028 -0.012626553 -0.089026034 0.23661189 -0.10663631 -0.07675466 -0.021681815 0.025767367
-0.10444697 -0.0902477 0.058011852 -0.07927741 0.11237017 0.19559132 0.12770216 -0.11594621
-0.0627952 0.06753125 -0.11929284 -0.16422236 -0.26296815 -0.1445509 -0.11110992 -0.0326927
-0.029355751 0.049515944 -0.052728295 -0.20953158 0.3885863 0.0909235 0.11289629 -0.11481821
0.075472325 -0.03471984 0.06911592 -0.10708123 0.047943458 0.10110819 0.034486443 -0.08492182
-0.047556974 0.07494809 -0.05722492 0.023575306 0.05165842 -0.052990306 -0.09069815 0.06384313
-0.0992692 -0.017365128 0.07569121 0.1121186 -0.056435697 -0.102295764 0.020079702 -0.041421533
0.06542452 -0.0867686 0.007363528 0.03197652 -0.017934278 0.09718996 -0.0710975 -0.025359958
-0.0049567595 0.10177143 0.017805204 0.048643768 0.068121314 -0.02455683 -0.030672505 -0.10487999
0.10855624 -0.09759821 -0.095006905 -0.00091290474 0.09139767 -0.109919235 -0.03658185 0.007220924
-0.033156455 -0.069284454 -0.034730166 -0.08044265 0.087066755 -0.09518823 0.026496574 0.027484134
-0.06984417 0.058977753 -0.09662531 0.0035985261 -0.069021106 0.059044898 -0.07846619 0.053848356
-0.08131252 -0.10765225 0.11518814 -0.09056281 0.050786614 0.0447575 0.03538166 -0.061818622
-0.11433512 -0.08330009 -0.07225065 -0.12082626 0.07098425 0.0019417495 -0.095547065 0.01992428
-0.1152683 0.040700655 0.085626096 0.0015924986 -0.07723275 0.024347357 0.03798924 -0.1023597
-0.05603487 0.09193001 0.015058722 -0.0717508 0.061458427 -0.11143131 0.07634921 0.026074683
0.06272463 0.027982187 0.08792674 -0.09767836 -0.08652594 -0.024374338 0.0866583 -0.08985468
00000000: 119e a53e c098 53bf 9cf7 0bbf a995 dfbd
00000010: 2bd5 e13d be66 863e f67a 8d3d c2c4 cb3e
00000020: 5853 9bbd 5bfd 843d 5714 a8bd f71a c53d
00000030: d460 513e f76f 123f 8701 03be 4bd4 69bd
00000040: e4ec 893d d02c 573e 1a8b b2bc c589 06be
00000050: 03e4 2f3d dfac 87be 16ec eb3d cd80 9b3e
00000060: 36a4 08be c0b0 dcbd e2cb 1a3c 60a2 2b3f
00000070: e211 82bd 0d71 3f3f 37e1 da3c b39b 28be
00000080: e5c2 95bd f74e dabd 94d6 b9bd bca9 3bbc
00000090: 5fea a33c b50f 3d3e ef9b f13e d2b2 f73d
000000a0: 4bdf 8a3e 5a2d 843c 1adf 9a3e 2001 213c
000000b0: 7152 37ba 2daa c93d 226c fc3c c8bd 903d
000000c0: 4a3c 813e 8de6 a03d 1d5e 99be a104 3cbd
000000d0: bac8 f5bd c9fe 11be b9e3 d03d 8b62 a73c
000000e0: fb45 7538 b877 4a3e b33e 32be 9ffb 17be
000000f0: e059 24be a666 883d 6089 f9bd 353e b23d
00000100: 09d6 9b3e 0681 413d 7957 13be 66f4 e53d
00000110: 4ce5 b8bd 8286 2cbe 06da c43d e9cb bebd
00000120: 0743 b23c 2568 683e e4d8 e63e ce75 13bf
00000130: cb65 2d3e e472 03bc 6626 943e 997f 593f
00000140: ef76 fabd 05e2 3dbf f77b dabd f3ee a6be
00000150: 1479 48bf 5a88 02bf 39ad d9be d89e 21be
00000160: d230 cd3e fa9b 47be 308f 2abf c050 28bf
00000170: 0c28 d6be 6ea9 44bf 50f3 34bf 26a1 06bf
00000180: 2d33 06bf b150 30bf da0c 66bf e1f6 0ebf
00000190: b5d2 11bf 4150 e8be 981e 163f 6b5b 883e
000001a0: 5fa7 e43e d5db 16bf aa64 38bf d834 1cbf
000001b0: 677f 10bf d271 41bf 8351 febe 079b 7fbe
000001c0: 86f3 82bf 99aa 35be 37a9 173f 82ef 5cc0
000001d0: 944c c0be 00cf 7bbd 9cf5 053e 6542 153e
000001e0: f154 04be 9adf 4ebc 4853 b6bd 634a 723e
000001f0: 2364 dabd 8c31 9dbd 109e b1bc 1616 d33c
00000200: 4be8 d5bd c9d3 b8bd d69d 6d3d 325c a2bd
00000210: 5522 e63d 1749 483e 5bc4 023e 3575 edbd
00000220: c59a 80bd d34d 8a3d ce4f f4bd e829 28be
00000230: c3a3 86be 2705 14be 998d e3bd c8e8 05bd
00000240: 797b f0bc 3bd1 4a3d a0f9 57bd 728f 56be
00000250: c9f4 c63e 1a36 ba3d 2c36 e73d cf25 ebbd
00000260: 3c91 9a3d 6436 0ebd a68c 8d3d 674d dbbd
00000270: 5c60 443d d011 cf3d a841 0d3d 7eeb adbd
00000280: 1acb 42bd 627e 993d ad64 6abd 0021 c13c
00000290: c897 533d 5d0c 59bd f4bf b9bd 30c0 823d
000002a0: a64d cbbd 5041 8ebc fe03 9b3d 709e e53d
000002b0: 1e29 67bd 7180 d1bd 307e a43c a0a9 29bd
000002c0: 4afd 853d bcb3 b1bd c049 f13b d0f9 023d
000002d0: e8ea 92bc 880b c73d 919b 91bd b0bf cfbc
000002e0: 506c a2bb 8a6d d03d 38dc 913c b03e 473d
000002f0: 3083 8b3d 682b c9bc e844 fbbc 52cb d6bd
00000300: bc52 de3d 92e1 c7bd fb92 c2bd 0050 6fba
00000310: b42e bb3d 561d e1bd dad6 15bd 809d ec3b
00000320: 10cf 07bd 02e5 8dbd 3841 0ebd 1ebf a4bd
00000330: 0e50 b23d 0cf2 c2bd 580f d93c 6826 e13c
00000340: 760a 8fbd a892 713d 7ee3 c5bd 40d5 6b3b
00000350: f05a 8dbd 10d9 713d e2b2 a0bd 1890 5c3d
00000360: 2e87 a6bd c878 dcbd c2e7 eb3d ff78 b9bd
00000370: a005 503d a453 373d 5cec 103d 8635 7dbd
00000380: 8828 eabd 3d99 aabd 26f8 93bd c273 f7bd
00000390: 3160 913d 4d82 fe3a 2eae c3bd 3e38 a33c
000003a0: c911 ecbd bbb5 263d bc5c af3d 63bb d03a
000003b0: 342c 9ebd 1c74 c73c 9b9a 1b3d f6a1 d1bd
000003c0: d284 65bd cd45 bc3d dcb8 763c 15f2 92bd
000003d0: d5bb 7b3d 1936 e4bd fa5c 9c3d 939a d53c
000003e0: c575 803d e63a e53c ef12 b43d 980b c8bd
000003f0: 8334 b1bd b1ac c7bc e879 b13d bb05 b8bd

encoder.0.linear.bias f4 [128]
-0.11283231 -0.21829338 -0.106005564 -0.12776075 -0.055940077 0.17898054 0.08012569 0.21925572
0.00078280806 0.034343902 0.22712451 0.006313908 -0.01638958 0.2603674 0.16460173 -0.020897124
-0.086134546 0.04779571 -0.024382647 -0.022308348 0.061961565 0.04437403 -0.13847402 -0.062865436
-0.13637543 -0.11479906 -0.07845917 0.104362376 -0.18103483 0.1943906 -0.097458765 0.003534399
-0.18281513 -0.12668258 0.06333816 0.043598264 0.061033227 -0.07898157 -0.06770483 0.4286419
0.14960995 -0.1442937 0.062697 0.057345502 0.049150687 0.08470849 0.1013079 0.06835099
-0.063586995 -0.10975486 0.049624927 -0.054541104 0.03860831 0.066001326 -0.110585645 -0.10075464
-0.047850713 0.024763308 -0.1272497 -0.110516645 0.15054363 -0.07426243 0.118576966 -0.16167404
-0.20096375 -0.031476606 0.07509898 -0.1674216 -0.11726569 0.1507625 0.048245147 -0.10343112
-0.02760117 -0.033783816 0.095775016 -0.07429652 0.2807047 -0.0891314 0.09602977 -0.09240411
0.18059275 0.06398599 -0.035623346 -0.038239893 0.07539526 -0.078030474 0.108639635 -0.04201279
-0.19489482 -0.0993736 -0.17205362 0.008805259 -0.102454074 0.060770936 0.02921105 -0.09648603
-0.05616118 -0.08821102 -0.059319396 -0.0432265 -0.02614359 0.066595495 -0.04428371 -0.061598685
-0.07250219 -0.04213535 -0.06811531 -0.107029386 0.31764984 0.2658807 -0.057320714 0.0842812
-0.11228823 -0.05214592 -0.12883103 -0.030933565 0.11843198 -0.036319554 0.12894805 -0.102817625
-0.051871575 0.033803444 0.111269385 0.004785475 0.023626156 -0.0913491 -0.041862585 0.007935281
00000000: a014 e7bd 4d88 5fbe 7219 d9bd b7d3 02be
00000010: 6c21 65bd ad46 373e f018 a43d 9284 603e
00000020: 5c35 4d3a 31ac 0c3d 5493 683e e6e4 ce3b
00000030: 7143 86bc e04e 853e 5b8d 283e 7230 abbc
00000040: 4f67 b0bd 6fc5 433d 1ebe c7bc ffbf b6bc
00000050: 69cb 7d3d 8bc1 353d 22cc 0dbe 98bf 80bd
00000060: 00a6 0bbe c51b ebbd 34af a0bd f1bb d53d
00000070: 3261 39be 540e 473e 7698 c7bd 60a1 673b
00000080: e433 3bbe 14b9 01be 70b7 813d 1894 323d
00000090: fafd 793d 17c1 a1bd d4a8 8abd f376 db3e
000000a0: 5a33 193e bac1 13be 4967 803d 1ee3 6a3d
000000b0: 3b52 493d a57b ad3d 847a cf3d 9bfb 8b3d
000000c0: e639 82bd 28c7 e0bd 8243 4b3d 7e66 5fbd
000000d0: bf23 1e3d b42b 873d ba7a e2bd 7358 cebd
000000e0: 1cff 43bd 6cdc ca3c bf4d 02be 8d56 e2bd
000000f0: 1c28 1a3e e716 98bd 7bd8 f23d e18d 25be
00000100: 71c9 4dbe 9ded 00bd 7ecd 993d 9170 2bbe
00000110: fe28 f0bd 7c61 1a3e b49c 453d b2d3 d3bd
00000120: d91b e2bc e660 0abd b125 c43d c628 98bd
00000130: 87b8 8f3e 868a b6bd 42ab c43d 5e3e bdbd
00000140: 4eed 383e 160b 833d c9e9 11bd 6fa1 1cbd
00000150: d468 9a3d 71ce 9fbd 757e de3d 9a15 2cbd
00000160: 8292 47be 6384 cbbd d32e 30be ef43 103c
00000170: 71d3 d1bd f2ea 783d 034c ef3c 789a c5bd
00000180: 4409 66bd fba7 b4bd e5f8 72bd 450e 31bd
00000190: 152b d6bc 3863 883d d662 35bd e74e 7cbd
000001a0: 077c 94bd 1e96 2cbd 0a80 8bbd 3932 dbbd
000001b0: 00a3 a23e 8421 883e 20c9 6abd 9f9b ac3d
000001c0: 5ff7 e5bd f696 55bd 48ec 03be 6368 fdbc
000001d0: 778c f23d d0c3 14bd f50a 043e 0c92 d2bd
000001e0: 4a77 54bd 7b75 0a3d 34e1 e33d 79cf 9c3b
000001f0: a48b c13c 3d15 bbbd 1a78 2bbd fb02 023c

encoder.1.linear.weight f4 [64, 128]
-0.021635307 -0.033017218 0.05843004 -0.017539134 -0.058339555 -0.015224472 -0.020506492 -0.056178797
-0.023322677 0.014003761 -0.08319684 0.018705387 -0.008346007 0.011595337 -0.08961843 0.038786776
-0.04893519 -0.049203467 -0.07749513 0.0022108853 -0.07224275 -0.055944625 0.008715414 -0.08715555
0.006397136 -0.06961644 0.0213826 -0.07605643 -0.07507946 -0.02169545 0.07549621 0.017633073
0.058799308 0.027431218 0.061742574 0.048708934 0.074082024 -0.07663726 -0.061091296 -0.03192415
0.0179589 -0.058939427 -0.023219058 0.08446426 -0.060439486 -0.090036914 0.04338985 0.07843799
0.020846255 -0.019359542 -0.07987946 -0.06174175 -0.07162788 -0.024828792 0.0836715 0.0029765766
-0.016182492 0.015389521 -0.011096325 -0.08414703 0.06224084 0.008735123 -0.042509448 0.0030606408
0.018061593 0.0023408963 -0.00033840546 -0.023496259 -0.09225685 0.035468135 -0.04581463 -0.067236274
-0.059350263 -0.002337495 -0.0036474098 0.05285891 0.012066069 0.04224458 0.0036989157 -0.046268977
-0.078572825 0.037877183 -0.024774233 -0.009643135 -0.07578472 0.05077517 -0.07179608 0.06661183
0.024609089 0.004799229 0.06435635 -0.035610642 -0.021266086 -0.07904656 -0.057086546 -0.06117079
-0.038609724 0.017280262 -0.0917191 -0.06610949 -0.08122522 -0.012278375 -0.051149804 0.013800196
0.018241808 -0.010354567 -0.039868653 -0.03921307 -0.08570356 -0.0684655 0.02588662 0.03741348
-0.01959682 -0.053671125 -0.08430513 -0.08485854 0.001060271 0.025137875 -0.025792776 -0.048086334
0.028476775 -0.023722146 -0.0700033 -0.10938908 -0.042602725 0.028444305 0.035126466 -0.08435182
0.21778792 0.5237198 -0.07630757 -0.0041280203 0.09679434 -0.15737087 -0.025412783 -0.12384139
0.0019482833 0.028555512 -0.8344792 0.024182044 1.0974315 -0.1396571 -0.21023883 -0.1273442
0.40490857 -0.07005262 0.0761563 -0.2550263 -0.059722885 0.34410897 0.20565562 0.2372222
0.13479376 0.046044074 0.07637904 0.07360295 0.17329095 -0.03455878 0.083932206 0.05941979
0.29608318 -0.105627075 -0.07148305 0.06420392 0.03870729 0.68615574 0.037117895 0.057368368
-0.26686043 0.11512717 -0.18813732 -0.011328742 -0.09697715 0.06530713 0.03151706 -0.048053138
-0.020916753 0.08741445 -0.13250585 0.22247998 -0.2079042 -0.04643385 -0.019313447 0.14834422
-0.08614289 -0.025024004 0.16529563 0.19176735 -0.055474795 -0.09316655 -0.11668135 0.13170606
0.49123842 -0.061629042 0.032197587 -0.5902701 -0.07540669 -0.34901074 0.031765383 0.0013549551
0.0024791083 0.08797981 -0.6488077 -0.031333122 -0.41506472 0.1484854 0.088215046 -0.05923108
0.046415266 -0.1831824 0.1500815 -0.053904783 0.090579286 0.21045777 0.019934319 0.059542153
0.0906649 0.16636448 0.60279876 0.021456314 0.03790717 0.023896169 0.12184012 -0.047608487
-0.047409073 0.050898746 0.15660231 -0.1205993 -0.009036978 0.0511537 0.03989497 0.07637202
0.0030760993 -0.32140604 -0.05191138 0.012503984 -2.9828117 0.08317824 -0.045817994 -0.111944154
0.003829212 0.18518251 -0.6794123 0.20897421 -0.09944063 0.087770045 0.12692508 0.19807439
-0.019796496 -0.015491613 -0.31997475 0.092256 -0.05579176 0.15334089 0.088489234 0.17898352
00000000: 873c b1bc 103d 07bd 5654 6f3d 3bae 8fbc
00000010: 75f5 6ebd 1070 79bc 3bfd a7bc bd1b 66bd
00000020: 330f bfbc 0870 653c 1b63 aabd 0a3c 993c
00000030: b1bd 08bc 5efa 3d3c de89 b7bd e2de 1e3d
00000040: 4470 48bd 9389 49bd c4b5 9ebd 80e4 103b
00000050: 02f4 93bd 3126 65bd 19cb 0e3c 9c7e b2bd
00000060: 119f d13b 1093 8ebd 902a af3c 79c3 9bbd
00000070: 43c3 99bd a8ba b1bc c29d 9a3d 3c73 903c
00000080: 8bd7 703d 6fb7 e03c c8e5 7c3d 0583 473d
00000090: 51b8 973d fff3 9cbd de3a 7abd e6c2 02bd
000000a0: 8b1e 933c 786a 71bd e535 bebc 99fb ac3d
000000b0: 658f 77bd 4665 b8bd 8eb9 313d 19a4 a03d
000000c0: c4c5 aa3c e797 9ebc d897 a3bd ebe4 7cbd
000000d0: a3b1 92bd c065 cbbc f75b ab3d ab12 433b
000000e0: 2591 84bc 5424 7c3c 5ccd 35bc 4755 acbd
000000f0: 40f0 7e3d c31d 0f3c 631e 2ebd 0895 483b
00000100: e8f5 933c b969 193b 036c b1b9 3a7b c0bc
00000110: 29f1 bcbd 0947 113d 1fa8 3bbd 2cb3 89bd
00000120: 4319 73bd a930 19bb 6209 6fbb 9682 583d
00000130: c3b0 453c a708 2d3d 8269 723b 8a84 3dbd
00000140: caea a0bd 1b25 1b3d 55f3 cabc 3dfe 1dbc
00000150: 0535 9bbd a0f9 4f3d d309 93bd c86b 883d
00000160: 0099 c93c da42 9d3b 43cd 833d 77dc 11bd
00000170: 3736 aebc 2ae3 a1bd 95d3 69bd 398e 7abd
00000180: 3b25 1ebd 568f 8d3c 39d7 bbbd 6a64 87bd
00000190: 6859 a6bd 3d2b 49bc 7582 51bd 381a 623c
000001a0: d86f 953c 34a6 29bc 504d 23bd e29d 20bd
000001b0: 5985 afbd a437 8cbd 2d10 d43c e13e 193d
000001c0: 8389 a0bc 41d6 5bbd 2ba8 acbd 50ca adbd
000001d0: cbf8 8a3a f2ed cd3c 5f4b d3bc 2df6 44bd
000001e0: 2048 e93c f254 c2bc e45d 8fbd 6207 e0bd
000001f0: 3280 2ebd 0804 e93c c5e0 0f3d a6c0 acbd
00000200: cc03 5f3e 8012 063f 2547 9cbd 5844 87bb
00000210: 1c3c c63d d425 21be 782e d0bc 8ea0 fdbd
00000220: 8a5d ff3a 40ed e93c 6ea0 55bf 6c19 c63c
00000230: a378 8c3f 4502 0fbe d948 57be 8566 02be
00000240: 2d50 cf3e bf77 8fbd d6f7 9b3d cf92 82be
00000250: fc9f 74bd 0d2f b03e 6397 523e 60ea 723e
00000260: 6007 0a3e b698 3c3d 9d6c 9c3d 25bd 963d
00000270: 2f73 313e 828d 0dbd a6e4 ab3d 2a62 733d
00000280: 3798 973e 0253 d8bd b565 92bd 587d 833d
00000290: 898b 1e3d e7a7 2f3f ef08 183d 18fb 6a3d
000002a0: eea1 88be cbc7 eb3d 12a7 40be 309c 39bc
000002b0: f59b c6bd bfbf 853d 0818 013d 5ed3 44bd
000002c0: 9c59 abbc 5906 b33d 9daf 07be cbd1 633e
000002d0: d7e4 54be 6c31 3ebd 3c37 9ebc 8ce7 173e
000002e0: af6b b0bd 24ff ccbc 4243 293e a95e 443e
000002f0: 8a39 63bd 1bce bebd a2f6 eebd f4dd 063e
00000300: 9a83 fb3e bc6e 7cbd 9ee1 033d f11b 17bf
00000310: d36e 9abd 89b1 b2be 6b1c 023d c098 b13a
00000320: 8978 223b c22e b43d 4318 26bf 2957 00bd
00000330: 5d83 d4be 8f0c 183e 17aa b43d 4a9c 72bd
00000340: ef1d 3e3d 2b94 3bbe f7ae 193e 43cb 5cbd
00000350: a281 b93d 3e82 573e 4c4d a33c 79e2 733d
00000360: 85ae b93d 735b 2a3e 0551 1a3f 27c5 af3c
00000370: 8c44 1b3d e6c1 c33c 5087 f93d 1e01 43bd
00000380: 0430 42bd 347b 503d 5b5c 203e c4fc f6bd
00000390: d50f 14bc 8b86 513d e868 233d ef68 9c3d
000003a0: 6298 493b 558f a4be 07a1 54bd 83dd 4c3c
000003b0: 63e6 3ec0 5a59 aa3d a6ab 3bbd fa42 e5bd
000003c0: 84f3 7a3b 7ca0 3d3e f7ed 2dbf 56fd 553e
000003d0: 87a7 cbbd c8c0 b33d a6f8 013e 03d4 4a3e
000003e0: 432c a2bc 89d0 7dbc bbd3 a3be b7f0 bc3d
000003f0: e785 64bd 6505 1d3e d839 b53d 7547 373e

encoder.1.linear.bias f4 [64]
-0.02238463 0.066758655 -0.074065775 0.03654814 0.05654111 -0.050584443 -0.0073824623 0.13379036
0.029037334 0.08911826 0.11983176 0.036828946 -0.015457022 -0.08322233 -0.086380415 -0.029235825
0.18791562 0.03003891 0.06340768 -0.0029206316 0.098182976 0.12094728 -0.101991385 0.02349581
0.1479988 0.11859482 -0.0022618484 -0.15011053 -0.07538671 0.047900163 -0.059682988 -0.0005451867
0.1264331 0.056477927 -0.11029383 0.06892501 -0.02017179 -0.102100395 0.06693915 0.014425553
-0.09625722 -0.030795183 0.12299162 0.15301801 0.045272853 0.03974404 0.0049681016 0.036920678
0.045973524 -0.110477656 0.054872572 0.10401401 -0.00084189087 0.07670819 -0.034719124 -0.07462443
-0.07835547 0.09757033 0.023260351 0.19952475 -0.039758958 -0.0026323467 0.17894895 -0.046248745
00000000: f95f b7bc c3b8 883d ccaf 97bd 81b3 153d
00000010: a797 673d a231 4fbd 95e8 f1bb 5700 093e
00000020: b4df ed3c a283 b63d 5b6a f53d f3d9 163d
00000030: 733f 7dbc 7870 aabd 37e8 b0bd f87f efbc
00000040: f46c 403e 2914 f63c e3db 813d 1168 3fbb
00000050: 2814 c93d 35b3 f73d dce0 d0bd 497a c03c
00000060: ff8c 173e d7e1 f23d 853b 14bb 93b6 19be
00000070: 5964 9abd f632 443d 2676 74bd dcea 0eba
00000080: ae77 013e 6655 673d bbe1 e1bd 8e28 8d3d
00000090: 4f3f a5bc 031a d1bd 6517 893d 2859 6c3c
000000a0: 8122 c5bd 2e46 fcbc 08e3 fb3d c1b0 1c3e
000000b0: 0770 393d a6ca 223d 75cb a23b 233a 173d
000000c0: bc4e 3c3d 1c42 e2bd 10c2 603d 4c05 d53d
000000d0: 57b2 5cba 2f19 9d3d a435 0ebd b1d4 98bd
000000e0: d578 a0bd f4d2 c73d 7e8c be3c 3750 4c3e
000000f0: 4ada 22bd 7383 2cbb 653e 373e 536f 3dbd

encoder.2.linear.weight f4 [32, 64]
-0.002525831 -0.09547962 0.07562311 -0.16883844 -0.019491155 0.08650902 -0.068062015 0.064830095
0.025783299 -0.042954523 0.018661072 -0.16290352 0.09950019 -0.016381916 0.07343313 -0.08763061
0.050536744 0.064783186 -0.05544817 -0.12281897 0.012662393 -0.112566255 0.10589171 0.024676135
0.016600622 0.098793074 -0.07056851 -0.03496065 0.014376223 0.051624693 0.035050377 0.106960826
-0.13964419 -0.06045144 0.082504585 -0.0018175782 -0.10417227 -0.015969204 0.089473605 0.10624868
-0.061473176 0.03954113 -0.10066656 -0.031154545 -0.04231309 -0.15742427 0.04869298 0.0084057925
0.009422878 -0.09067905 0.007764705 -0.15391587 0.07928607 0.015035623 0.10265268 0.09032645
-0.07351646 -0.050377827 0.03157411 -0.16802281 0.00536187 -0.016233165 -0.029870419 0.026799357
-0.010817807 -0.06326567 -0.12951514 0.09892228 -0.16065063 -0.03910106 0.042417374 -0.06983171
0.010400468 0.21399088 -0.2466279 0.0026095153 -0.22088377 0.076007545 0.12838666 0.14344524
0.061089344 0.07584083 -0.23678136 0.04950754 -0.016773783 0.086476795 -0.1013239 -0.2523621
0.13348123 0.15628807 0.1709375 0.49189612 -0.085275054 0.13738659 0.10826921 0.07803805
-0.1080271 -0.26291505 -0.09566547 -0.059654154 -0.0034420013 0.16722998 0.120531105 -0.10457849
-0.098338276 0.057848655 0.15634723 0.02374154 0.045806367 0.14211312 0.019360121 0.009490709
0.009328394 0.055828914 0.007823421 0.15768076 -0.050076704 -0.14170569 -0.068157956 -0.08691892
-0.016774725 -0.07584159 0.28483602 0.12753548 -0.07400268 0.11531413 0.20251603 0.08105775
-0.0745253 0.39466578 -0.3919895 -0.011223124 -0.15872669 -0.058696605 -0.100807875 0.11685674
0.034766544 -0.033980973 -0.3644512 0.18464635 -0.18461493 0.13948423 -0.06755495 -0.027307097
-0.01986658 0.48808578 0.31963086 -0.067221664 0.0900248 -0.04098804 -0.01528641 -0.4833268
-0.025064377 0.27998942 0.3220172 0.5226957 0.036968358 0.26033545 -0.08602178 -0.01236453
0.11881879 0.46378672 0.09605062 -0.068470016 0.14257567 0.36430848 0.16119201 0.07518727
-0.076182194 0.060972415 -0.050534815 -0.07023053 0.044041827 0.34408265 -0.31301 -0.008510345
0.010574857 -0.06590697 -0.04813565 0.22803591 0.05782383 0.23365223 -0.06250371 -0.03778323
0.10680802 0.2636702 -0.076787695 0.06225651 0.15103959 0.025068764 0.028811065 0.03057616
-0.04461567 -0.20508406 -0.54406524 0.21110606 0.41327515 0.05214934 -0.07813629 -0.041966323
-0.049510334 -0.30262432 0.07227224 -0.8071232 0.2989454 -0.053595055 -0.03986118 0.028950632
0.14062643 0.085570924 -0.18839532 0.09199655 -0.6780187 0.40965042 -0.027357176 0.2670572
0.16086325 0.39181268 0.15447897 0.5845596 0.0048143715 0.40070185 0.121957764 -0.006779
0.21817534 -0.024005536 0.10508022 0.08269708 0.06523899 -0.15133786 0.29329532 0.7124387
0.020670785 -0.24540064 0.36843014 -0.007624684 -0.04783452 -0.20891236 0.33988988 0.1432237
-0.1655873 -0.08453684 0.015539782 -0.038307726 0.07156415 -0.42067114 -0.0375762 0.11467309
0.08849642 -0.049402833 0.010710005 0.29149342 -0.08581945 -0.043663427 -0.098071426 0.07789321
00000000: 6a88 25bb d28a c3bd 4ae0 9a3d fce3 2cbe
00000010: eaab 9fbc a42b b13d 1964 8bbd a4c5 843d
00000020: 7f37 d33c 15f1 2fbd 1bdf 983c 2ed0 26be
00000030: c1c6 cb3d 5e33 86bc 1c64 963d ad77 b3bd
00000040: 9eff 4e3d 0cad 843d 9f1d 63bd 8388 fbbd
00000050: ed75 4f3c 2389 e6bd c1dd d83d 9b25 ca3c
00000060: 07fe 873c 0654 ca3d 3986 90bd e632 0fbd
00000070: 408a 6b3c 6a74 533d fc90 0f3d 470e db3d
00000080: e3fe 0ebe ee9b 77bd 2af8 a83d ce3b eeba
00000090: 4558 d5bd d9d1 82bc f03d b73d e898 d93d
000000a0: 4ccb 7bbd e1f5 213d 452a cebd d137 ffbc
000000b0: 7e50 2dbd d433 21be 4a72 473d 73b8 093c
000000c0: 6a62 1a3c f0b5 b9bd 116f fe3b 1f9c 1dbe
000000d0: bc60 a23d f957 763c 913b d23d 13fd b83d
000000e0: cc8f 96bd fb58 4ebd db53 013d 2c0e 2cbe
000000f0: a0b2 af3b 6afb 84bc cfb2 f4bc 538a db3c
00000100: 2c3d 31bc 6e91 81bd 9e9f 04be c497 ca3d
00000110: 9981 24be 6f28 20bd d7bd 2d3d ed03 8fbd
00000120: b966 2a3c 6d20 5b3e 068c 7cbe 6704 2b3b
00000130: 5b2f 62be d8a9 9b3d cb77 033e 4fe3 123e
00000140: d238 7a3d 7052 9b3d d076 72be 6bc8 4a3d
00000150: 2c69 89bc bf1a b13d e882 cfbd 9b35 81be
00000160: 4eaf 083e fb09 203e 3d0a 2f3e cfd9 fb3e
00000170: b0a4 aebd 12af 0c3e 3fbc dd3d 6ad2 9f3d
00000180: 503d ddbd cd9c 86be 42ec c3bd ea57 74bd
00000190: 3393 61bb 563e 2b3e 03d9 f63d 3f2d d6bd
000001a0: 9465 c9bd b6f2 6c3d 7d19 203e 9e7d c23c
000001b0: 759f 3b3d 1a86 113e 1e99 9e3c eb7e 1b3c
000001c0: 1fd6 183c dcac 643d ce2d 003c 1177 213e
000001d0: 3b1d 4dbd 4c1b 11be 6696 8bbd 8c02 b2bd
000001e0: 266b 89bc d652 9bbd 07d6 913e a998 023e
000001f0: b88e 97bd d129 ec3d 5d60 4f3e 9b01 a63d
00000200: b8a0 98bd a211 ca3e d9b2 c8be 32e1 37bc
00000210: 4089 22be da6b 70bd 5c74 cebd 9652 ef3d
00000220: 5d67 0e3d a22f 0bbd 5999 babe ef13 3d3e
00000230: b20b 3dbe f4d4 0e3e 405a 8abd 22b3 dfbc
00000240: 3dbf a2bc 61e6 f93e a8a6 a33e 83ab 89bd
00000250: ec5e b83d 13e3 27bd da73 7abc 9c76 f7be
00000260: cf53 cdbc c65a 8f3e 70df a43e 63cf 053f
00000270: 226c 173d b04a 853e 302c b0bd 9994 4abc
00000280: 4457 f33d 7475 ed3e 30b6 c43d 023a 8cbd
00000290: 5bff 113e a486 ba3e 850f 253e c9fb 993d
000002a0: 6905 9cbd 36be 793d 98fd 4ebd 06d5 8fbd
000002b0: 3465 343d 9a2b b03e d942 a0be f96e 0bbc
000002c0: 2a42 2d3c 3cfa 86bd e329 45bd 3f82 693e
000002d0: aed8 6c3d 8842 6f3e f201 80bd 97c2 1abd
000002e0: 2abe da3d c8ff 863e de42 9dbd af00 7f3d
000002f0: 1faa 1a3e 025d cd3c 2f05 ec3c db7a fa3c
00000300: ecbe 36bd 8e01 52be dc47 0bbf 302c 583e
00000310: cd98 d33e 8c9a 553d eb05 a0bd e1e4 2bbd
00000320: 59cb 4abd 93f1 9abe 7803 943d a09f 4ebf
00000330: 5f0f 993e 7d86 5bbd 7a45 23bd e029 ed3c
00000340: 6000 103e cf3f af3d b4ea 40be b068 bc3d
00000350: a292 2dbf b3bd d13e 281c e0bc b9bb 883e
00000360: 56b9 243e ac9b c83e bc2f 1e3e b3a5 153f
00000370: e0c1 9d3b cb28 cd3e fec4 f93d 6022 debb
00000380: 5b69 5f3e 42a7 c4bc 4c34 d73d 165d a93d
00000390: 059c 853d 50f8 1abe ce2a 963e 6262 363f
000003a0: c755 a93c 4e4a 7bbe e0a2 bc3e 7cd8 f9bb
000003b0: 21ee 43bd 1fed 55be 0c06 ae3e 3ca9 123e
000003c0: b88f 29be a721 adbd 929a 7e3c 90e8 1cbd
000003d0: 3a90 923d 3562 d7be 80e9 19bd bad9 ea3d
000003e0: 9c3d b53d a05a 4abd 0479 2f3c a03e 953e
000003f0: 1cc2 afbd 6cd8 32bd acd9 c8bd 7a86 9f3d

encoder.2.linear.bias f4 [32]
-0.11704204 0.16198266 0.08380217 -0.035187278 0.025123334 -0.01710298 0.029560981 -0.121615365
0.054051694 0.10306119 0.07905085 -0.018384729 0.07640274 0.018890813 -0.07210547 -0.016739415
0.07050147 0.107590325 0.10554675 0.17177807 0.16513903 -0.11695525 0.1028643 -0.052752227
0.016351985 -0.07782974 -0.12653272 0.1306129 0.22252412 0.09715905 0.12992987 0.17528693
00000000: bdb3 efbd c8de 253e 79a0 ab3d 8920 10bd
00000010: 73cf cd3c 8c1b 8cbc df29 f23c 7a11 f9bd
00000020: 4f65 5d3d bf11 d33d 69e5 a13d 929b 96bc
00000030: 0a79 9c3d e8c0 9a3c 08ac 93bd 1921 89bc
00000040: 1363 903d 5158 dc3d e528 d83d 97e6 2f3e
00000050: 351a 293e 3c86 efbd 85aa d23d b812 58bd
00000060: 99f4 853c 3365 9fbd cb91 01be 63bf 053e
00000070: 5ddd 633e 53fb c63d 560c 053e 6b7e 333e

encoder.3.linear.weight f4 [16, 32]
-0.10151535 0.029143684 0.052068405 -0.14339042 -0.010954741 -0.20220129 0.006894319 -0.10128506
-0.25997403 -0.16082206 -0.2063914 -0.18799374 -0.18729661 -0.015270788 0.04170856 -0.09966963
-0.013872209 -0.041163396 -0.14383724 0.042718764 -0.034266062 -0.043782026 0.068560414 0.0040645045
0.16806252 -0.049756102 -0.16483356 -0.08601609 -0.15046808 -0.11547519 -0.004996054 -0.12748596
-0.03895119 0.19602863 0.21640612 0.3690703 -0.29643765 0.4256802 -0.22578935 0.11396735
0.309832 0.084772326 -0.33910367 -0.4459913 -0.030385675 0.024422348 -0.14515632 -0.40799868
0.2933061 0.15342791 -0.19305159 -0.1689356 0.19282784 0.10532327 -0.24595048 -0.053454682
0.058278948 -0.00025315714 0.0248592 0.13578323 0.11221744 0.11402105 -0.048849765 0.1484773
-0.044700537 0.16654989 -0.1110902 0.17204605 0.06048323 0.055929746 -0.35187835 0.087443486
0.20088667 0.20919788 0.07127552 0.0015569775 -0.31512043 0.11049773 -0.049686734 -0.5012525
0.42407247 0.44714946 0.38360497 0.18612012 0.23069467 0.026640708 0.11904614 -0.15315494
0.37543514 0.03578177 0.13954276 0.28114864 0.27658197 -0.018137246 0.098445125 -0.005396519
-0.12764493 0.043975934 0.14897245 0.06659203 -0.22993901 0.258628 0.17676863 -0.14137782
0.18554631 -0.20610885 0.059836958 0.3493076 -0.30024523 -0.0516073 -0.18756762 0.31262404
-0.08277995 -0.00759218 0.28477615 -0.21800812 0.23758444 0.0734637 -0.26641512 0.19785671
0.051327262 0.43511158 0.014187626 0.31874457 0.21944691 -0.1554698 0.65062994 0.19484158
0.08317668 -0.1401947 0.08792141 -0.04491426 -0.12344755 -0.07972191 -0.019049244 -0.10472531
-0.17457521 0.008695125 -0.08557509 -0.04500023 -0.0869031 0.078209445 0.07588694 -0.013920192
-0.053984508 -0.06396557 -0.042118452 -0.12087802 -0.16344872 0.08134048 -0.14175206 -0.075942464
0.09286077 -0.17324114 -0.04240921 0.08305742 0.027136847 0.01711347 -0.18455075 -0.0011139084
-0.101371326 0.12923385 -0.08715537 0.5817082 0.05172407 -0.110884935 -0.15187216 -0.09092672
0.19145751 -0.031163368 -0.31530413 -0.38258925 0.24014635 -0.037933767 0.15016834 -0.39997527
-0.1337803 -0.034881767 0.11643875 0.032631103 0.124442235 -0.056422066 0.0042479704 -0.051679663
0.0805136 0.31318867 -0.050306622 0.065635316 0.05719129 -0.15093434 -0.15859176 -0.08731491
0.028229488 0.1624281 0.13786043 -0.56521523 0.27885532 0.26484638 0.5293082 0.059267398
0.050963126 0.016851136 0.41446564 0.29627496 0.31808445 0.109189115 0.14236161 0.45969483
0.39215982 0.08143264 0.08183855 -0.008033469 -0.21282366 0.10886643 0.15191333 -0.12332948
0.25807092 -0.26659256 0.066448286 0.011642873 0.07306275 -0.025936522 -0.113376245 -0.07312888
-0.077095054 -0.11195696 0.26110616 0.055124644 0.20714377 -0.38985932 -0.046987932 0.11691729
-0.17811343 0.16880369 -0.1549885 0.14136559 0.029833568 -0.13249625 -0.024691215 0.34663412
-0.28169885 0.028682603 -0.016893683 0.26191115 0.13193107 0.11669734 0.03921714 -0.0887668
0.13625032 -0.07591319 0.10847229 -0.1838438 0.08500401 0.121067755 0.27760598 0.23840724
00000000: 48e7 cfbd bcbe ee3c ae45 553d f0d4 12be
00000010: 847b 33bc db0d 4fbe bde9 e13b 8b6e cfbd
00000020: 511b 85be 8aae 24be 4458 53be 6e81 40be
00000030: afca 3fbe 5432 7abc 98d6 2a3d 971f ccbd
00000040: 4348 63bc f39a 28bd 124a 13be dff9 2e3d
00000050: 925a 0cbd c854 33bd 6769 8c3d 892f 853b
00000060: 9518 2c3e 0ecd 4bbd 21ca 28be 3429 b0bd
00000070: 4e14 1abe 427e ecbd f0b5 a3bb ae8b 02be
00000080: 488b 1fbd bbbb 483e 9199 5d3e c8f6 bc3e
00000090: adc6 97be c1f2 d93e 5335 67be b767 e93d
000000a0: 4da2 9e3e 1d9d ad3d ff9e adbe f958 e4be
000000b0: 61eb f8bc 6011 c83c dca3 14be 34e5 d0be
000000c0: 382c 963e 351c 1d3e 51af 45be 74fd 2cbe
000000d0: a974 453e bab3 d73d 71da 7bbe 4cf3 5abd
000000e0: e8b5 6e3d 2dba 84b9 85a5 cb3c c20a 0b3e
000000f0: 42d2 e53d de83 e93d b116 48bd 6f0a 183e
00000100: e917 37bd 0e8c 2a3e 4283 e3bd d72c 303e
00000110: 43bd 773d 9716 653d 6629 b4be 9215 b33d
00000120: 3cb5 4d3e f837 563e e6f8 913d 7f13 cc3a
00000130: 7757 a1be a24c e23d 5184 4bbd 1552 00bf
00000140: 0720 d93e c6f0 e43e df67 c43e 4696 3e3e
00000150: 393b 6c3e 9d3d da3c 76ce f33d a6d4 1cbe
00000160: 0939 c03e e88f 123d 4ce4 0e3e b7f2 8f3e
00000170: 279c 8d3e 9094 94bc 999d c93d 48d5 b0bb
00000180: 5ab5 02be 1c20 343d 3c8c 183e 6761 883d
00000190: 2275 6bbe e46a 843e d602 353e 59c5 10be
000001a0: daff 3d3e 330e 53be 9917 753d 72d8 b23e
000001b0: beb9 99be 2d62 53bd ba11 40be 4210 a03e
000001c0: 8988 a9bd d2c7 f8bb 2ece 913e 853d 5fbe
000001d0: 5649 733e 2374 963d 9067 88be f39a 4a3e
000001e0: 893c 523d f2c6 de3e 3773 683c 7d32 a33e
000001f0: b1b6 603e 7a33 1fbe af8f 263f 8d84 473e
00000200: 8958 aa3d 338f 0fbe 2410 b43d 04f8 37bd
00000210: 12d2 fcbd 3e45 a3bd 290d 9cbc 397a d6bd
00000220: d8c3 32be ff75 0e3c fe41 afbd 2952 38bd
00000230: 41fa b1bd 462c a03d 9d6a 9b3d 8411 64bc
00000240: dc1e 5dbd 6100 83bd 6684 2cbd e58e f7bd
00000250: 1a5f 27be d695 a63d 7427 11be b987 9bbd
00000260: ca2d be3d 2066 31be 48b5 2dbd 021a aa3d
00000270: 184e de3c 8c31 8c3c dffa 3cbe 9000 92ba
00000280: c59b cfbd e155 043e 847e b2bd d4ea 143f
00000290: 9edc 533d a417 e3bd 6084 1bbe ca37 babd
000002a0: 700d 443e 524a ffbc 8b6f a1be bde2 c3be
000002b0: ede8 753e 7060 1bbd bbc5 193e 8fc9 ccbe
000002c0: b4fd 08be 2fe0 0ebd 7077 ee3d 31a8 053d
000002d0: 92db fe3d d31a 67bd 8f32 8b3b 0eae 53bd
000002e0: 50e4 a43d 445a a03e 510e 4ebd cf6b 863d
000002f0: 6a41 6a3d 888e 1abe e165 22be 29d2 b2bd
00000300: 8741 e73c 8d53 263e 492b 0d3e f2b1 10bf
00000310: 20c6 8e3e f299 873e be80 073f 5fc2 723d
00000320: b6be 503d 650b 8a3c d734 d43e 5ab1 973e
00000330: f7db a23e 8b9e df3d 3ec7 113e 1f5d eb3e
00000340: 2cc9 c83e 28c6 a63d f89a a73d d09e 03bc
00000350: 72ee 59be 5df5 de3d 2b8f 1b3e 2b94 fcbd
00000360: df21 843e d27e 88be 0a16 883d c0c1 3e3c
00000370: eca1 953d d478 d4bc ce31 e8bd 98c4 95bd
00000380: 03e4 9dbd b149 e5bd b5af 853e 61ca 613d
00000390: 7f1d 543e a49b c7be 6b76 40bd 5572 ef3d
000003a0: 5e63 36be e0da 2c3e 4eb5 1ebe 24c2 103e
000003b0: 8765 f43c 19ad 07be 3b45 cabc 077a b13e
000003c0: d53a 90be c7f7 ea3c 9f64 8abc 3819 863e
000003d0: f018 073e 04ff ee3d 27a2 203d 5ecb b5bd
000003e0: 3485 0b3e 6078 9bbd b826 de3d 8d41 3cbe
000003f0: 9516 ae3d 5ff2 f73d 5f22 8e3e 0721 743e

encoder.3.linear.bias f4 [16]
0.07606052 -0.07006921 0.015787048 0.021709882 0.10078932 -0.088821515 0.009718687 0.056364477
-0.014013576 -0.0011836124 0.15018292 0.07868745 0.01612992 0.23441336 0.01066875 -0.17037952
00000000: 9ec5 9b3d 7280 8fbd d753 813c ecd8 b13c
00000010: a26a ce3d 0ee8 b5bd 213b 1f3c 70de 663d
00000020: 3399 65bc 7123 9bba 8dc9 193e e326 a13d
00000030: e522 843c 0e0a 703e fbcb 2e3c f877 2ebe

encoder.4.linear.weight f4 [8, 16]
0.012451716 -0.07291425 0.21782279 0.10092893 0.18793233 0.005582141 0.21461561 -0.3127118
0.16916992 0.2920091 -0.012940795 0.4651154 -0.11329412 -0.108454645 0.24369313 -0.20779441
-0.09934226 -0.065294996 0.16972782 -0.22656333 0.17317389 -0.08940398 0.20212872 0.2926214
0.1261812 0.46462685 0.043064103 -0.14040428 0.0012975037 0.12000903 -0.19482884 -0.0019718846
-0.05570393 0.41526467 0.4308378 0.29809165 0.2891903 -0.056387246 -0.16910249 -0.012411212
0.078055 -0.037088506 0.23594683 -0.06063648 -0.10082662 -0.50211155 -0.58638984 0.06649557
0.17421266 -0.27731895 0.008265923 0.32532868 0.16178079 0.00079245935 0.2469283 0.28785038
0.30603006 -0.12926689 0.22546777 -0.17727113 0.26132616 0.13902009 0.3889575 0.22076735
0.2154834 0.44799653 -0.16448127 0.14014605 0.16989501 -0.3893419 0.26010445 0.03918906
-0.29169407 0.0077787377 -0.081695266 -0.13563795 -0.065555304 -0.32155162 -0.38824037 0.04815492
0.03123735 -0.35334072 -0.50792134 -0.12389093 0.0068386686 -0.48600516 -0.038981635 0.23211345
0.20247623 0.28413045 0.39285105 0.03213414 0.13339628 0.020915346 0.08859886 0.038318254
-0.09654674 0.08949139 0.41258505 0.14978755 -0.08663586 -0.3548413 -0.08937595 0.14800876
-0.2550877 -0.18719482 0.05116604 -0.12019037 -0.07449245 -0.113137834 0.45977825 0.10475895
0.19704539 -0.26150107 -0.07834125 -0.0056990865 0.23758388 0.34079853 -0.2546293 0.31259987
0.12815575 0.6221646 0.34557933 -0.06259192 0.20622553 0.5128703 0.38413885 -0.24892354
00000000: 4802 4c3c 1154 95bd f00c 5f3e d4b3 ce3d
00000010: 5571 403e 65ea b63b 32c4 5b3e c31b a0be
00000020: e13a 2d3e 3782 953e a105 54bc 9b23 ee3e
00000030: bf06 e8bd 781d debd b18a 793e 0fc8 54be
00000040: f473 cbbd 62b9 85bd 21cd 2d3e 3800 68be
00000050: 7f54 313e 6f19 b7bd d5fa 4e3e 79d2 953e
00000060: a535 013e 92e3 ed3e fc63 303d 24c6 0fbe
00000070: 0011 aa3a 4bc7 f53d 3681 47be bc3a 01bb
00000080: ce29 64bd 929d d43e c696 dc3e 789f 983e
00000090: c010 943e 50f6 66bd 3429 2dbe 6558 4bbc
000000a0: 4ddb 9f3d 1eea 17bd 0c9c 713e f55d 78bd
000000b0: 307e cebd 628a 00bf a51d 16bf d42e 883d
000000c0: ce64 323e c0fc 8dbe cb6d 073c 7b91 a63e
000000d0: dda9 253e 0cbd 4f3a c6da 7c3e 2061 933e
000000e0: f9af 9c3e 8a5e 04be 06e1 663e 9086 35be
000000f0: 8bcc 853e 485b 0e3e 7025 c73e d610 623e
00000100: aea7 5c3e cd5f e53e c76d 28be 7282 0f3e
00000110: f5f8 2d3e d257 c7be 692c 853e b584 203d
00000120: ed58 95be c8e4 fe3b d94f a7bd ade4 0abe
00000130: dc41 86bd 6aa2 a4be 71c7 c6be 183e 453d
00000140: 79e5 ff3c 13e9 b4be 2207 02bf 87ba fdbd
00000150: e916 e03b abd5 f8be 35ab 1fbd 26af 6d3e
00000160: ee55 4f3e 8c79 913e c623 c93e 179f 033d
00000170: 0999 083e a956 ab3c 5273 b53d 9af3 1c3d
00000180: 4cba c5bd 4347 b73d 593e d33e e861 193e
00000190: 246e b1bd c2ad b5be bd0a b7bd 9c8f 173e
000001a0: db9a 82be 00b0 3fbe 7b93 513d 5e26 f6bd
000001b0: 7f8f 98bd cfb4 e7bd 0e68 eb3e dc8b d63d
000001c0: 44c6 493e 78e3 85be 6171 a0bd 67bf babb
000001d0: 3049 733e 257d ae3e c65e 82be 170d a03e
000001e0: 433b 033e 2e46 1f3f c6ef b03e 3130 80bd
000001f0: c92c 533e 784b 033f d9ad c43e d0e5 7ebe

encoder.4.linear.bias f4 [8]
-0.05980866 0.21935748 0.290831 0.24493818 -0.21076046 0.08913707 0.08004 0.036657486
00000000: edf9 74bd 3f9f 603e cde7 943e 13d1 7a3e
00000010: 97d1 57be 7f8d b63d 03ec a33d 2926 163d

decoder.0.linear.weight f4 [16, 8]
-0.07123326 0.44844696 -0.08428347 -0.5234554 0.023178102 -1.0464078 -0.06555507 0.33527204
0.17683646 0.56623524 -0.38500834 0.034811106 0.0780686 0.20889422 -0.52756554 -0.30363834
0.103549264 0.44693267 -0.68745667 -0.024676505 -1.0434184 0.6588325 -0.4837938 -0.06376119
0.20341733 -0.42442527 -0.07880167 0.036961794 -0.38072482 0.099093445 0.32619283 0.21527907
0.043826263 -0.15815753 0.01292775 0.53534436 0.08548194 -0.06806816 -0.102031365 -0.15901102
-0.2580062 -0.3450763 -0.1136605 -0.11518186 -0.1051144 -0.028505383 0.07756079 0.09791785
0.51661533 0.5377392 0.06676826 -0.06891609 -0.31576875 -0.35214725 -0.091658644 -0.1505428
-0.07081716 -0.16099101 0.31426132 -0.041003548 -0.020280667 0.49040028 0.26183233 0.3012578
0.013669191 0.47898647 -0.5879992 0.201243 -0.32854888 0.2623542 -0.15191984 -0.042104937
-0.15120123 0.29785225 0.2090383 -0.096357144 0.6583692 -0.13362463 0.16206723 -0.30770114
-0.1159033 0.46736464 0.07430166 0.1214637 -0.40705445 -0.039125603 0.20462024 0.34222367
-0.09019613 0.037646793 -0.24467497 0.32785535 -0.34472004 -0.12973508 -0.0066064005 0.38823557
-0.178612 -0.16336168 0.18053958 0.0422976 -0.18341848 0.018460602 -0.2917881 -0.09885636
-0.21046996 0.52645165 -0.049561724 0.40456384 0.23363878 -0.3614494 0.24325116 -0.071129724
-0.09571455 -0.03402272 0.14666928 0.41435897 -0.29943576 0.2361391 -0.106442906 0.024895053
0.46407562 -0.44537848 -0.15454891 0.059495755 0.50491416 -0.13097204 0.35085574 0.20733596
00000000: bee2 91bd d79a e53e d09c acbd 2c01 06bf
00000010: 01e0 bd3c b1f0 85bf bd41 86bd c7a8 ab3e
00000020: 9e14 353e cbf4 103f d01f c5be 1796 0e3d
00000030: 6ee2 9f3d 5ee8 553e 890e 07bf 7c76 9bbe
00000040: a311 d43d 5cd4 e43e 29fd 2fbf 6226 cabc
00000050: bc8e 85bf 3fa9 283f d2b3 f7be 3a95 82bd
00000060: a24c 503e 454e d9be c562 a1bd 4065 173d
00000070: 5dee c2be 81f1 ca3d bf02 a73e 1e72 5c3e
00000080: 2b83 333d 0cf4 21be eace 533c 540c 093f
00000090: 2811 af3d 5267 8bbd d2f5 d0bd c9d3 22be
000000a0: 6319 84be d7ad b0be d6c6 e8bd 78e4 ebbd
000000b0: 3846 d7bd 1f84 e9bc 31d8 9e3d 2789 c83d
000000c0: e740 043f 47a9 093f ccbd 883d e123 8dbd
000000d0: 71ac a1be a54c b4be 87b7 bbbd e427 1abe
000000e0: 9608 91bd d4da 24be dce6 a03e 56f3 27bd
000000f0: a423 a6bc bf15 fb3e e30e 863e 763e 9a3e
00000100: bef4 5f3c b73d f53e 1e87 16bf a512 4e3e
00000110: 8f37 a8be 4a53 863e e090 1bbe 3a76 2cbd
00000120: 7fd4 1abe 1780 983e 230e 563e e556 c5bd
00000130: e28a 283f e5d4 08be f4f4 253e 018b 9dbe
00000140: b65e edbd 6b4a ef3e 782b 983d f6c1 f83d
00000150: 7169 d0be 2b42 20bd f887 513e f137 af3e
00000160: c0b8 b8bd 8633 1a3d 138c 7abe a8dc a73e
00000170: 257f b0be 46d9 04be 817a d8bb d0c6 c63e
00000180: 10e6 36be 4948 27be 5edf 383e 4040 2d3d
00000190: 0ed2 3bbe b03a 973c 4065 95be 3475 cabd
000001a0: 7085 57be 89c5 063f 3c01 4bbd fe22 cf3e
000001b0: 013f 6f3e e50f b9be d516 793e 76ac 91bd
000001c0: fd05 c4bd 685b 0bbd 7930 163e dc26 d43e
000001d0: a54f 99be 73ce 713e bdfe d9bd b6f0 cb3c
000001e0: 529b ed3e a608 e4be 1242 1ebe d2b1 733d
000001f0: 0e42 013f 891d 06be 5da3 b33e e14f 543e

decoder.0.linear.bias f4 [16]
-0.18486825 0.26310995 0.043958295 0.49154902 0.25230235 0.028293815 -0.2680496 -0.6156993
0.04579676 0.6016107 0.44346306 -0.10588725 -0.12869017 -0.25922254 0.33349764 -0.13763694
00000000: 1a4e 3dbe 59b6 863e 9d0d 343d 50ac fb3e
00000010: c62d 813e 6ec8 e73c cc3d 89be 789e 1dbf
00000020: 6295 3b3d 2903 1a3f 970d e33e 6adb d8bd
00000030: 5bc7 03be d1b8 84be 34c0 aa3e b3f0 0cbe

decoder.1.linear.weight f4 [32, 16]
-0.35887897 -0.15634796 -0.32901564 0.12666121 0.35575205 -0.15825304 0.5459229 0.10866038
0.21190804 -0.24350488 -0.18625464 0.19330174 0.06788841 0.17672478 -0.13368557 0.27339852
0.243688 -0.5542736 0.33417347 0.18608116 0.21542175 -0.08283018 -0.09023948 -0.06617465
-0.53371394 0.06302468 -0.260598 -0.0024234755 0.21432939 0.21713997 0.029088175 0.16603565
-0.8959637 -0.1828915 0.024240302 0.11933084 0.08466609 -0.074618556 -0.07331566 0.0030917816
0.3553681 -0.20461869 0.4311276 0.19740741 -0.13026641 0.1269691 0.3464275 0.114519365
-0.124716654 -0.1138016 -0.30810356 -0.06516286 -0.023767464 -0.21607994 0.21970166 -0.2400372
0.024951054 0.14815073 0.048917234 0.091758795 0.045674387 -0.11780475 -0.3027921 0.24567649
-0.9501997 0.60202515 -0.10655463 0.061784863 0.5607342 -0.20979923 -0.4094032 0.005708999
0.24682078 -0.09228558 -0.039215572 0.122277066 -0.23527616 0.05001397 0.43680763 -0.030704807
0.26951054 0.271002 0.6831744 0.33245823 -0.15551919 -0.01277129 0.27799064 -0.30205396
-0.02111815 0.11786137 -0.065888405 0.12302008 -0.027837351 -0.14959973 0.11561156 0.09225949
-0.46687838 0.21071756 -0.28694594 -0.013301931 0.33354142 -0.08605586 -0.22418983 -0.33758122
-0.15978782 0.31265363 -0.06719331 0.26992172 -0.053121567 0.15211405 0.22486633 0.1393754
0.21369435 0.25661907 0.04412367 0.025574474 0.10249244 -0.13808116 -0.124958076 0.012830872
0.318424 0.26868668 -0.13287649 0.005552741 0.17576337 -0.21945763 -0.015894648 -0.021384167
-0.107520275 0.5160643 1.1978033 -0.53105503 0.1108848 -0.049804688 -0.29355332 0.39090452
0.22640866 -0.32927287 0.13496907 0.33390146 0.18409654 0.18373369 0.037539653 -0.14310138
0.6956622 -0.28459623 0.37098277 0.43607035 -0.012374298 -0.033934712 0.19184999 0.048611026
-0.8658565 0.012784919 0.0049115093 -0.07955148 -0.052233383 -0.16935624 0.24551837 0.020898068
-1.3692658 -0.1886218 -0.28669956 0.3215896 -0.118270814 0.13365564 0.3296357 0.024930201
-0.44583023 0.06155623 -0.70493823 -1.0089537 0.018789591 -0.29038987 -0.27318883 0.29316366
-1.0639673 -0.082310244 -0.55167496 0.17060855 0.3678252 -0.046161734 -0.011236617 -0.037345447
0.17706437 -0.10315358 0.2916246 0.14191604 -0.12891108 0.18615831 0.028887263 -0.15738952
-0.11754361 -0.110642664 -0.24049997 -0.06682314 0.08271933 0.17374822 -0.17202744 -0.24010412
0.13639453 -0.058979277 0.014968374 -0.18779568 0.15105808 -0.0860977 -0.076308995 0.07741969
-0.37573868 0.5104255 0.29371262 0.14086354 0.19292817 0.12536646 -0.15863118 0.3564723
-0.18469614 0.15112849 -0.40315893 0.26285258 0.17003058 0.21826248 0.11698336 0.031575028
0.20899318 7.835534e-05 -0.013039497 0.3038323 -0.37859067 0.026235282 0.7733407 -0.17194062
0.49044818 -0.09010444 0.103206255 0.36502215 0.14639767 -0.41166034 -0.40067488 0.14706227
0.09018322 0.11713754 0.018596536 -0.11364117 0.2051056 -0.03803134 0.6702372 0.25220248
0.12832867 -0.32127097 -0.17179951 -0.037851036 -0.014230478 0.34638438 -0.10533382 0.20422511
00000000: fcbe b7be ae19 20be bd74 a8be 7ab3 013e
00000010: 2225 b63e 160d 22be 9ac1 0b3f 5589 de3d
00000020: 6cfe 583e 5859 79be 89b9 3ebe e4f0 453e
00000030: 1409 8b3d 57f7 343e dfe4 08be e4fa 8b3e
00000040: 5989 793e e0e4 0dbf c918 ab3e 0f8c 3e3e
00000050: 8597 5c3e dfa2 a9bd 7acf b8bd 9386 87bd
00000060: 7aa1 08bf 1513 813d 1a6d 85be 2cd3 1ebb
00000070: 2a79 5b3e f159 5e3e 534a ee3c 4005 2a3e
00000080: e15d 65bf e947 3bbe 9993 c63c ba63 f43d
00000090: 6a65 ad3d 9dd1 98bd 8526 96bd 7d9f 4a3b
000000a0: cff2 b53e 9087 51be c2bc dc3e 2b25 4a3e
000000b0: 8f64 05be 3004 023e f25e b13e 2189 ea3d
000000c0: 726b ffbd d010 e9bd c0bf 9dbe 1b74 85bd
000000d0: fcb3 c2bc 0f44 5dbe 79f9 603e 50cc 75be
000000e0: 2766 cc3c d3b4 173e 705d 483d 09ec bb3d
000000f0: 1115 3b3d 9e43 f1bd 9107 9bbe 9e92 7b3e
00000100: 4a40 73bf 521e 1a3f 5039 dabd 2012 7d3d
00000110: 478c 0f3f 9cd5 56be 4c9d d1be 8e12 bb3b
00000120: 96be 7c3e 3900 bdbd 82a0 20bd 666c fa3d
00000130: 3cec 70be 73db 4c3d 40a5 df3e a688 fbbc
00000140: 49fd 893e c6c0 8a3e 84e4 2e3f f737 aa3e
00000150: 6c40 1fbe ac3e 51bc ca54 8e3e d1a6 9abe
00000160: f8ff acbc 4d61 f13d 80f0 86bd f4f1 fb3d
00000170: 280b e4bc ac30 19be c1c5 ec3d 8bf2 bc3d
00000180: af0a efbe 58c6 573e 94ea 92be 58f0 59bc
00000190: f1c5 aa3e 0e3e b0bd 0592 65be 72d7 acbe
000001a0: 6b9f 23be 2314 a03e a59c 89bd 2e33 8a3e
000001b0: 0096 59bd c9c3 1b3e 5c43 663e 6db8 0e3e
000001c0: b1d2 5a3e 9363 833e 05bb 343d 8f81 d13c
000001d0: 8ee7 d13d 2665 0dbe 05ea ffbd 9438 523c
000001e0: 7808 a33e 4d91 893e c610 08be c4f3 b53b
000001f0: 50fb 333e 80b9 60be 7e35 82bc d92d afbc
00000200: 9733 dcbd ca1c 043f 9e51 993f 39f3 07bf
00000210: 9217 e33d 0000 4cbd 9f4c 96be a324 c83e
00000220: acd7 673e 7496 a8be 5535 0a3e 22f5 aa3e
00000230: ce83 3c3e af24 3c3e 2ec3 193d 2b89 12be
00000240: eb16 323f 99b6 91be 74f1 bd3e 9d44 df3e
00000250: 91bd 4abc 20ff 0abd 5374 443e 5b1c 473d
00000260: c6a8 5dbf d677 513c baf0 a03b e3eb a2bd
00000270: acf2 55bd b96b 2dbe 2b69 7b3e 6d32 ab3c
00000280: 1a44 afbf 1326 41be 49ca 92be 64a7 a43e
00000290: f837 f2bd 06dd 083e 03c6 a83e 6c3a cc3c
000002a0: dc43 e4be 6322 7c3d d576 34bf 6525 81bf
000002b0: a1ec 993c fbad 94be 68df 8bbe 8c19 963e
000002c0: 1530 88bf 4692 a8bd 923a 0dbf 02b4 2e3e
000002d0: 9653 bc3e 1614 3dbd ca19 38bc 8af7 18bd
000002e0: 5d50 353e 2f42 d3bd d24f 953e 7052 113e
000002f0: 4401 04be 49a0 3e3e fba4 ec3c b82a 21be
00000300: b4ba f0bd 9f98 e2bd a045 76be 92da 88bd
00000310: c168 a93d 0eeb 313e f627 30be dbdd 75be
00000320: 02ab 0b3e 4194 71bd e93d 753c 834d 40be
00000330: f8ae 1a3e fe53 b0bd e447 9cbd 378e 9e3d
00000340: d260 c0be 3fab 023f 8061 963e 883e 103e
00000350: f68e 453e 1160 003e 3670 22be 8a83 b63e
00000360: fc20 3dbe 6dc1 1a3e d96a cebe 9d94 863e
00000370: 7f1c 2e3e 3380 5f3e f994 ef3d d154 013d
00000380: 4f02 563e b452 a438 9da3 55bc e88f 9b3e
00000390: a3d6 c1be 60eb d63c a8f9 453f 3411 30be
000003a0: 061c fb3e ad88 b8bd cd5d d33d 2fe4 ba3e
000003b0: 45e9 153e 25c5 d2be 4225 cdbe 7e97 163e
000003c0: fbb1 b83d cee5 ef3d c357 983c b4bc e8bd
000003d0: 3407 523e c0c6 1bbd aa94 2b3f af20 813e
000003e0: 9768 033e a17d a4be 36ec 2fbe b009 1bbd
000003f0: f326 69bc 4b59 b13e 42b9 d7bd 6320 513e

decoder.1.linear.bias f4 [32]
-0.49656457 0.31813043 -0.029733885 0.3915233 -0.06614584 0.66444904 0.62176543 0.95292026
-0.14880878 0.2747366 0.24686459 0.5595827 -0.23119494 -0.35483178 0.5660432 -0.63547504
-0.1584213 0.69625235 -0.7941509 -0.65575963 0.38263047 0.044982005 0.5820668 0.12632585
-0.6229719 0.21636581 -0.023242326 0.6022548 0.13870558 0.5920115 0.66062 0.049503326
00000000: b63d febe fee1 a23e 7a94 f3bc be75 c83e
00000010: 7877 87bd 5519 2a3f 052c 1f3f 95f2 733f
00000020: 5461 18be 47aa 8c3e 12ca 7c3e d040 0f3f
00000030: 5ebe 6cbe 83ac b5be 35e8 103f 7eae 22bf
00000040: 3139 22be 983d 323f 794d 4bbf dddf 27bf
00000050: 24e8 c33e 0d3f 383d 5402 153f 905b 013e
00000060: 167b 1fbf 008f 5d3e b166 bebc 5f2d 1a3f
00000070: d608 0e3e 118e 173f 641e 293f 00c4 4a3d
