models/ipod_model_expand.pt (torch, 135593 bytes, 20 tensors)

encoder.0.linear.weight f4 [128, 39]
00000000: 8fae 3b3c 8d37 cd3e 816a 873e d106 1bbe
00000010: ca6a 373e fe39 b7bd e764 17be dfb0 a23d
00000020: e220 2cc0 bf6d b1bd 1dfe 80be 8b72 c9bd
00000030: df7e 923e bfc8 ab3d 47a6 67bd 4ac9 533e
00000040: 2d5b 83bc 1d6d 913d 329b fbbc 9e5a c4bc
00000050: 02b3 123e 3070 a23e 9975 393d f759 283c
00000060: d94a bd3d c137 4d3d acea 163e 4a25 0c3f
00000070: 5efd ea3d 4477 4e3e d2c0 15bb ecf2 403e
00000080: b7a4 003d 4f9b 13be 577a a63c 4f1e d83c
00000090: 07d9 4cbf 3cf1 6fbe 5e0b 30be 4b0e 3abe
000000a0: 12eb 07bf f292 a13d 6284 593d ae02 453e
000000b0: 8b4e 45be 2679 ba3d e97c 493e 66f7 9abe
000000c0: b791 15be 922d 62be cdbf 163d 7942 d13d
000000d0: 8d15 2abe 7a72 e73d c87f 76bc d31f 14bc
000000e0: 24e3 b33d 0011 6d3d 816d ecbd 05b7 d6bd
000000f0: 5a6e 813b f372 193d d04a e73b 23d3 8d3b
00000100: 7992 ab3d 39ce de3d 15a5 febc ddcb 47bb
00000110: 0f36 873d 5f9e 453d f3de 33bd ecfe b23c
00000120: baac e63b cf08 053d eded f43d d426 1abe
00000130: 8b24 bdbd 0f56 493d 98f2 ef3d 2e3c 793e
00000140: 2f80 64be 6971 fd3e 5453 74be aca7 d0bd
00000150: f0de c9be 5f4b 573f 25fe 82be e785 f0bd
00000160: 92d7 aa3d 16da 993d 489b 1bbe f151 a23e
00000170: 4bc4 463f 587a 143b e7d6 193e 836b fc3d
00000180: e256 e6bd 7c2e d93d 543f 17bd 0924 5ebe
00000190: 7845 f5bd 67a8 ddbe d09b 2bbe 7092 543d
000001a0: 8365 2bbc ceba f53d c4d9 223e 233f 453d
000001b0: 7c54 23be 7c1b a43c 9915 a7bd 4557 32be
000001c0: 99c4 5fbd 3bc3 273d a519 853d 7503 74bf
000001d0: ba34 943d 8656 303e 2709 e2be 9201 a23d
000001e0: 118c 5ebe 523e 383d ce04 f23c 1745 833e
000001f0: 0941 c83d c791 a53b aa67 703e 9cf7 203d
00000200: 2342 e43d 2815 9d3e 7e5f b4bd 3b7a 2ebd
00000210: 0797 853e d833 98bd e634 e53d 02c6 2d3e
00000220: 9d00 353e ff79 d4bd 1914 b93e 5f92 343e
00000230: c236 503d 7def 4fbd 2d94 813d c03e 8fbc
00000240: e31e d43d ceb7 0e3d 9cba 403d d54c 7b3d
00000250: 1d84 003e 89d8 25be 62f8 bbbd f552 5d3c
00000260: e888 d83d 9689 5a3d bcb8 2d3c 8862 0e3e
00000270: a352 b03c 1685 2a3e 49a2 63bf dd59 8c3e
00000280: 5f1b ce3e f0cf 7d3e f24c 37bc 94f0 ccbf
00000290: b8dc 9b3f 307f 9dbd de30 083e f43b 6c3d
000002a0: ab54 8b3e bb85 2cbe ecf6 4fbe b183 3abe
000002b0: 9c1a 4ebd 6d68 47be 8f8f 03be a4dc fb3d
000002c0: 344d 283d a0df 3b3e a2e9 08be 35a8 933d
000002d0: 0804 653e ecfb 013e f061 603e dfcb e0bc
000002e0: c4a5 193d 351a 1c3e 7587 01bd 1242 05be
000002f0: 30b9 583e 4670 323e c123 04be b48b 1c3e
00000300: 4c5a fa3d 8add c9bc bfe3 f9bd cb88 803f
00000310: 3211 f93e 016d e5bf 9205 36bc 3f42 22bf
00000320: 4b5a 233d 133e 543e 3379 d6be 08b8 9e3e
00000330: 70dc 55be aaa3 d5be 7547 0fbf de16 1abe
00000340: 208e 59bf 58c0 2abe a93c a3be d719 ebbd
00000350: 7568 33be 8541 f1be ed03 943d e98c 0fbe
00000360: 6e2d 0d3e 8ea5 6f3d b3c5 c23d fc31 7ebe
00000370: a39d 25bf 598d 39bf 59f7 45bf 451b 0dbe
00000380: 8b8e 71bf fe54 203e bbf9 abbe e766 d63c
00000390: 6bca 9bbd b5b2 0ebe d278 e03d 170a 513e
000003a0: 6615 ad3d 28fa 89be 1363 0ebd 8f47 1a3f
000003b0: def0 5b3e 6dd1 f83e 1305 b1bd d59b a53d
000003c0: ddc5 0ebf fc33 8bc0 3290 38c0 ce54 a6be
000003d0: 1672 ac3d 5124 33be a274 9fbe b1d7 253e
000003e0: 5474 043e 01a6 ddbd f2b4 7cbc 84a3 84be
000003f0: f74c 26be 8831 313b e57b 34be 9bd3 86bf
0.011455192 0.40081444 0.26448444 -0.15139319 0.1791183 -0.08946608 -0.14784585 0.07943892
-2.689507 -0.086635105 -0.25193873 -0.098363005 0.2861242 0.08387899 -0.05655506 0.20682254
-0.016034687 0.0710089 -0.030713651 -0.02396899 0.14326099 0.31726217 0.045278165 0.010275356
0.09242792 0.050102 0.14737958 0.547444 0.11474107 0.20162684 -0.0022850526 0.18842667
0.031407084 -0.14414714 0.020322008 0.02638164 -0.8001866 -0.23431867 -0.17191836 -0.18169515
-0.53093064 0.07889356 0.053104766 0.19239303 -0.19268243 0.091051385 0.19676556 -0.30266875
-0.14606367 -0.22087696 0.03680401 0.10217757 -0.16609783 0.113011315 -0.015045114 -0.009040791
0.08783558 0.05787754 -0.11544324 -0.10484127 0.0039499225 0.03746314 0.007058479 0.004328148
0.08377547 0.108791776 -0.031084577 -0.0030486502 0.06602108 0.048246738 -0.043913793 0.021850072
0.0070396336 0.032479104 0.11959443 -0.15053874 -0.09235486 0.049154337 0.11716193 0.24339363
-0.22314523 0.49500588 -0.23859912 -0.10188231 -0.394279 0.8409938 -0.25584522 -0.1174429
0.08341898 0.075123 -0.15195954 0.3170314 0.7764327 0.002265593 0.15023385 0.12325194
-0.1124704 0.10604569 -0.03692563 -0.21693434 -0.11976141 -0.43292543 -0.16758657 0.051897466
-0.010461214 0.11998521 0.15903383 0.048155915 -0.15950197 0.020032637 -0.08158416 -0.17416103
-0.05463085 0.04095767 0.06499032 -0.95317775 0.07236619 0.17220506 -0.44147608 0.07910456
-0.21733119 0.04498131 0.029543307 0.2563865 0.097780295 0.0050527784 0.23477045 0.03929864
0.11145427 0.30680203 -0.08807276 -0.042597037 0.26091787 -0.074317634 0.1119173 0.16970065
0.17676015 -0.103748314 0.36148146 0.17633961 0.05083347 -0.050765503 0.063270904 -0.017485976
0.10357454 0.03484326 0.047052965 0.06135257 0.12550397 -0.16195883 -0.09178235 0.013508548
0.10572988 0.05335387 0.010603126 0.13904774 0.02152378 0.16652331 -0.889195 0.2741231
0.40255257 0.24786353 -0.011187779 -1.6010919 1.2176733 -0.07690275 0.13299891 0.057674363
0.27213034 -0.16847889 -0.20309037 -0.18214299 -0.050318345 -0.19473429 -0.12847732 0.12297943
0.04108925 0.18347025 -0.13370374 0.07209817 0.22364819 0.12693757 0.2191236 -0.027440963
0.037511602 0.15244372 -0.031623323 -0.13013485 0.21164393 0.17425641 -0.12904264 0.15287668
0.12224254 -0.02464177 -0.12201642 1.0041746 0.4864593 -1.792389 -0.0111097265 -0.63382334
0.039881032 0.20726804 -0.41889343 0.3099978 -0.20884871 -0.41726428 -0.5596841 -0.15047786
-0.8498249 -0.16674936 -0.31882218 -0.11479538 -0.17520316 -0.471203 0.07227311 -0.14018597
0.13786861 0.058507495 0.095103644 -0.24823755 -0.6469366 -0.72481304 -0.7733055 -0.13779934
-0.9435813 0.15657422 -0.33588967 0.026172115 -0.076069675 -0.13935359 0.10960545 0.20414005
0.08451347 -0.26948667 -0.034762453 0.6026544 0.21478602 0.4859728 -0.08643546 0.08086363
-0.55770665 -4.3500957 -2.883801 -0.32486576 0.08420198 -0.17494322 -0.3114367 0.16195561
0.12935 -0.10822678 -0.015424 -0.25906003 -0.16240297 0.002703758 -0.17625387 -1.0533327

encoder.0.linear.bias f4 [128]
00000000: e847 4fbc 3c78 473e 5a51 f9bd d86e 733c
00000010: 2a2f 30bd caa4 0a3f 99ff 17bf 1f4b 15be
00000020: 1621 26be 6f83 adbe 5d2b e6bd 80ad 49bd
00000030: cf9d 993c 9605 c83d ce06 12be da72 103e
00000040: fa33 98be 4a3f 39bd 5791 423e b16f 683c
00000050: c659 4a3d c62d 15be 076b ccbd 7de5 07be
00000060: a329 35bd 397f febd 2ebf 17be 3025 1d3d
00000070: 598a 923e c82c 603e d3d6 f83d 208b ae3d
00000080: 9474 423e dbb0 aa3d 74f5 78be aabb a33e
00000090: 0e88 47be 252f 1e3e 102a 433e 6cd6 d63d
000000a0: 4318 7cbc b654 a03c 5f95 a7bc 87fd 6bbb
000000b0: 0b24 3d3e 381e 4b3e a9b5 35be 022d 34bd
000000c0: 29b6 fd3d 5df0 e8bd e75a acbc 9768 463e
000000d0: bfe0 143e 8ca2 da3c 61f7 1c3d 4482 a7be
000000e0: bee1 4f3d 92f3 41bd 061c cabd 9b4d a43d
000000f0: 85cb bfbd 5494 be3d b3a1 ae3d d87a 373d
00000100: 2c14 87be 470b 22be 42b8 f7be c7d9 2f3e
00000110: 1ab9 083e 0e58 27be a651 16be 622d 9d3c
00000120: f1bc 2c3e 3dc4 84be fcf0 2cbc a985 953e
00000130: 7bca c4bd 0453 bdbe 4e75 923e 380e 193e
00000140: abc0 01bb 9892 903e 9f9e 25be 3944 033e
00000150: f177 82bd 442f 91bc f094 07be 7e61 85bd
00000160: 1692 1ebe bba2 22be e2a3 ecbd a57f 86b9
00000170: e78b 003e eb75 8b3d 3b22 cabe df66 f83d
00000180: fc1d 5c3e dfc0 26be bbd0 873d 4533 4c3d
00000190: f9ff a7bd dd3f 993d fe16 abbe 2625 b43d
000001a0: c2a4 1d3c a8cb c93c d489 40bc 4dd5 7e3e
000001b0: 06e5 04be 8e4a d4bb e5d0 0c3e 3bc6 033e
000001c0: 3a03 643e 56ba d33d 342c 593e 525e 1fbe
000001d0: ddbc 693d 4131 c53c 3648 a0be ff17 16bf
000001e0: 462a 7c3e b86e 37be dbb5 643e d780 f0bc
000001f0: 227d 223e 9d7a f63d 0787 87be 79fc 9b3d
-0.012651421 0.1947946 -0.1217372 0.01485797 -0.04301373 0.541577 -0.59374386 -0.14579438
-0.16223559 -0.33889338 -0.1123874 -0.049237728 0.018752007 0.097666904 -0.14260408 0.14106312
-0.29727155 -0.045226373 0.19000755 0.014186786 0.04940202 -0.14568242 -0.09981351 -0.13271137
-0.04422916 -0.124266095 -0.14819023 0.038365543 0.28621176 0.21892083 0.121503495 0.0852263
0.18989784 0.08334514 -0.24312383 0.31979114 -0.19485494 0.15447672 0.19059014 0.104901165
-0.015386644 0.019571643 -0.020456968 -0.0036009268 0.1847078 0.19835746 -0.17745079 -0.043988235
0.1238826 -0.11373971 -0.02103944 0.19375835 0.14538859 0.026688837 0.038321856 -0.32716572
0.050752394 -0.047351427 -0.09868626 0.080226146 -0.0936499 0.09305635 0.085269354 0.044794887
-0.26382577 -0.15824614 -0.48382765 0.17172919 0.1335186 -0.16342184 -0.14679584 0.01918668
0.1686895 -0.25930968 -0.010555502 0.29203537 -0.096089326 -0.36977398 0.2860512 0.1494683
-0.0019798677 0.28236842 -0.1617379 0.12818994 -0.06370533 -0.017722733 -0.13240409 -0.06512736
-0.15485415 -0.15882389 -0.11554696 -0.00025653574 0.12553369 0.068096004 -0.3947924 0.12128996
0.21495813 -0.16284512 0.06631609 0.049853582 -0.0820312 0.07482884 -0.3341598 0.08796148
0.009621801 0.024633244 -0.011751611 0.24886055 -0.1297799 -0.006478614 0.13751562 0.12868588
0.22266856 0.10338275 0.21208268 -0.15563324 0.05706488 0.024071338 -0.31305093 -0.58630365
0.24625501 -0.1791333 0.22334997 -0.02935831 0.15868047 0.120351054 -0.26470205 0.07616515

encoder.1.linear.weight f4 [64, 128]
00000000: 0d57 8b3e 014d c83d 3fb4 003f 76c3 6bbc
00000010: d664 c9bc f376 c5bd 2533 34bf 7555 833d
00000020: 01a4 80bc 3ae9 79be 3384 22bc e5b8 a43d
00000030: 5763 b43d 4af5 5d3d 0098 043f d16d 903e
00000040: ba27 993e f222 453d ce5d 2e3e 3cf7 29bd
00000050: 7964 883d ed2f a53d 1225 613b ce13 f8bc
00000060: db34 ac3d d11e b73e 68a2 5ebd 5e19 39be
00000070: 74f6 f2bc 09af 133e d2cf 5c3e 38df d8be
00000080: 1b97 303e 81c1 0d3e 9f10 42bf e573 8c3e
00000090: ff3f c6be 38ff cabe 5915 41be 93de 93bc
000000a0: a360 5d3e def3 0cbe 193d cdbb de9a 293c
000000b0: 367a fabc 7443 873d bec6 293d 000c bf3d
000000c0: e69a 143e 418c eabd 17fa c23d b7ce 323e
000000d0: f96b 813d f64a b33e 31dd d13d ad74 7bbe
000000e0: 79c1 20bf 5646 87bd 4c56 9abd 2e13 85be
000000f0: 6111 ae3c f485 953c 6eeb c5be bf40 3c3e
00000100: ccf1 093e 04eb c1bc 887d a63f e1fc 5e3e
00000110: 1fcc 043e cb9d d5be bfaa 7f3d ea12 c83d
00000120: ac74 963d 8f1e 9dbe ca61 89be 1c9f 9d3d
00000130: 22a1 d4bd 6ce5 14be 8a2c e23d 8b1e 113c
00000140: c2b7 37bd d695 943d e639 903e fdce 523d
00000150: 04db 11bd 88a4 973d 51dd eabc 718f f0bc
00000160: e06e 6dbb ac48 dabc b933 363c 0007 8cbd
00000170: 1932 b33c a6ce 9b3d 0142 b83f 3811 453e
00000180: 8cc4 32bc 6e35 83be d819 aa3d 5176 a53e
00000190: 805a 343e 0701 1f3f b284 ec3e 5f6e 93be
000001a0: 2573 a43c ba91 52bd 5f04 8f3f 79fc f7bc
000001b0: 669e 23bd e749 4bbe c3e2 adbe 902c cc3d
000001c0: 5524 5f3e c837 133e debe 193f 739b a8bd
000001d0: 45d9 273d c175 d3bd 2547 02bf 37b2 7e3f
000001e0: 941b 063e cd70 bdbd c7d1 18bd 2853 1ebd
000001f0: ada4 c2bc 7bea 493e 398e 9bbd fdc4 cb3d
00000200: 602e 5a3d 2ac3 2fbd 2878 003f 4c70 303d
00000210: 89b1 cfbe 6d39 25bf 2ce9 4e3e 3d7c 91bc
00000220: ca6e 8cbd 63b7 2b3e 53d7 7ebd 5969 8c3d
00000230: b17b d2bc 6e78 3f3e 993d ed3e 27ad d73d
00000240: 585c 803e 6618 553d 20d0 8e3d abb7 0dbe
00000250: 949f 503d b384 8f3d fcf4 423d c706 66bd
00000260: b023 ab3d ee0e 31bd 40a3 c03d b9e3 7a3d
00000270: 4753 6abd c466 1c3e de5b ddbd 961a 68be
00000280: 073e 7f3c a2a8 efbe 1b12 88be c026 9e3e
00000290: d3e6 75bd 69c8 10bd cf47 a8bc 260f 8dbd
000002a0: cb1e 0e3e 4a00 6ebc e49e 85bf 4443 e6bc
000002b0: bfe4 1b3c bfd1 833c d402 db3d 5415 d9bc
000002c0: 4f06 b33c 32de 2b3d 351c 903d ba51 433d
000002d0: 41e6 163e cae3 4cbc 4369 6c3e 9696 ab3d
000002e0: e3b1 21bf b323 1e3b 848e 37bd 6284 b73d
000002f0: e43e f63d 1111 8a3d 115a aebe b8f6 ae3c
00000300: 1b2e 973d 3ef2 0b3d 3531 433f c256 0b3d
00000310: 751a 05bd dc1a 43bd 3e17 993e 5532 2e3d
00000320: b167 163d 8208 a7be 69e7 90bf 598c afbd
00000330: dd7f 31bd 546e 6ebe 337a 3c3d f5c9 533d
00000340: d712 e63d e35e 99bc d42d 063e 5653 2e3e
00000350: ff86 bebd 33d1 573c a3be c1bd 042d 0cb9
00000360: d2ab 223d bb73 67bb 6d94 53bd d2ab e73d
00000370: 9029 9d3d a234 7d3d 4903 7f3f 72b6 1f3e
00000380: 2227 3c3e 35c8 5b3e d571 533d f713 b83e
00000390: 7026 4b3e 7c25 b23e ce3a d23e 323f 133e
000003a0: aac9 823c b921 253e 3e69 0d3f 3dfd 39bb
000003b0: 770d 39be 26ca b53d e978 9fbd 83a7 01be
000003c0: 0894 67bd 4e00 d73d b4a0 153f f93c 963d
000003d0: ae09 eb3d 6e61 22bb e202 78bd 95ff 443f
000003e0: 424e e3bc 2122 94bc 9143 893c acdb cd3d
000003f0: ae28 cabd 90ac ee3d e2f1 a83d 15ad 403d
0.27214852 0.09780312 0.50275034 -0.014389863 -0.024584215 -0.096418284 -0.7039054 0.06412784
-0.015703203 -0.24405375 -0.009919214 0.08043078 0.0880801 0.054189004 0.51794434 0.28208783
0.2991312 0.04812903 0.17027971 -0.041495547 0.06659789 0.08065782 0.003435437 -0.030282881
0.08408519 0.357657 -0.0543541 -0.18076083 -0.029658534 0.1442224 0.21563652 -0.42357802
0.17245142 0.13843347 -0.7580661 0.2743217 -0.387207 -0.3964784 -0.188558 -0.018050468
0.21618895 -0.13764903 -0.006263387 0.010351865 -0.030575853 0.066046625 0.0414493 0.09328461
0.14512214 -0.114525326 0.09520357 0.17461668 0.06319422 0.35018128 0.10247267 -0.24556227
-0.62795216 -0.066052124 -0.07535991 -0.25991195 0.021248521 0.01825235 -0.3865618 0.18384074
0.13471144 -0.023671634 1.3007059 0.21776153 0.12968491 -0.4172195 0.062418696 0.097692326
0.07346472 -0.30687377 -0.2683242 0.07696363 -0.10382296 -0.14540642 0.110436514 0.00885738
-0.04485298 0.072551414 0.28169173 0.05146693 -0.03560926 0.07404429 -0.028669985 -0.029365273
-0.0036229417 -0.02664598 0.01112073 -0.06837273 0.021874474 0.076077744 1.4395143 0.1924485
-0.010911118 -0.256267 0.083057106 0.3231683 0.17612648 0.6211094 0.46194988 -0.28795144
0.020074436 -0.051408507 1.1173209 -0.030271756 -0.039945982 -0.1985241 -0.33962068 0.09969437
0.21791203 0.14376748 0.60056865 -0.082327746 0.04097869 -0.10325194 -0.5088981 0.99490684
0.13096458 -0.09250031 -0.037309434 -0.038653523 -0.023760164 0.19718353 -0.07595486 0.09949682
0.053266883 -0.042910732 0.50183344 0.043075845 -0.40565136 -0.6454075 0.20206136 -0.017759437
-0.06857069 0.16769175 -0.062217068 0.06856031 -0.025693746 0.18698284 0.46336058 0.10531073
0.25070453 0.05202522 0.069732904 -0.13839595 0.050933436 0.07007732 0.047596917 -0.056158807
0.08356416 -0.04322713 0.094061375 0.06125233 -0.057208326 0.15273577 -0.10808538 -0.22666392
0.015578753 -0.46808344 -0.26576313 0.3088894 -0.060034584 -0.035347376 -0.020542054 -0.06887655
0.13878934 -0.014526436 -1.0439115 -0.028108247 0.009514987 0.016091226 0.10693899 -0.026499428
0.021853594 0.04195995 0.0703663 0.047685362 0.14736272 -0.012505481 0.23087029 0.08378331
-0.6316206 0.0024130165 -0.044813648 0.08960797 0.12023714 0.067415364 -0.3405309 0.021357879
0.07381841 0.034166567 0.7624696 0.034018286 -0.032495935 -0.047633037 0.29900545 0.04252847
0.03671998 -0.32623678 -1.1320621 -0.08571691 -0.04333483 -0.23284274 0.046014976 0.051706273
0.11234062 -0.018722003 0.1310342 0.17023978 -0.09303092 0.013172436 -0.09460189 -0.0001336821
0.039714642 -0.0035316783 -0.05165522 0.11312069 0.07673943 0.061817773 0.9961439 0.15596941
0.18374303 0.21463092 0.05162223 0.35952732 0.19838881 0.34794223 0.4106049 0.14379576
0.015965302 0.16126145 0.5523871 -0.0028379702 -0.18071543 0.088764474 -0.07786734 -0.12661557
-0.056537658 0.10498105 0.5844834 0.07335848 0.11476456 -0.002477731 -0.060549624 0.7695249
-0.027747277 -0.01808268 0.016755851 0.10051665 -0.0987104 0.116540074 0.082492605 0.047040064

encoder.1.linear.bias f4 [64]
00000000: 0c3d b13d f132 a93d 544f 3e3e 12a7 b3bd
00000010: fe5e 96bd f24a 733e 3e6a 6f3d 16ba 833c
00000020: 0289 203d 90fe 703e 6343 97bd 8fb5 4e3e
00000030: 858a 22bd a360 1c3e 6917 fe3b 6a03 733e
00000040: 7c9b 8a3b 0447 063e 6e39 df3d dbb4 6abc
00000050: 5e14 d3bd 0344 5a3e d967 3f3d d3be 013e
00000060: 0e61 8e3d 0f4a 743d 801a 563e 9f51 eabc
00000070: b6a4 10be 5fec 5bbd 6a8e 00bd d18f 583e
00000080: fa2a 04bd 2729 0c3e 4c97 01be 7e86 aa3c
00000090: c070 7dbc 70eb fbbd 2a3f 833e 569e e8bd
000000a0: 4682 31bd 23c4 143c f9cd 89bd 8a85 e8bd
000000b0: 7049 413e 329e 15bd e0d4 483e fdb0 58bd
000000c0: 8a48 823d 18a7 b7bd e5ed a83d db87 debb
000000d0: 1a43 8abd 9d02 e2bd 76a6 00be a858 013e
000000e0: a66a a43c 3476 693e 7f9b 623e 39b9 8ebd
000000f0: 2e6f 543d 67bf b43c bc3f bb3d 6fe8 5d3e
0.08654222 0.082616694 0.18584949 -0.087721005 -0.07342337 0.23759058 0.05845093 0.016079944
0.03919316 0.23534608 -0.073859 0.20186447 -0.039682884 0.15271239 0.0077542556 0.23731771
0.004229961 0.13113028 0.10899626 -0.014325346 -0.10306619 0.21315007 0.046729896 0.1267045
0.069521055 0.05964094 0.20908546 -0.028603373 -0.14125332 -0.053692218 -0.031385817 0.21148612
-0.03226755 0.13687573 -0.12655371 0.020816084 -0.015468776 -0.123007655 0.25634128 -0.11358325
-0.04333713 0.009079966 -0.06728739 -0.113535956 0.1887567 -0.03652782 0.19612455 -0.052903164
0.06361492 -0.089674175 0.082485 -0.0067910976 -0.0675108 -0.11035655 -0.125635 0.12631476
0.020070385 0.22798997 0.2212963 -0.06968922 0.05186384 0.022063924 0.09143016 0.21670698

encoder.2.linear.weight f4 [32, 64]
00000000: 2d5d 13bf 98c7 303d 23db 863d 30c9 4e3d
00000010: 8084 573c aa06 393e 5ddb afbe 03f0 b3bd
00000020: 2ce7 33bd 3ffc 9dbe 6028 d23b bcc7 89be
00000030: 7a92 e13d bb16 9fbe f0ba 0abc 9926 0cbf
00000040: d2cd 92bd b669 963d aa77 97be 09bb 0bbe
00000050: 668a b7bd e4ad d3be 7741 503c b5c7 bfbe
00000060: 0ff2 d93c 201a 8b3b 215b edbe c025 88bd
00000070: a947 2f3d db12 133c b190 cf3d d526 b73d
00000080: 6177 30bd 89ca 18bf 7a2d bc3d 0437 76be
00000090: 4e69 ffbd 3291 fa3d 16f9 12bf 906f 7a3d
000000a0: 5245 87bd 8e4e dd3d c1eb 18be 9ea8 d3bd
000000b0: 43b7 f8be 461d a93d 1b35 e43d f616 fc3c
000000c0: fe0e 19bd 9c2d 353d 55b1 c7be 78e8 06bf
000000d0: 2006 753d f0de 1a3d ab9f 2abd 93b5 00bf
000000e0: 891b 2bbd 3153 b33d eeaf 7e3b 6087 25bc
000000f0: c64e 493d 98dd 7f3d c0c2 0ebf f77b 9cbd
00000100: d587 c4bc 86e8 afbd cb6c fe3d 4e67 9fbd
00000110: 80a3 d0bc 699d 123e a996 b3be ea32 00bd
00000120: fdc2 83bd d9c7 92bd 7386 2abd f93c 623e
00000130: 29af ac3d 6eea 3a3e 66f7 173d af63 533e
00000140: 6098 b4bd c32d a73e 42e7 77be b244 003e
00000150: 2e2a f73d 1673 4a3e db6c 96bd f078 2b3e
00000160: 16e8 00bf e78f 49bd 0ae9 3cbe 511e 943c
00000170: 88f7 d23b cfeb 543e 0428 833e 6dcf ffbd
00000180: ea10 e4be 44a1 1b3e 1c75 043d 86b1 3abe
00000190: 5055 683c 4c4e 9bbd b59e 983d 2dc3 b2bd
000001a0: 7643 2a3d 85ed 173d b134 28bf 1db8 72bc
000001b0: 409b 8f3e 7e4c 2dbd 9a77 c13e c2c0 153d
000001c0: 131e 6e3c 8c8f 003e b839 3d3d 788e ca3d
000001d0: 9713 b8bd 0038 75ba 5a42 c13e e3bf c23c
000001e0: a0d2 9abc 4118 81bd 054a 31be 6404 0e3d
000001f0: 8519 653e 0218 743d a618 223c 3783 8b3e
00000200: 993b c2bb 73d4 393d 374d 85bd e4e8 493c
00000210: fc1a 093d 5149 b93d f5c4 10bd 02af 85bc
00000220: fde0 bcbd 4cc6 96bd a25a ecbd 90ab 413d
00000230: 90e2 08bc 291b 98bd d8c4 fd3d d737 f9bd
00000240: f1e0 c53d 5576 e3bd 9655 47bb 1a8a b1bd
00000250: 6424 dfbd 07db 0cbe 80b8 e8bd 3535 c3bc
00000260: 6ebf b8bd 01d6 05be 24af 41bc 0022 58bc
00000270: 5921 9f3d f337 66bb c512 e1bd 1e87 84bd
00000280: d5ae 26bd 53b6 9a3d e8d4 a9bc 1589 c7bc
00000290: 9c4a 3abd 7484 6abd 193e c9bd 8ab6 0239
000002a0: 4442 ccbd a26f 8abd 415a b23c 5589 03bd
000002b0: 8c7c b7bd 17d8 9dbd dab9 13be fc37 92bd
000002c0: abb6 18ba a1d4 f63d 4f49 0ebc 3327 d7bd
000002d0: f01c e03c b6cf b43d ec29 86bc da68 ac3d
000002e0: 4e7f b1bd 1a63 48be ddf4 a73c af40 543d
000002f0: 2cdb eebb 4874 e53c 478a 653c b520 99bd
00000300: c902 113d 4b66 703b b383 4d3f f143 8d3d
00000310: 5a59 a6bd 8b05 2a3d 08d9 143e 29d1 eb3c
00000320: 0736 81bd 0f59 efbc 0357 3d3d 5453 64bd
00000330: 4655 e63d 4baa 18bd 05af cabb 2bf7 273f
00000340: a5c6 d5be f4dc 4abc 5144 643e b323 fdbe
00000350: d63d 85bd 1332 d83d 2450 d3bd 37d2 983f
00000360: 7cdb 8fbf 8b74 dbbd 1d4f 393e e784 393c
00000370: ef27 eb3c 4974 6b3e d1d2 ff3c ce8e 843e
00000380: be9c 8ebf 6c6b 3b3e de79 5fbd 163a 37bf
00000390: b2a8 f0bd a746 5e3d 42d2 d53d 7eb3 c63d
000003a0: 8141 023e 51c6 a93d 383b 393f 8db9 283d
000003b0: 4109 e03d 115a fb3d 7e68 603d c70b 0a3d
000003c0: 23ae 8b3d e5ab b0bd 5194 a43d 3f61 d23c
000003d0: 6eca d13d 8cdc 68bd dd86 3f3d 1b3a 51be
000003e0: c74e fd3e 59d7 ff3e e192 55bf bf80 5a3d
000003f0: 18f0 eb3a 2076 0bbd 1e39 0fbe cbd3 d83e
-0.5756405 0.043159097 0.06584766 0.050484836 0.013154149 0.18068948 -0.34347048 -0.08786013
-0.043921635 -0.3085651 0.0064135045 -0.26910198 0.11014266 -0.3107203 -0.008467421 -0.54746395
-0.07168163 0.073443815 -0.29583484 -0.13645567 -0.08961944 -0.41343606 0.012710921 -0.37457052
0.02660468 0.0042450577 -0.46358588 -0.06647825 0.04279295 0.008976663 0.101350196 0.089429535
-0.0430826 -0.59684044 0.091883615 -0.24044424 -0.12471257 0.12234725 -0.57411325 0.06114155
-0.06605019 0.10805999 -0.14933683 -0.103348956 -0.48577318 0.082575366 0.111429416 0.030772667
-0.037367813 0.04423295 -0.3900248 -0.5269847 0.059820294 0.037810266 -0.041656177 -0.5027706
-0.041774306 0.08756102 0.0038862186 -0.010103077 0.04914739 0.062467188 -0.55765915 -0.07640832
-0.023990551 -0.08589272 0.12423094 -0.07783376 -0.025468588 0.1431786 -0.35075882 -0.031298555
-0.064336754 -0.07167024 -0.041632127 0.22093572 0.08431847 0.1825349 0.037101172 0.20643495
-0.08818126 0.326521 -0.24209312 0.12526205 0.12068592 0.19770464 -0.07344981 0.16745353
-0.50354135 -0.0492095 -0.18448272 0.018080862 0.0064381994 0.20793079 0.25616467 -0.12490735
-0.44544154 0.15198237 0.032338247 -0.18231782 0.014180496 -0.07583293 0.07452146 -0.08728633
0.041568242 0.03709175 -0.657054 -0.014814404 0.28048134 -0.042309277 0.3778656 0.03656078
0.014533537 0.12554759 0.046197623 0.09890455 -0.089881115 -0.0009354353 0.37745935 0.02377314
-0.018899262 -0.06303454 -0.17313392 0.034672156 0.22373016 0.059593208 0.009893572 0.27248546
-0.0059275148 0.045368623 -0.06508868 0.012323592 0.033473 0.09047187 -0.035344083 -0.016318802
-0.092226006 -0.07362041 -0.11540724 0.047282755 -0.008354798 -0.074270554 0.123910606 -0.12168854
0.09662045 -0.111065544 -0.0030416003 -0.08668919 -0.10895613 -0.13755427 -0.113633156 -0.023829082
-0.09020887 -0.13069917 -0.011821542 -0.0131917 0.077700324 -0.0035128563 -0.10989908 -0.06471084
-0.040694077 0.07554307 -0.020731404 -0.024357358 -0.04548131 -0.057255223 -0.09826297 0.00012465767
-0.09973577 -0.067595735 0.021771552 -0.032113392 -0.08959302 -0.077072315 -0.14426365 -0.071395844
-0.00058255595 0.120522745 -0.00868447 -0.105055235 0.027357548 0.0882868 -0.016377412 0.08418436
-0.086668596 -0.19569054 0.020502502 0.0518195 -0.007289311 0.028009549 0.014010019 -0.074769415
0.035403047 0.0036682065 0.8027908 0.068977244 -0.08122511 0.041509192 0.14535916 0.028786259
-0.06309133 -0.029217271 0.04622556 -0.05574353 0.11246733 -0.03727178 -0.0061854147 0.65611523
-0.41753116 -0.012381781 0.22291686 -0.494413 -0.06505935 0.10556426 -0.1031802 1.1939152
-1.1238856 -0.10715588 0.18096586 0.01132319 0.028705565 0.22993578 0.031228455 0.258902
-1.1141584 0.18302697 -0.05455958 -0.7157301 -0.11750926 0.054266598 0.10440494 0.09702204
0.127203 0.08289779 0.72355986 0.04119258 0.10939265 0.12273038 0.05478715 0.033702638
0.06820323 -0.08626536 0.080361016 0.025681136 0.102436885 -0.056850955 0.046759475 -0.20432322
0.49474165 0.49968985 -0.83427244 0.053345438 0.0018000631 -0.0340482 -0.13986632 0.42349085

encoder.2.linear.bias f4 [32]
00000000: 93d1 63be 1485 843e d9a2 b83c f0ce 843e
00000010: f0d3 323e 3f94 62bd 9f75 643e 38ef 7bbd
00000020: 78a2 fb3d f7c3 c6bd 3e6c f13c aa5b 8cbd
00000030: 8ce5 16be a104 8abd f10b 0f3e 6094 08be
00000040: 7342 de3c f751 f0bd 1938 e73b 85d5 173e
00000050: bc54 f03d 7b28 333e 145b 66bd 6cd5 2dbe
00000060: aae2 823d 75c2 bb3d 83c3 1d3d 6500 db3d
00000070: 3e52 a43e 0fe0 293e f6d9 ab3d f41b 45be
-0.22247915 0.2588278 0.02253859 0.2593913 0.1746366 -0.05531716 0.22310494 -0.061507434
0.12286848 -0.09705346 0.02947056 -0.06853421 -0.14736003 -0.06739164 0.13969399 -0.1333785
0.027131295 -0.117343836 0.007056248 0.14827545 0.11734912 0.17495911 -0.056239203 -0.16975945
0.06390889 0.09167949 0.038516533 0.106934346 0.32093996 0.16589378 0.08391182 -0.19248945

encoder.3.linear.weight f4 [16, 32]
00000000: 094d a03e 253f 523e 0db4 0e3c 3119 043f
00000010: abb0 813e dc1f 143d 148d e5bc dfb9 163e
00000020: 4d9e a33e 4a81 4a3d 4f13 04be a0e5 3cbc
00000030: 6bb4 aa38 6833 c13e 33ab ad3e 2210 08bc
00000040: fcc4 7abc dd26 163d dbac 5cbd ee38 423e
00000050: 1eec 4bbe 75f2 653c 3991 223e 2e6f 173e
00000060: 888b e7bd 3789 573e 0186 a83c 2937 623e
00000070: 237e 5b3e 2ef8 393e a155 cc3d f17c 9ebe
00000080: f071 5fbc 9625 f93d b51b 243e d0cc 0a3c
00000090: 001e 60bd c10c dcbd 092f 93bd 1cd6 7e3d
000000a0: 0632 f83d 063f 01be b6ac 85bd 1876 283d
000000b0: 5667 c2bd 80da d2bc e0aa e13c 4014 693c
000000c0: dc55 c1bd 7008 02be 44fc 05be 6a71 69bd
000000d0: 6e4c 7c3d eeb4 09be 551c 0c3e 4068 6abb
000000e0: 706a 13be 852a 1e3e eacf ec3d b14e 32be
000000f0: cf96 14be ae3d 9e3d a7d8 1c3e 4262 4f3d
00000100: d57b 073e 4187 07be 360d a53d 4cc3 42bd
00000110: a16c ffbd 0357 173e 60bb 12be 60e2 693c
00000120: 7bea c6bd 2078 fc3c 8b6c 34be 11a1 95bd
00000130: 8269 21be 824a 973d 93a6 013e de00 b2bd
00000140: 004a 8f3c 0030 22b9 d962 223e 77ee 38be
00000150: 9046 983c c8a0 dc3d ce13 f43d 9a3f 993d
00000160: 5a67 d4bd 0fc9 883c 27d1 bdbd 5103 08be
00000170: 66e3 0f3d 5fe8 d23d 882a b83c e87d ecbc
00000180: bc81 8a3c 65ce 11be b142 bebd 1146 8ebd
00000190: 237e 18be bef4 8c3d 8aeb 8e3b 0ab8 993c
000001a0: c889 a5bd bb12 0d3e ea9e 953e 0872 48bd
000001b0: 4f0e 073e 6b5e febd f4c7 9b3d 2072 a93b
000001c0: cfc1 e73c 040c 38bc cce9 053e 5eb6 94be
000001d0: 24a4 7c3e 0e87 46be ac73 0c3d 786e a4bc
000001e0: 1446 54be 6bc6 0a3e 6cc0 6fbd 1365 c7be
000001f0: feb9 243e 7dbb 1dbe 46df c4b9 3b52 d03e
00000200: 28a6 cebd 0933 7fbd 1fd0 36bd f4e1 1fbd
00000210: 62d8 14bd 8232 373e 6122 4f3e f849 c0bc
00000220: 6aa0 1bbd 68cb 533d dfa3 f03e c4e7 dbbd
00000230: e44d 7e3d 082f 55be d667 163e 5048 30bd
00000240: 7ccd 2dbd 6e5b 0cbe 810b 343e 22b0 923e
00000250: 43e4 babe 13e3 acbe 2042 21bd 409a b03b
00000260: 25e9 963d db8b 2a3e 47f9 213d f4a0 1abd
00000270: c6a1 8d3e aba9 7fbd e49d a1bd b7fb 9abf
00000280: d24f e6bd 70e9 f5bd 75f7 213e 8017 3bbc
00000290: 884f 1abe 88df c2bd 4359 dfbd 78e6 b2bc
000002a0: 6206 2ebe 4237 a23d 58d7 a5bd 5216 e03d
000002b0: f723 f8bd 0613 923d 92dc d33d 8189 9bbd
000002c0: e428 823d cd38 2d3e 34c9 0abe 1955 c33d
000002d0: 5a08 91bd 8b13 03be 328e e93d 8a6b fcbd
000002e0: 407d ebbb 40d5 c0bc 982c 8bbc 7a7c 5fbd
000002f0: a38d 0abe cde2 15be 1af9 57bd 6420 7a3d
00000300: 31ce aa3e 6a83 073f 71dc 263c 1bb6 763e
00000310: cf19 80bd 31d8 04be 7152 1fbe 502c 2cbd
00000320: c378 91bd 7ccc d13d 6ab6 be3d 9206 8d3d
00000330: 3aa8 59bd 982f 8abe 85ab 5bbe 2aca a83d
00000340: 2b2a 0f3e 9146 8b3c 84e2 32be 2234 963e
00000350: 36fe 103f 2aaf a3bd 11bf 133e b937 a0be
00000360: d700 9ebd a473 6a3e a25b 1f3e 11c2 5abd
00000370: 8d15 3d3c a65d 9f3e 00a6 1b3d 1da6 a1bd
00000380: 31cc acbd 22fb 8abe efed 5abd c92b d1bc
00000390: 6fce 6fbd e270 dabd 0cb2 713e 2867 c63c
000003a0: 0364 f83d 885b 97bd 214f 07bf c2c5 0c3e
000003b0: a061 b2bd 0981 47bd d9e9 7a3e c4fb 623d
000003c0: c862 9cbd f22b 2e3e 8ce6 0dbd 4d57 3b3e
000003d0: 49ad 23bf 5f94 ffbc 78a5 6f3d b2bf adbe
000003e0: 1892 35be 0b67 df3d 5eeb 94bd 5513 a93d
000003f0: 2623 fd3d 0720 7dbe a892 f0bd 23dd 143f
0.31308773 0.205319 0.00870992 0.5160094 0.253301 0.036163196 -0.028021373 0.14719342
0.3195671 0.049439706 -0.1289799 -0.011529356 8.139837e-05 0.37734532 0.33919677 -0.008304628
-0.015305754 0.036658157 -0.053875785 0.1896703 -0.1991429 0.014034857 0.1587571 0.14788505
-0.1130591 0.21048437 0.02057171 0.22091354 0.21434836 0.1816108 0.0997727 -0.30954698
-0.013638005 0.12165372 0.16026194 0.008471683 -0.05471611 -0.1074462 -0.071867056 0.06221591
0.12118916 -0.12621698 -0.065270826 0.041128248 -0.09492366 -0.025738955 0.0275473 0.014226019
-0.094402045 -0.12698531 -0.13084513 -0.056992926 0.061596327 -0.13447925 0.13682683 -0.0035767704
-0.14396071 0.15445907 0.11563094 -0.17412831 -0.14510654 0.07726608 0.15317021 0.050630815
0.13230832 -0.13235189 0.080591604 -0.04754953 -0.12471891 0.14779286 -0.1432929 0.014275163
-0.09712692 0.030818999 -0.17619531 -0.073061116 -0.15762904 0.07387258 0.126612 -0.08691572
0.01749134 -0.00015467405 0.1585802 -0.18059717 0.018588334 0.10772854 0.1191784 0.07482834
-0.10371275 0.016697435 -0.09268408 -0.13282515 0.035128973 0.102982275 0.022481218 -0.02886863
0.016907565 -0.1423889 -0.09290064 -0.06946958 -0.14891867 0.06882618 0.0043615745 0.018764514
-0.0808292 0.13776676 0.29222804 -0.048936874 0.13189052 -0.124203525 0.076064974 0.0051710755
0.028290657 -0.0112333335 0.13077468 -0.29045385 0.2467199 -0.19387457 0.03429 -0.020072207
-0.20729858 0.13552253 -0.058533117 -0.389443 0.16086575 -0.15403552 -0.00037550385 0.40687737
-0.100902855 -0.06230453 -0.044632073 -0.039033845 -0.03633917 0.17890361 0.20227958 -0.023472771
-0.03799478 0.051707655 0.47000024 -0.10737565 0.062086 -0.20818722 0.14688048 -0.043037713
-0.042432293 -0.13706753 0.17582513 0.28650004 -0.36502275 -0.33766994 -0.039369702 0.005389482
0.073686875 0.16654913 0.03954437 -0.037751153 0.27662486 -0.062417667 -0.07891443 -1.2108067
-0.11245693 -0.12007415 0.15817054 -0.011419177 -0.15069401 -0.095152915 -0.10905697 -0.021838412
-0.16994622 0.07920696 -0.08097714 0.10941757 -0.12116235 0.07132535 0.10344805 -0.07594586
0.063554555 0.16916199 -0.13553315 0.095377155 -0.07081671 -0.12800424 0.11404075 -0.12325199
-0.007186562 -0.023539186 -0.016989037 -0.05456207 -0.13530593 -0.14637299 -0.052727796 0.061066046
0.33360437 0.52934897 0.010184393 0.24092905 -0.062549226 -0.12973095 -0.15558793 -0.042034447
-0.071031116 0.102440804 0.093121365 0.06886019 -0.05313895 -0.26989436 -0.21452148 0.08241685
0.1398093 0.017001422 -0.17469221 0.2933665 0.56637895 -0.07992394 0.14428355 -0.31292513
-0.07715004 0.22895676 0.15562299 -0.053407732 0.011540783 0.31126136 0.038000107 -0.07893012
-0.08437384 -0.27144724 -0.053449567 -0.025533574 -0.05854648 -0.10666062 0.23603076 0.02421911
0.12128451 -0.07390505 -0.52855116 0.13747314 -0.08710027 -0.048707042 0.24503268 0.055415884
-0.076360285 0.17008951 -0.034643695 0.18295021 -0.6393629 -0.031198679 0.058507413 -0.33935314
-0.17731512 0.10908326 -0.07271455 0.082556404 0.1236022 -0.24719249 -0.117467225 0.5814993

encoder.3.linear.bias f4 [16]
00000000: e099 9b3e a377 0fbe a9c2 47be 7fa5 dabc
00000010: 4e17 0fbd dae8 6fbe 01d2 ecbd 459b 7ebe
00000020: e846 1dbc 9583 86be 60d1 443e 434e 7c3e
00000030: 7557 603e 44b2 013d 834a 203e 8f9e 0cbe
0.30390835 -0.14010482 -0.1950785 -0.026690243 -0.034934334 -0.2342867 -0.115634926 -0.24863918
-0.009599425 -0.26272264 0.19220495 0.2463923 0.21908362 0.031664148 0.15653424 -0.1373236

encoder.4.linear.weight f4 [8, 16]
00000000: 2e27 643e 6ae5 633e bb30 183d 9074 71bf
00000010: 6dfa a03e b725 3cbe 9beb ac3e 1005 40bd
00000020: c0d4 dfbd 0e1e 533e 1fa3 673e 0993 693e
00000030: b826 e9be cd38 43bf 6363 8d3e fd3d 843e
00000040: bdff 39be 5755 26be f683 963d 9894 443f
00000050: ba15 cbbd c186 c83d 5d5a 553e 41ed 64bc
00000060: 236c 713e 022c e93e 0388 dd3e 3a62 0bbe
00000070: 629f 153f fc0e 013f 0406 5a3e 04fe b43e
00000080: 1970 763e ba86 253e 54d4 66be a99e 7b3e
00000090: 89e2 a5be 8854 61bd c3a6 1e3c 95bf c2be
000000a0: 96a9 07bf 5870 b33e 93a9 ddbd 9076 9c3e
000000b0: 0538 733e 7288 8d3e 9a9b a83e 9f2a 37be
000000c0: 969f 78be a86a 113e 1087 a1bd 485e ffbb
000000d0: 09a0 123e 6e1a 1d3e f0a6 68bd e056 2e3c
000000e0: 84a3 5dbe 793a aabd e15c dabd 58cb 653e
000000f0: ed34 ebbd 08d0 89bd c503 323e cf8b 00be
00000100: b965 8e3e ce16 013e 462e a1bc dd25 97be
00000110: 61da 47be a6a5 83bd e69e 23bf b852 0c3e
00000120: fdbc 0abf 22b2 a33d 2e83 9abc d34d 993e
00000130: 53ea 9a3e 5a17 db3e d036 63be 29cd 6a3b
00000140: 0c37 3d3e 74fc 123e 0c8b 443e 206f 2cbf
00000150: 0f81 043e d8c8 ab3d 979e 1dbf 9860 893c
00000160: ddbf cc3e 163a 86be b0e9 d83e cfd4 4c3e
00000170: 0726 b13e c801 a2be 5da4 fc3d 4383 d73d
00000180: 80f7 94be e8a8 16bd 1077 93bc c7e2 603e
00000190: 8031 953d 5c3a 45be 9649 733d 7067 ff3c
000001a0: 5bb7 ef3d 8b41 8b3d 22d7 99bd 3c91 df3c
000001b0: 461e 8bbc cf3c 24bd dc9d 153e 5233 adbd
000001c0: 5e7f 43be 0c7a ea3d f064 d33d 1408 e0bd
000001d0: a0e2 a8bd a051 33bd 14c8 2e3e 9a0d 2cbe
000001e0: 2a13 283e 062d 7fbe b9b1 5cba c971 32bd
000001f0: fa17 18be c12f 17be 701a 25bd edcf 5abe
0.22280571 0.22255483 0.037155848 -0.94318485 0.3144106 -0.18373762 0.33773503 -0.046879828
-0.10929251 0.20616934 0.2262082 0.22809996 -0.45537353 -0.76258546 0.2761489 0.25828543
-0.18163963 -0.16243492 0.07349388 0.76789236 -0.099162534 0.09791327 0.20835252 -0.013972581
0.23576407 0.45541388 0.4326783 -0.13611689 0.58446324 0.5041349 0.21291357 0.3535005
0.240662 0.16164675 -0.22541934 0.24572243 -0.32399395 -0.055012256 0.009683314 -0.3803679
-0.5299314 0.3504665 -0.10823359 0.30559206 0.23751839 0.27643162 0.32931215 -0.17887352
-0.24279627 0.14200842 -0.07887089 -0.0077932216 0.14318861 0.15342113 -0.05679983 0.01064083
-0.21644408 -0.08311934 -0.106622465 0.2244085 -0.11484704 -0.06729132 0.1738425 -0.12553333
0.27811983 0.12606356 -0.019675385 -0.29521075 -0.19516899 -0.06428079 -0.63914335 0.1370343
-0.54194623 0.079929605 -0.01886138 0.29942188 0.302569 0.42791253 -0.22188878 0.0035827851
0.1847803 0.14354116 0.19193667 -0.67357063 0.12939857 0.08387917 -0.61570114 0.016769692
0.3999013 -0.2621619 0.4236579 0.20003055 0.34599325 -0.31641984 0.12336037 0.10523083
-0.29095078 -0.036782175 -0.01800111 0.21961509 0.07284832 -0.19260544 0.05939635 0.031177253
0.11704894 0.06799611 -0.075117365 0.027290933 -0.016982209 -0.040097054 0.14611 -0.08457054
-0.19091555 0.1144906 0.10321987 -0.10939041 -0.0824635 -0.043779016 0.17068511 -0.16802064
0.1641356 -0.24919519 -0.0008418817 -0.043565545 -0.14852896 -0.1476431 -0.040308416 -0.2136838

encoder.4.linear.bias f4 [8]
00000000: 1910 2e3c 16cb c43d 7ad2 6e3e 7c0a 2cbd
00000010: 3835 b53e ef78 663e bab7 52be 3e14 1ebd
0.010623955 0.09609048 0.23322478 -0.042002186 0.35392165 0.2250707 -0.20577899 -0.038593523

decoder.0.linear.weight f4 [16, 8]
00000000: e891 213d cacb 013f d26f e8be 0b4b 4b3d
00000010: 5a92 b83e 5794 e73e 0a7c 8a3b daab 9abc
00000020: 75a7 bfbe 3b80 e5be 4d6c 763d a999 873e
00000030: 895e 4abe c0c8 54be a4fe 8dbd 3a71 093e
00000040: 9e72 52bd 5903 ad3d 7464 483c 0350 233e
00000050: 2eda 813e 489e c33e 6ae7 e53e 0011 b03d
00000060: 6818 b4bd b541 04be c97b 03be 1c45 bcbd
00000070: f298 eebd 66f0 513e 0088 2ebe 8e57 a0be
00000080: 8e1f e9be 78c0 813d 9d92 c2be 0029 d1bd
00000090: ddc5 eabe a3fb ab3d bc34 61be 8dda 853e
000000a0: 96f3 943e be7b 1a3e 45c9 f3bd 5227 e13d
000000b0: ecca 323d 849e c83c 7ffe 8e3e 500f c53d
000000c0: 8eb3 873d 673d 2cbe 9f77 66be 90fd 9f3c
000000d0: d80c 3e3d e568 6fbe 4834 dfbd 2952 8e3e
000000e0: 3df1 01bf 9a50 053f 170a 02bf df32 4b3d
000000f0: 0f2e c43d f01f 62be 61e9 55be 1901 f33d
00000100: 8abe 35bd 96c8 4abd 82e3 083f 4680 5c3e
00000110: 5903 dc3e d83f ebbd 2885 8d3e 48db 7f3d
00000120: b333 64be 9ee8 4c3f 5156 c03e 5a77 b13d
00000130: e9ce 1dbe b7d0 183d aa17 81be b8e3 02be
00000140: deda 94be 5ca8 3bbe df9b 053f d8e0 253d
00000150: 72f4 c03c bf11 b33e f04b 323e ecd5 babd
00000160: 81d6 f5bc 9abe 8d3e 9fc1 2bbe a697 8d3e
00000170: 3966 05bf 3529 b9be c37a 353e cb28 5f3e
00000180: 8634 49be 115a cf3c fd7d b1be e80c bcbd
00000190: 4123 98be 3c92 8e3d 3c76 00bd dd7e 9b3e
000001a0: f119 cd3e 03f4 1fbe 0f08 7f3e b078 703e
000001b0: 7ec7 413e 7469 873d 20cf 953d ddb1 99be
000001c0: 198d 003e 5b09 95bf d12e ea3e 0807 113e
000001d0: a25f 7c3d c83e f5be 148d ee3d 5680 6ebe
000001e0: 6572 033f 192f 00be 829f a03e 2052 a1bc
000001f0: eda7 82be f462 533e b6c0 b8be b23b 413e
0.039445788 0.5070158 -0.45397812 0.049632113 0.36049157 0.45230362 0.0042262124 -0.018880773
-0.37432447 -0.44824395 0.060161877 0.2648442 -0.19762625 -0.20779705 -0.069333345 0.13422099
-0.05137884 0.08447904 0.012230981 0.15948491 0.2536177 0.38206697 0.44903117 0.085969925
-0.087937176 -0.1291569 -0.12840189 -0.09192869 -0.11650266 0.20501861 -0.17044067 -0.313168
-0.45531887 0.063355386 -0.38002482 -0.10212898 -0.45854083 0.08397605 -0.21992773 0.26143304
0.2909209 0.15086266 -0.119036235 0.10993828 0.043650553 0.024489649 0.2792854 0.09622061
0.06626044 -0.16820298 -0.2250657 0.019530088 0.046398968 -0.23379858 -0.10898644 0.27797058
-0.50758725 0.52076113 -0.50796646 0.04960906 0.095790975 -0.22082496 -0.20889808 0.11865444
-0.044371165 -0.0495077 0.5347215 0.21533307 0.42971304 -0.114867866 0.27640653 0.062464982
-0.22285347 0.80042446 0.37565854 0.08665343 -0.15410961 0.03730842 -0.25213367 -0.1278218
-0.29073232 -0.18325943 0.52190965 0.04049763 0.02355406 0.34974477 0.1741178 -0.091228336
-0.03000951 0.2768448 -0.1677308 0.2765476 -0.52109104 -0.3616425 0.17722611 0.21792905
-0.19648942 0.025311502 -0.34666434 -0.09182149 -0.29714397 0.06961486 -0.031362757 0.30370227
0.40058854 -0.15620427 0.24905418 0.23483539 0.18923756 0.066119105 0.073148966 -0.3001851
0.12553824 -1.164348 0.45738843 0.14162838 0.06161464 -0.4789946 0.11648002 -0.23291144
0.5134643 -0.12517966 0.31371695 -0.01969248 -0.25518742 0.20643216 -0.36084527 0.18870428

decoder.0.linear.bias f4 [16]
00000000: 438e 543d 20ed 443e a524 a0be aa6c a2be
00000010: 7c9b edbe 1101 c53e e465 8cbd 3da9 433d
00000020: ce5b 293e 436f 403e e705 b63e dd3a 0a3f
00000030: 972f a7be a887 ccbc 5938 22bd b388 7abe
0.051893484 0.19231081 -0.31277958 -0.3172353 -0.46407688 0.38477376 -0.068553716 0.04776882
0.16538927 0.18792443 0.35551378 0.5399607 -0.32653496 -0.02496703 -0.03960452 -0.24466209

decoder.1.linear.weight f4 [32, 16]
00000000: a4ef 483e 6cb6 163e cc59 7a3d 50b3 b93d
00000010: e126 8c3e 3cc8 03be d3fe 29be b8b9 82be
00000020: c258 86bd 92eb 8ebd 6d20 97be 257e b6bc
00000030: e0f0 023d 2409 8d3e 614f ed3e b01f d53d
00000040: 2f02 983e eac7 16be 5981 193c 06e5 19be
00000050: 63b1 183f 12b9 633e c199 f03d 6e92 d5bd
00000060: effd 17bc d36e 7fbd 6f69 863d b61b 26be
00000070: ad31 01be 9097 9ebc d19f f63c d7dd a03e
00000080: 94c2 c5bd 9878 b1bd 0040 9a3a e4f1 a4bd
00000090: 18d2 513d fc05 d2bd 12f0 363e 8065 cc3b
000000a0: d23a 16be e8cb 0f3e 485e 413d be35 48be
000000b0: 4035 933b 28db 3cbd f6f9 26be 9025 993c
000000c0: 1734 e43e f682 5cbd ad68 0e3f 98c7 6fbd
000000d0: 0fe9 ab3e a446 90bd b034 68bd 0b6e f33e
000000e0: 639f 13bf f7af f63e 2ad6 53bf 9533 53bf
000000f0: 29b9 d53d 5404 c0be d88d 50be d57b 32be
00000100: e79b 2f3e fcce 89bd 2193 5ebe 806e b23b
00000110: 8a32 c43d 81cd 8f3e 015e 253d 7a1d 7b3e
00000120: 6c1e 473d ecb8 94be 60d7 eabd 8048 b7bc
00000130: aa67 66be c142 933d 95e5 9d3e b980 5e3e
00000140: 4386 0f3e 1575 2abe a78c 793e b090 a03d
00000150: 09b2 c23e 185b 2bbe a9f7 823e 010f 973e
00000160: 700e 563d a8cd 3abe 912f 803d d3a0 8ebe
00000170: 9a08 163e 30be ad3d 0bd0 a6be 546c bc3e
00000180: 33ec 07bf 2aa4 4ebe 0f4c 603e 24e5 353e
00000190: c948 23be c760 ffbe 0001 58be c552 8bbe
000001a0: 2f88 9b3e 7533 3abd 283a e43e 0777 a8be
000001b0: 3e06 05be a4d0 493e ec0d c93e 75d6 f43d
000001c0: 93bb 973e 5d36 d5bd db5b 57bd 982c 3a3e
000001d0: 51a0 4dbd f730 583e 72c5 743e 9b55 fdbd
000001e0: f387 40be d424 79be d585 85bb c313 74bd
000001f0: 890f 4e3e 168a 42be 8a8e 233f eaa8 cb3d
00000200: 643e 27be c026 bd3c 61df 533c 3c3b cd3d
00000210: a216 64be 5d26 2ebe 7802 093e 8409 c7bd
00000220: f626 f6bd 10f4 6d3d 0acc 9c3d 601d 243d
00000230: c21a 1d3e cbde f33d 0404 663d 4798 9fbe
00000240: fe03 0e3e 1491 e4bb d1b0 fd3d d2c3 07be
00000250: 00bc 01be b514 013e cd1e 1e3e 2560 0d3e
00000260: 6200 73be b274 303c 3ac7 17bd ef24 523e
00000270: 12ba 3abe ded8 22be 1ba0 cc3e c8e7 debd
00000280: 7ecd 2ebe 2b38 383e d3f2 69be 78a1 e3bd
00000290: 1cf2 debe fae0 ecbc 738c 723d 2854 56be
000002a0: a506 213c d958 9e3e e98b 8abe 6dcf b73e
000002b0: 4a18 45be f58c 233d 81f5 213d 2acf 8c3d
000002c0: 16b3 7c3b 509a 17be 8d2a b53e 1850 3f3d
000002d0: c24f df3d a7f5 1d3e 49d2 483c 92d0 6bbe
000002e0: fbf0 a8be 74d7 083f 4334 0cbe f7c0 d43c
000002f0: e547 723e b050 833c 05b7 373f 4fc4 823e
00000300: e280 4f3d 602c 28be eee2 d9bd 6c20 4d3e
00000310: f459 cebc fb85 913d 9f70 67be 5e3e 353e
00000320: 87fc 8dbe c703 823e bf86 053e bd76 9d3e
00000330: fcd0 333e 1c30 5bbb 1117 563e 4005 2cbc
00000340: 1e87 4b3c ff6f b43d 7d05 8ebe c0b6 99bd
00000350: 1ba7 053f 31b6 673e f746 ff3d 137c 853d
00000360: 2456 febd 371e d73e e65a bcbd 6bbb c9be
00000370: 864e 7c3d d89e 273e e617 d1bd 4c59 563e
00000380: e61b 76bd c403 963d 9c79 12be a8be 1fbe
00000390: 4427 5c3e 01eb 943d eabb 7e3e 6c9f 24be
000003a0: b1f5 a2bd eb41 3bbd 8840 46be e675 503e
000003b0: ec7b 33be 1bac bdbd 8e8f 6abe b3a7 0d3e
000003c0: 90b4 263e 3429 71be 5668 a43d 7c74 96bd
000003d0: bd92 4e3e 4169 383e 5096 193e a612 19be
000003e0: 795a 123e 124a 153c 01ea c03d 0baa a03c
000003f0: a18e 27bd 3bd1 163d c37c 3dbe 96c6 8abd
0.19622666 0.14718026 0.061120793 0.09067404 0.27373412 -0.12869352 -0.16601114 -0.25532317
-0.06559898 -0.06978525 -0.29516926 -0.022276947 0.031967998 0.27546036 0.46349624 0.104064345
0.29689166 -0.14724699 0.009369218 -0.15028772 0.5964567 0.22238567 0.11748076 -0.1042832
-0.009276851 -0.06236155 0.065630786 -0.16221508 -0.12616606 -0.01935938 0.030105503 0.3141925
-0.096562535 -0.086655796 0.0011768341 -0.080539495 0.05122575 -0.10255048 0.17865017 0.0062376857
-0.14670876 0.14042628 0.047209054 -0.19551751 0.004492432 -0.04610744 -0.1630629 0.018694669
0.4457099 -0.05383583 0.5562847 -0.058539957 0.33576247 -0.07044724 -0.05669087 0.47544894
-0.5766508 0.48181126 -0.82748663 -0.8250058 0.10435707 -0.37503302 -0.20366609 -0.1743005
0.17149316 -0.06728932 -0.21735813 0.0054453015 0.09579952 0.28086475 0.040372852 0.24522963
0.048612997 -0.29047334 -0.11466861 -0.022373438 -0.22500482 0.07190467 0.3083922 0.21728791
0.1401606 -0.16646226 0.24370061 0.07840097 0.38026455 -0.16733968 0.25579575 0.29503635
0.052259862 -0.18242514 0.062590726 -0.27857074 0.14651719 0.08483541 -0.325806 0.36801398
-0.53094786 -0.20179811 0.21904014 0.17763191 -0.15945734 -0.49878523 -0.21094131 -0.27211586
0.30377337 -0.04545923 0.4457562 -0.3290331 -0.12990662 0.19708496 0.39268434 0.11954967
0.29635295 -0.104107596 -0.052577835 0.18181074 -0.050201718 0.21112429 0.23903444 -0.123698436
-0.1880186 -0.24330455 -0.004074792 -0.05958916 0.20123114 -0.18997988 0.6388937 0.09944327
-0.16332394 0.023089767 0.012931676 0.10021064 -0.22274259 -0.17006822 0.13379848 -0.09718612
-0.1201915 0.058094084 0.07656105 0.040067077 0.15342239 0.11907729 0.056156173 -0.31170866
0.1386871 -0.0069753025 0.12387241 -0.13258293 -0.12669373 0.12605555 0.15441437 0.13806207
-0.23730615 0.01077001 -0.03705523 0.20521902 -0.18235043 -0.15903041 0.399659 -0.108840525
-0.17070577 0.17990176 -0.22846536 -0.11114782 -0.4354409 -0.028915871 0.059215974 -0.2093054
0.009828244 0.3092716 -0.27059868 0.3590044 -0.19247547 0.03992935 0.03954077 0.06875451
0.0038558892 -0.1480496 0.35384026 0.046707243 0.109038845 0.1542574 0.012257167 -0.23028782
-0.32996354 0.53453755 -0.13691811 0.025970919 0.23660238 0.016029686 0.7176364 0.25540397
0.05066002 -0.16423178 -0.106389865 0.20031899 -0.025189377 0.07105633 -0.22601555 0.17699572
-0.27731726 0.25393507 0.13039683 0.30754653 0.1756019 -0.0033445423 0.20907237 -0.010499299
0.012422351 0.08810424 -0.27738562 -0.0750556 0.5220811 0.22628094 0.12464707 0.06517806
-0.12418774 0.4201524 -0.09197025 -0.394008 0.061598323 0.16369188 -0.102096364 0.20932502
-0.0600852 0.07324937 -0.14304203 -0.15600073 0.21499354 0.07271386 0.24876371 -0.1607644
-0.07957018 -0.04571716 -0.19360554 0.20357475 -0.17527741 -0.09261342 -0.22906324 0.13833503
0.16279817 -0.23550874 0.08027713 -0.073464364 0.20173164 0.18008901 0.14998746 -0.1494852
0.14292325 0.009111898 0.09419633 0.019612333 -0.040907506 0.03682063 -0.18504624 -0.067761585

decoder.1.linear.bias f4 [32]
00000000: b513 0b3e 1e27 3cbe 14f2 f1bd c67a d8be
00000010: 1703 603e ac97 23be 53bb 22bf 6a68 543e
00000020: f8c5 96be 942a cb3e 5ec1 2a3e a281 f8bd
00000030: ad09 853e cf66 dfbd ecfa 25be 7432 77be
00000040: aa04 e63e 37d7 673e 288f 323e b85d fdbc
00000050: 4866 163f 9911 d2be 240c 823d 3f02 adbc
00000060: 806a e5be 42b9 92be 1978 6cbe d66b 013f
00000070: 10b5 a43e a046 993e 8f28 31be feea 3cbe
0.13581736 -0.18374297 -0.11813751 -0.4228117 0.21876179 -0.15975827 -0.63567084 0.20742956
-0.29447913 0.39680922 0.16675326 -0.121341005 0.25983945 -0.10908281 -0.16209 -0.2414034
0.44925433 0.22640692 0.17437422 -0.030928478 0.5874982 -0.4102905 0.06349972 -0.021119235
-0.44807816 -0.28656965 -0.23092689 0.5055517 0.3216939 0.29936695 -0.17300628 -0.18449017
