models/ipod_model_pdf.pt (torch, 120169 bytes, 20 tensors)

encoder.0.linear.weight f4 [128, 24]
000000 82 23 cf bd ee b6 ab 3c 9a 44 71 3e d1 87 cd be
       -0.101141945 0.020961251 0.23561326 -0.40142682
000010 b6 7f 86 3d 0c 29 a3 bd a9 94 bb 3e cf 09 8f be
       0.06567328 -0.079668134 0.36636856 -0.2793717
000020 86 9b 04 3e 93 2b 1b 3e 95 0f 83 bd 31 79 50 3d
       0.12949952 0.15153341 -0.063994564 0.050896827
000030 c8 90 a3 be 99 a8 0f 3d 9c 4a ec bd a5 a9 c7 3d
       -0.31946397 0.035072897 -0.11537668 0.09749154
000040 e0 8b 5c 3d 7a 42 a5 3a ba bd 78 3e 7c 20 14 be
       0.053844333 0.0012608313 0.24291125 -0.14465517
000050 0f e6 4e 3e 50 c3 b7 3c 30 ad ad 3d 83 79 ae bc
       0.20204948 0.022432 0.084802985 -0.021298176
000060 4e f6 05 bd 33 46 6e 3d 06 4b 3b be 23 e5 64 bd
       -0.032705598 0.058172416 -0.18290338 -0.055882584
000070 9d 80 8e 3d 3f 95 42 3e c1 58 8e 3e 72 48 43 3e
       0.06958125 0.19002245 0.2780209 0.19070604
000080 f5 e6 94 bd e4 bf 58 3d 36 d1 60 be ca 39 32 3e
       -0.07270614 0.052917376 -0.21954808 0.17404857
000090 4f ae b7 3d c4 57 56 3d 41 f0 1d be 04 ea 83 3d
       0.089687936 0.052329794 -0.15423681 0.06441119
0000a0 ce f5 06 3e cb b1 4d 3e 38 94 49 3d df d2 49 be
       0.13179705 0.20087354 0.049213618 -0.19709347
0000b0 9d 2b fa 3d 36 e8 7c 3e 7a a6 04 3e 20 13 3d 3e
       0.1221535 0.24697956 0.12954131 0.18464327
0000c0 87 e5 1e 3f 40 80 05 bf ba 33 09 3f 68 20 a3 3e
       0.6206898 -0.5214882 0.53594553 0.31860662
0000d0 1c 47 8e bb ab 00 b9 bf 5f 0f c5 be 22 0e b9 bd
       -0.004341973 -1.4453329 -0.3848829 -0.09035899
0000e0 26 30 da 3d a2 02 f3 3d 19 08 30 be 9c 6e dd 3c
       0.10653715 0.118657365 -0.17190589 0.027030282
0000f0 38 31 93 be eb d8 3b 3e f3 33 1a 3d 23 bc 3f be
       -0.28748488 0.18344466 0.0376472 -0.18724112
000100 3d 58 ea 3d 6e 0e 9f 3c d1 20 11 bd 7d d6 c3 bc
       0.11442611 0.01941606 -0.035431687 -0.023905987
000110 a2 70 a2 3d ac d6 d7 3d 69 37 06 bf cd 35 ae bd
       0.07931639 0.10538992 -0.524283 -0.085063554
000120 ea 9e 4a be 34 1a 06 bf 3c 39 90 3e 16 4c ad 3d
       -0.19787183 -0.5238373 0.28168666 0.08461778
000130 31 cd 99 bd 80 3c 2b 3e 70 39 a0 3e 58 b7 a4 3e
       -0.0750984 0.16722298 0.3129382 0.3217113
000140 e6 64 f5 3d 80 27 57 3e 47 f2 71 bd e4 cd 80 3d
       0.119821355 0.21011162 -0.059068944 0.062892705
000150 dc 7e c7 be 73 16 c1 be ea 37 0f 3e 11 6c 22 be
       -0.38963974 -0.3771244 0.13986173 -0.15861537
000160 02 6f aa bc 7c ef b3 bd 25 0a 88 3d 04 2c de bd
       -0.020804886 -0.087859124 0.0664256 -0.10848239
000170 d3 24 d3 bd 8c c9 f0 be fe 52 30 3e 7e 9e a8 be
       -0.10309758 -0.47028768 0.17219159 -0.3293342
000180 54 6c 79 3e d3 68 3f bf 2c 7d 0b bf c9 70 41 3e
       0.2435773 -0.74769324 -0.5448787 0.1889068
000190 6e 40 a7 3e 5c f8 cd 3e 18 bc fe 3d 52 44 c6 bd
       0.32666343 0.40228546 0.1243822 -0.09681
0001a0 2a 20 0b be af 21 11 3e 56 08 67 be 08 23 f4 bd
       -0.13586488 0.14173006 -0.22561774 -0.11920744
0001b0 07 ac b5 3e fc 18 83 bd 84 c4 6b bd da 45 d7 bd
       0.3548281 -0.0640125 -0.05756046 -0.1051137
0001c0 ca 72 fb 3d 2a 86 0d 3e d3 fc 85 3b a9 04 7f 3d
       0.12277754 0.13820711 0.004088977 0.062260304
0001d0 6a 6f da bd 73 13 41 3e 05 df ad be ad 8b 54 3e
       -0.10665782 0.18855076 -0.33959213 0.20756407
0001e0 82 42 2b be b2 58 f7 3e 5d a8 58 be 47 43 81 3e
       -0.1672459 0.48309857 -0.21157975 0.2524664
0001f0 2e f2 7a be a7 9b af 3f fc cb 38 be 99 e2 c4 be
       -0.24506447 1.3719376 -0.18046564 -0.3845413
000200 90 36 f6 3c 0a f2 5d bc 27 45 a6 3d 49 ec d7 bd
       0.030055314 -0.013546476 0.081186585 -0.10543115
000210 ab 31 d5 bd 13 44 0e 3e 49 ee 74 bd 02 d1 3a bd
       -0.10409864 0.13893156 -0.05979756 -0.04560948
000220 85 9b 81 3e cb 45 b4 3d 9c 0d 79 3e ca ad a1 3e
       0.25313964 0.088023745 0.24321598 0.31577903
000230 e4 32 1c 3d 10 5c 67 bd 06 57 77 3e 8d 25 48 3e
       0.03813447 -0.056484282 0.2415429 0.19545574
000240 69 dd 21 be 02 9f 2b be 3c 32 84 bc c3 35 36 bf
       -0.15807118 -0.16759875 -0.016137235 -0.71175784
000250 79 df 43 be cd d0 b0 bf 1d 83 93 be 48 c9 84 3e
       -0.19128217 -1.3813721 -0.2881097 0.25934815
000260 c3 d7 3c 3c 53 aa 64 3e 86 ae e6 bd 82 2a c6 bd
       0.011526051 0.22330599 -0.112637565 -0.096760765
000270 7d 91 16 3e e2 2d 31 3e 09 8a 80 bd 30 2b e8 bb
       0.14703937 0.17302659 -0.06276328 -0.0070852265
000280 e0 1d b4 3c de 27 90 bc 85 a3 54 bb 86 3a 0c be
       0.021986902 -0.017597135 -0.0032446098 -0.136942
000290 c5 5e 9b bd fe 43 34 bd 7a 88 07 3f a1 6c 3d be
       -0.07586435 -0.044010155 0.5294262 -0.1849847
0002a0 9d 45 e5 3e 9a 6c 98 be 18 af 04 3f e5 93 58 3e
       0.44779673 -0.29770356 0.5182967 0.21150167
0002b0 e6 04 52 3e dd 42 0a 3e 94 59 b1 bc 56 cd 9a 3e
       0.20509681 0.13502069 -0.02164916 0.30234784
0002c0 fe 59 7a 3e 7b bd c5 3d 9c d3 c8 bd ff 31 29 be
       0.24448392 0.09655281 -0.09805986 -0.16522978
0002d0 fb d6 8e bf 0d 09 5a be d3 54 58 be bb cc 9a bd
       -1.1159357 -0.21292515 -0.21126108 -0.075585805
0002e0 cd 68 2e bc e5 6f 3e be 59 a5 f4 bd 36 41 4f bd
       -0.010645104 -0.18597372 -0.119456 -0.0505993
0002f0 8b ab a5 bd da b4 96 3e dd a5 0f 3e a2 b3 19 3c
       -0.0808936 0.29434854 0.14028116 0.009381207
000300 41 05 cb bc 27 53 02 3e ce 7d 93 3e 35 e4 96 be
       -0.024782779 0.12727033 0.2880692 -0.29470983
000310 d5 c5 40 bd 66 4e 85 bd 9f ba 21 bb b3 5d d7 3d
       -0.047063667 -0.06509094 -0.0024677885 0.105159186
000320 f4 52 32 3d d5 33 ab 3e df 62 a0 be 19 48 86 bd
       0.04353614 0.33437982 -0.31325433 -0.0655672
000330 33 66 f2 3d a4 54 8b be 0e 30 94 3d 1b 8e 5e be
       0.11835899 -0.27213013 0.07235728 -0.21733896
000340 e7 57 be bd 5b dc 6a 3c 91 7a 29 be 34 1a 40 bd
       -0.0929411 0.014334763 -0.16550662 -0.04689999
000350 09 c8 21 be 2c 8f ac be ef 60 85 3e 76 8e 42 be
       -0.15798964 -0.3370298 0.26050517 -0.18999657
000360 f0 bb 17 be 79 47 4e bf 57 2c f6 3e 66 fb f4 bd
       -0.14817786 -0.8057781 0.48080704 -0.11962013
000370 58 c6 7f 3b 6f 1a b1 be 91 6b d2 3d bc b1 09 bd
       0.0039028134 -0.3459048 0.10274423 -0.033616766
000380 a8 fa 50 3d 06 f6 b4 3d 00 8b 72 3d 89 27 33 3e
       0.051020294 0.08835988 0.059214592 0.1749555
000390 ba 59 5b 3e 80 87 71 be 37 07 ba bd 0d 57 10 3c
       0.21420947 -0.23586845 -0.09083407 0.008809817
0003a0 c1 9a 2e 3d aa 3f 95 bd 20 1a 41 3d 03 62 e4 bd
       0.042628054 -0.072875336 0.047144055 -0.11151507
0003b0 6a a0 56 bd 49 95 bb 3e ad c8 9b 3d 6e 26 6f 3e
       -0.052399077 0.36637333 0.07606635 0.23354504
0003c0 9f 97 be 3d 41 b4 2a bf 1a 46 d2 bd 8e b2 db bd
       0.09306263 -0.66681296 -0.10267277 -0.10727416
0003d0 dc b3 2a 3e 1a 2a 3e be d0 f1 d4 3e f5 06 90 be
       0.16670173 -0.18570748 0.41590738 -0.28130308
0003e0 57 af 78 3d 65 7b 1f 3e ab e7 ce bd cb ff fd bd
       0.060714092 0.15574415 -0.10102781 -0.12402304
0003f0 92 0a fd 39 2c b5 73 be 83 6c c9 3c 0b da 3f 3e
       0.00048263796 -0.2379958 0.024587875 0.1873552

encoder.0.linear.bias f4 [128]
000000 61 d1 73 bd 14 46 7a be b6 60 16 3d 78 7c 10 3e
       -0.05952585 -0.24440795 0.036713324 0.14109981
000010 aa 33 72 3d 3d c8 a2 bd 4a 2c fe 3c 5c 17 d4 3e
       0.059131302 -0.07948349 0.031026978 0.41424072
000020 91 25 95 bc 90 be 66 be 6c d1 27 3d d8 43 78 3e
       -0.01820639 -0.22533631 0.040971205 0.2424463
000030 f6 83 8d 3e 57 3a fe 3d 71 a2 55 be 87 d3 34 be
       0.2763974 0.12413471 -0.20862748 -0.17658816
000040 76 22 b8 bd d6 b9 79 3d 30 43 22 3e e3 25 b1 bd
       -0.08990948 0.060968243 0.15845942 -0.086498044
000050 66 7d 4f be 26 95 00 be fc fa 87 3d 28 12 2c 3d
       -0.2026268 -0.12556896 0.06639668 0.042009503
000060 04 19 9d bc a5 01 50 bd ce 84 36 37 dc 8b 44 3d
       -0.019176967 -0.05078282 1.0878966e-05 0.047984943
000070 79 67 0a 3d 4c 3f 84 bb b8 10 b0 3c 1b fa 36 be
       0.033790085 -0.004035866 0.021492347 -0.17868845
000080 64 cc 92 bd e3 f2 00 be 19 21 89 be 80 9c 93 be
       -0.07167891 -0.12592654 -0.26783064 -0.28830338
000090 08 41 83 3d 8c f6 3a be 06 b1 16 3e 7b 34 91 be
       0.06408888 -0.18258113 0.14715967 -0.28360352
0000a0 66 f0 40 3d 8a c7 4c be 64 8b d4 bd 67 68 85 be
       0.04710426 -0.19997993 -0.10378149 -0.26056215
0000b0 2a b9 b6 3c 15 8a 6d 3d 4d 89 2b 3e 6c 85 ec bd
       0.02230509 0.057993013 0.16751595 -0.11548886
0000c0 08 13 0f be d6 2d 72 bc 40 b3 54 bd ec c2 d9 3d
       -0.13972104 -0.014781436 -0.05192876 0.106328815
0000d0 27 28 8b bd 17 cd 12 be 78 8f 28 3d 7c 01 25 be
       -0.06794768 -0.14336048 0.041152447 -0.16113847
0000e0 e4 90 1a be bd e5 b7 3c 45 cf 2c be d9 77 0f 3c
       -0.15094334 0.022448415 -0.16875942 0.008756601
0000f0 64 2a dc bc 9a bd 0f be a5 07 8e be 2f 0c 52 be
       -0.026875682 -0.14037171 -0.27740207 -0.2051246
000100 34 9b 75 3e 00 02 9b bc e0 ad 26 be 80 1b 4e be
       0.23984987 -0.018921852 -0.16277266 -0.20127678
000110 1e a5 03 3e 7f 80 53 be f4 d9 2e be c4 c3 8f bd
       0.12855956 -0.20654486 -0.1707533 -0.07019761
000120 59 30 c3 bd 1c b9 4b 3d b5 4b 66 be 91 75 a3 3e
       -0.09530706 0.04973708 -0.22489817 0.31925634
000130 a0 83 8f bd 16 a7 d7 3d 88 74 bc 3d e4 cc 0d 3e
       -0.07007527 0.10529916 0.09201914 0.13847691
000140 66 52 64 3c c8 ae 84 3d b7 33 33 3e ac 37 be 3c
       0.013935661 0.064786494 0.17500196 0.023219906
000150 4b 11 02 be 98 74 c6 bd 36 ca 9c bd ff 74 a9 bd
       -0.12701909 -0.09690207 -0.07655756 -0.08274268
000160 67 52 89 3e 52 53 3a 3e 9c aa 90 3e 68 b9 0c be
       0.2682068 0.18195847 0.28255165 -0.13742602
000170 e9 16 c0 bd 1c 9b 42 3e d5 68 7e 3a f3 d8 98 3e
       -0.0937937 0.19004482 0.0009704952 0.2985302
000180 50 f5 0a 3e 8f 67 ea bd bf a5 67 3c 0c 6c 9f bd
       0.13570142 -0.114455335 0.014138638 -0.0778428
000190 4d 1a 33 3d 28 27 41 3b 9b c3 8f 3d f4 9f 89 be
       0.043726254 0.0029472802 0.07019731 -0.26879847
0001a0 5a 3c 51 3e ae 7f 88 3e 72 92 02 3e 54 33 f8 3d
       0.20433179 0.26659912 0.12751177 0.12119165
0001b0 d5 64 ef bd 84 05 50 3d e2 31 ea bd 9b bc ab bd
       -0.11689154 0.05078651 -0.11435296 -0.08385583
0001c0 47 5f d4 bd 7a c6 48 be 71 39 8a be 40 1b ec bb
       -0.10369735 -0.19606963 -0.2699695 -0.007205397
0001d0 37 c0 4c bd b0 03 49 3c 73 be 87 bd 99 d7 e7 bd
       -0.049987998 0.012268946 -0.06628122 -0.11320419
0001e0 95 37 58 be ab 93 17 3e 94 2b c9 3d b8 8f 07 be
       -0.21114953 0.14802425 0.09822765 -0.13238418
0001f0 df 80 9e be 7d 7c 07 be 1d 6c 8e bc e6 40 d8 3d
       -0.30957696 -0.13231082 -0.017385537 0.105592534

encoder.1.linear.weight f4 [64, 128]
000000 6f 86 df bd c0 af 84 bc 08 bc ab 3d f7 d8 6e 3d
       -0.10914313 -0.016197085 0.083854735 0.058312383
000010 ff 24 3a bf b5 e9 c2 bd 74 be d0 be 0f 80 88 3e
       -0.727127 -0.09517232 -0.40770304 0.266602
000020 64 59 ee bd 46 79 44 bd 7b 03 44 3e e8 4f 39 3f
       -0.11638144 -0.047967218 0.19141953 0.7238755
000030 36 f2 bf 3d 3c 27 79 3e ee 6a eb 3d 43 7f c9 3d
       0.0937237 0.24331373 0.114950046 0.09838726
000040 0d 71 88 be 17 0f 9d 3d 63 bb 6d 3d e3 b3 02 3e
       -0.2664875 0.07668894 0.058040034 0.12763934
000050 ce 50 29 bb 43 d2 ff 3b fa f6 44 be 85 5f cf 3d
       -0.0025835517 0.0078070476 -0.19234839 0.10125641
000060 68 9d 50 bd 92 f3 d3 3e c4 fe 4b bd 01 6b f2 be
       -0.050931364 0.41396767 -0.04980351 -0.47347263
000070 8b b8 7a 3d 89 c3 b7 3d 95 29 15 bd 4a 0d 73 3c
       0.06121115 0.08972842 -0.03641661 0.014834711
000080 19 92 23 3e 23 ed 1b be 12 28 e2 be fe 52 99 3d
       0.159737 -0.15227179 -0.44171196 0.07486533
000090 d5 d4 c0 be 37 8d a5 3d 27 38 e8 3d 30 5d 42 bd
       -0.37662378 0.08083575 0.11338835 -0.04745215
0000a0 21 4a cd 3d 77 08 67 3d 63 6f 61 bf d7 bc f7 3d
       0.100239046 0.056404557 -0.8806059 0.12096565
0000b0 8b 66 f9 bd e5 8f bf 3d 16 6d 37 bf 96 80 ec bd
       -0.12177762 0.093536176 -0.71650827 -0.11547963
0000c0 c3 77 8b 3e 07 f4 98 3d e5 76 b5 be 31 69 b9 3e
       0.27239808 0.074684195 -0.35442272 0.36213067
0000d0 f8 44 fa bd 33 5a 63 3d f4 b1 79 be 60 c5 87 bb
       -0.12220186 0.055505943 -0.2438429 -0.004143402
0000e0 19 52 af 3d 8c de 00 3e 7e 1c 87 bd 66 e6 e1 3e
       0.08560581 0.12584895 -0.06597231 0.44121093
0000f0 3f 5b b9 3c 64 31 ba 3d f4 58 77 3e c1 e4 94 bf
       0.022626517 0.09091452 0.24155027 -1.163231
000100 b6 93 59 bf 96 8b 03 3d 7b 64 62 bd 29 e6 28 bb
       -0.84991014 0.03211554 -0.055271607 -0.0025771952
000110 61 ab 6e be 1b a5 48 3d 81 ff 55 3e 51 00 28 bf
       -0.23307563 0.04898558 0.20898248 -0.6562548
000120 8b 69 3d bd 0f 97 f7 3e bf 65 64 bd f7 fd e3 be
       -0.04624323 0.48357436 -0.055761095 -0.44529697
000130 50 76 a1 3e c6 29 67 be bd 75 00 be 8c 42 54 be
       0.31535578 -0.22574529 -0.12544914 -0.2072851
000140 83 95 74 3e d7 b4 d6 bd c3 e1 c1 3e 43 e4 ec be
       0.23885159 -0.10483711 0.37867555 -0.462679
000150 60 41 c0 bc 9f 49 19 3c 85 ca 92 3d e6 92 e5 3b
       -0.023468673 0.009355932 0.07167534 0.007006037
000160 9c 04 13 be 74 f0 a4 3c 5a 61 a3 be 15 2b e4 3d
       -0.14357227 0.020134188 -0.3191021 0.1114103
000170 3e 16 0c 3f 8e dd fc 3d ec 19 25 3a 7f 9a c9 be
       0.5472144 0.12346946 0.0006298113 -0.39375684
000180 86 81 63 be 33 fa e8 3d 32 f6 f1 3d b2 75 80 bd
       -0.22217378 0.11375847 0.11814536 -0.062724486
000190 12 9e 4e be 51 ef b4 3d 08 13 44 be cc ea 16 bf
       -0.20177487 0.088347085 -0.19147885 -0.5895202
0001a0 6a f1 71 bf 8d c3 30 be 92 65 18 3d ef 51 14 3f
       -0.94508994 -0.17262097 0.03720624 0.5793752
0001b0 93 40 dd 3c 89 d0 f4 bc 2e fc fd 3c cf 57 1b bf
       0.02700833 -0.029884594 0.031004038 -0.6068086
0001c0 6d 68 fe bc a3 33 8f be e4 73 f8 3d 15 a0 9c bd
       -0.031055653 -0.27969083 0.121314794 -0.07647721
0001d0 03 b8 1e be 15 14 05 3f fb c4 b1 be c8 b4 1b bd
       -0.15499882 0.5198377 -0.34720597 -0.038014203
0001e0 7e a5 0c 3e 59 5d 35 3e 09 e5 0e 3d 37 bb 07 bd
       0.13735005 0.1771139 0.034886394 -0.033137526
0001f0 56 6b aa bf 04 ee 5d 3e 59 86 19 be 1c 5f d1 be
       -1.3314006 0.21672827 -0.14992656 -0.40892875
000200 11 0e c3 bd 33 8c d8 3c 28 7b a7 3c e1 b7 52 3c
       -0.09524167 0.02643404 0.020444468 0.012861223
000210 c9 fe 4d bd 9c 32 67 3d f0 5d 32 3b 2e 7a 1b bc
       -0.05029181 0.05644475 0.0027216636 -0.009489579
000220 e1 fe 90 bd b5 da b4 3c 03 cf 54 bc 51 55 39 bd
       -0.07079864 0.022076944 -0.012988809 -0.04524738
000230 33 59 c2 bd 60 e4 62 3d 5a 67 2a bd 79 ff ad bd
       -0.0948967 0.055393577 -0.04160247 -0.08495993
000240 86 65 9e bd 83 53 dc 3c 9b a4 86 bd 8e 7d ae bd
       -0.07734208 0.02689529 -0.06574365 -0.085200414
000250 12 28 ae 3c 9e f4 94 bd 91 aa e1 bd f0 c4 4f 3c
       0.021259341 -0.072732195 -0.11018861 0.012681231
000260 56 c0 36 bd 92 be 49 3d 99 da 43 bd 8b 92 b8 bd
       -0.04461702 0.049254008 -0.047815893 -0.09012326
000270 c4 c2 b1 3c 75 8c 38 bd 76 4b 4f bc 4d 6e 67 bd
       0.021699317 -0.045055825 -0.012652269 -0.056501675
000280 61 e5 6f bd 56 a5 9b bd b1 7b 7c bd d8 15 87 bb
       -0.058568362 -0.07599895 -0.0616414 -0.004122477
000290 01 ae 37 bd c2 48 88 bd 94 9b b8 bd a2 0a 02 bd
       -0.044843677 -0.066545025 -0.09014049 -0.03174842
0002a0 63 b3 40 bd ed 31 d9 bc 40 90 49 bb 80 81 11 ba
       -0.047046077 -0.026513064 -0.0030756146 -0.0005550608
0002b0 eb cc 92 3c 4a 50 1c 3d 73 bf 16 bd 2e d8 8b 3c
       0.017919978 0.038162507 -0.036803674 0.017070856
0002c0 8b 3f 64 bd 81 d7 de bd 1e 85 98 bd 1e 6d 6c bd
       -0.05572466 -0.10880948 -0.07447265 -0.05772125
0002d0 50 8a 6d ba f4 7b a8 bd 65 e2 37 bd ba 06 69 3d
       -0.00090614427 -0.08226767 -0.04489364 0.05689118
0002e0 a0 58 ee 3c e7 11 c8 bd 07 76 28 3c b4 55 da bd
       0.029094994 -0.097690396 0.010282046 -0.10660878
0002f0 9b 0b 83 3d a6 5a 77 3d 88 87 bc 3c 3d 5d 4c bd
       0.06398698 0.060389183 0.023013845 -0.049893606
000300 e2 4e a9 3c a2 a1 0e bd e9 ab 8c bd 19 e2 89 3d
       0.020667497 -0.034822114 -0.06868727 0.06732578
000310 06 76 07 3d a1 33 0a 3b 88 de 63 3d f0 d8 6c bc
       0.03307154 0.0021087902 0.055632144 -0.014456019
000320 54 73 0a 3d 5b 4b 19 bd 08 49 22 3d 1a 4c 95 3c
       0.03380139 -0.03742538 0.03962043 0.018224765
000330 17 f1 7e bd aa 05 29 bd de f0 24 bd ed 7d c6 3c
       -0.06224164 -0.041265167 -0.04026877 0.024229968
000340 2c a1 81 bd bf 4d a2 3c b2 74 01 bc 06 68 44 3d
       -0.06329569 0.019812463 -0.0079013575 0.047950767
000350 12 a8 78 bd 0d 63 90 bd e2 87 53 3d 58 13 a8 bd
       -0.06070716 -0.070501424 0.05164326 -0.082068145
000360 58 e3 80 bd 28 ad cd bc 38 15 f8 bc e8 d9 2b 3d
       -0.062933624 -0.025106981 -0.030283555 0.04195586
000370 70 a0 9c 3d a6 b6 c1 bc d7 82 e7 bd 34 bd aa bc
       0.076477885 -0.023646664 -0.113042526 -0.020842172
000380 4d 1c 5b bd 7f 25 bb bd e1 e7 a2 3d 92 bf 76 bc
       -0.053493787 -0.09138011 0.07954384 -0.015060322
000390 a0 64 74 bb fa b1 e8 3c be 4b 71 bd b2 f6 15 bd
       -0.0037291422 0.028405178 -0.058910124 -0.03661222
0003a0 e8 55 c7 bd 6f 40 cb 3c 33 e7 a8 bd ba 6a 1a 3c
       -0.09733182 0.024810998 -0.08247223 0.00942486
0003b0 a0 c3 85 bd f3 6c 55 bd a8 af 64 bc 0c 0d 75 bd
       -0.06531453 -0.052105855 -0.013957895 -0.059826896
0003c0 5a 5c ac 3c da 86 4d 3d 32 29 7d bb b9 56 b4 3d
       0.02104013 0.050177433 -0.003862929 0.088056035
0003d0 4a 56 cb bc 76 dd b1 bd a7 38 91 3d 24 5d f1 3c
       -0.02482142 -0.086848184 0.07090884 0.029463358
0003e0 42 df 87 bd 30 12 85 3d c8 5a 10 3d bd 6c a8 3d
       -0.0663438 0.064976096 0.035242826 0.08223865
0003f0 fe 87 60 3d 1e 29 6d bd 79 35 a2 bd f4 1e e9 bc
       0.054817192 -0.05790054 -0.07920355 -0.028457142

encoder.1.linear.bias f4 [64]
000000 71 8e 64 bd a2 7c a2 3a 01 86 57 bd 6e d3 09 3d
       -0.055799905 0.0012396763 -0.05261803 0.0336489
000010 6c 6d aa 3d 49 7f e8 3d 36 ad 31 3d 10 1a 7d 3d
       0.08321652 0.11352403 0.043378077 0.061792433
000020 73 37 a2 bd 03 74 a6 bd c6 bf c8 3d 2f cb a7 3d
       -0.07920732 -0.08127596 0.09802203 0.08193051
000030 f8 d3 94 ba 1b 99 01 be 29 db e7 bc 1e ed fa bd
       -0.0011354676 -0.12656061 -0.028302746 -0.12252258
000040 71 ea da bc 04 e3 21 bd d2 58 30 bd 9a ff 8e bd
       -0.026723118 -0.03952314 -0.043053456 -0.06982346
000050 83 f0 f4 3b d0 69 4d 3d 1d 26 55 bc de 53 3a 3e
       0.0074749603 0.05014974 -0.013009575 0.18196055
000060 bc 95 a0 bd 49 8f 48 bd d4 04 d5 3d c5 48 20 3d
       -0.078410596 -0.048964772 0.104013115 0.0391319
000070 5e 7f 88 3c 4d 31 4e 3d ff b6 51 3d 81 76 40 bd
       0.016662296 0.050339986 0.05119991 -0.046988014
000080 84 39 81 3c 71 8d 08 3b 33 62 fd 3d fc 21 9f bd
       0.015774496 0.0020836259 0.12372246 -0.07770154
000090 26 59 47 3d 46 55 28 3b e5 c5 6f 3d 3b 14 1e 3e
       0.048669003 0.0025685593 0.058538336 0.15437405
0000a0 8b 50 2f 3e ff a7 f7 3d 5d 0d 22 bd 69 4b f6 3c
       0.17120568 0.120925896 -0.039563525 0.030065255
0000b0 3a 5f da 3d b2 4b 96 3d 47 db 7f bd ab 3e 97 bd
       0.10662694 0.073386565 -0.06246498 -0.07385
0000c0 54 9e da bb 97 28 ab bd 8d 59 df 3c ba 45 4e bc
       -0.006671706 -0.08357351 0.02726438 -0.012589866
0000d0 0b e4 d0 3d 5d 71 28 3d c3 e5 db 3c 69 05 d9 3d
       0.10199746 0.041123737 0.026842957 0.10596735
0000e0 cc 33 ac bd fa a1 25 bd c5 43 20 bd c1 26 26 bd
       -0.08408317 -0.040437676 -0.03912713 -0.040564302
0000f0 b9 4e bd bc 3a 11 bc 3d 84 bd 1c 3d e7 c0 28 3e
       -0.023108827 0.09182973 0.038266674 0.16479836

encoder.2.linear.weight f4 [32, 64]
000000 ce 3c 01 be f8 3d 1e bd 20 d1 c1 3b 80 0e d9 bd
       -0.12620851 -0.038633317 0.005914822 -0.10598469
000010 c6 87 ea 3c e7 39 e9 bd 08 57 64 bd 11 9f d1 3b
       0.028629195 -0.11387997 -0.055747062 0.006397136
000020 f8 8a de 3d b0 b9 62 3c fd c1 07 be e3 a3 48 bc
       0.1086635 0.013838217 -0.13257594 -0.012246105
000030 d8 26 d9 bc 58 6a 3c bd 5c 86 e4 bc fc c2 98 bd
       -0.02650778 -0.045999855 -0.027896099 -0.07459065
000040 f5 3d ab bd 89 35 e3 bd 00 b7 d6 bc d4 c2 c0 bd
       -0.08361427 -0.110941954 -0.026210308 -0.094121605
000050 cc f5 42 bd f0 f3 ab bc d2 d2 10 bc 01 b3 ec bd
       -0.04759769 -0.020990342 -0.008839326 -0.1155758
000060 90 0b 39 3d 84 ae 04 bd 14 f2 e9 3c 19 7e 8a bd
       0.045177042 -0.032392994 0.028557815 -0.067623325
000070 ee cd ae bd ae 99 b3 bd f6 74 36 be 52 03 35 bd
       -0.08535372 -0.087695464 -0.17818055 -0.04419262
000080 33 d4 d1 3c 01 a1 dd 3c 59 a3 18 be a0 87 87 bd
       0.02561388 0.027054312 -0.14906062 -0.06617665
000090 12 ed 22 be 28 ac bb bc a6 e8 36 3d 87 72 bc 3d
       -0.15910748 -0.022909239 0.044655465 0.09201532
0000a0 5d 3c f2 ba 92 7d 12 3d a5 1a 8f bd bb 3e 43 3c
       -0.0018481124 0.035764284 -0.06987504 0.011916812
0000b0 4e 3a 93 bd 07 d0 ec 3c 20 ee 48 3c 48 04 91 bc
       -0.07188855 0.028907789 0.012263805 -0.017702237
0000c0 94 33 87 bd 20 d2 a0 bd ae a2 d7 3d 60 8b ed bd
       -0.066016346 -0.07852578 0.105290756 -0.11598849
0000d0 27 cf 26 be 6b d5 00 be 9f dd 08 bd 4c 20 01 3d
       -0.1628996 -0.12581412 -0.03341448 0.03152494
0000e0 d4 bd 43 bd 70 e1 ea bd 08 57 d5 bc ec 32 45 3d
       -0.047788456 -0.1146878 -0.026042476 0.048144266
0000f0 78 ea 9f bc d5 0a 71 bd 44 22 69 bd aa c9 f9 bc
       -0.019520983 -0.05884822 -0.056917444 -0.030491669
000100 eb af c9 3d 52 9f 94 bd 06 0c 0d 3d 37 24 c2 3e
       0.09848007 -0.072569504 0.034435295 0.37918255
000110 80 fd df 3d 3a 45 b8 3d 01 e5 cf be 9b 89 41 bd
       0.10937023 0.08997579 -0.40604404 -0.04725037
000120 90 8c 53 3d f5 d4 84 bc 3e 2e b3 3d 78 65 b0 3d
       0.051647723 -0.016214827 0.08749054 0.08613104
000130 4b 0b aa bd de fb 60 bd bc dc 8b 3e 00 44 42 bd
       -0.08302935 -0.0549277 0.27316844 -0.04742813
000140 db 48 42 3d 98 10 c3 3d 73 74 98 3b 93 a4 86 3e
       0.04743276 0.095246494 0.0046525537 0.26297435
000150 48 8f d3 3d 68 0c c1 be 77 6d 30 3c 68 7a 89 3d
       0.10330063 -0.37704778 0.010768286 0.067128
000160 71 4e b9 bb 58 0f ce bc f0 25 d0 3d de 3a 8e 3e
       -0.005655103 -0.0251538 0.10163486 0.27779287
000170 51 45 ed bd 34 4c 95 3d fd 17 12 3e 2a ef ab 3c
       -0.11585487 0.07289925 0.14266963 0.020988066
000180 c2 7e 8b bd a6 95 22 3e 47 4e e0 bd 82 14 52 bd
       -0.068112865 0.15877399 -0.1095243 -0.05128909
000190 1e 11 85 3e 92 47 ee 3e 66 53 ca bd 7c c6 0b bd
       0.25989622 0.4653898 -0.09879188 -0.034124836
0001a0 72 95 ed 3d 3b d7 83 bc b5 ce 23 be 8b 98 95 3e
       0.1160077 -0.01609384 -0.15996821 0.29217944
0001b0 78 e8 9d 3d 8f 36 8b 3e 66 e7 f7 bd 8c 9f aa 3d
       0.077103555 0.27190062 -0.121046826 0.083312124
0001c0 1c 89 c2 bd 2f 17 c1 3d 66 27 1a 3d e6 71 40 3b
       -0.09498808 0.0942825 0.03763523 0.0029364764
0001d0 0d c5 4b 3e 3a 48 a7 bd d2 9c 9e 3d de bd 1c 3e
       0.19899388 -0.08168073 0.07744755 0.15306804
0001e0 c7 9d 52 3e 52 69 f0 bd 60 97 28 bd ec 3f 7d 3d
       0.20568 -0.11738838 -0.041159987 0.06182854
0001f0 d0 88 b6 3d a9 9d 2c bc f8 52 21 3d 6d bc d0 3e
       0.08912814 -0.010535636 0.039385766 0.40768757
000200 0e 5f e3 3d 9e 2f cb bd 4a 5e d8 bd 66 5c 75 bb
       0.111021146 -0.09921192 -0.10564859 -0.0037439107
000210 28 88 c2 bd 53 c2 07 be db 9b 0f bd 8b 3e 6b bd
       -0.09498626 -0.13257723 -0.035060745 -0.057432692
000220 b8 4e ec bc ab c6 b2 3d e8 6d 81 3d 40 16 ab bd
       -0.02884613 0.08729299 0.06319791 -0.08353853
000230 12 b2 3f bd 00 77 dc bb 38 e8 8b 3d 6c 71 83 3d
       -0.04680068 -0.006728053 0.068314016 0.06418118
000240 94 91 6c 3d 65 5f 71 3d c2 a6 6a bc 9e 01 35 bd
       0.05775602 0.058928866 -0.014321985 -0.044190995
000250 80 46 f6 bc 16 50 b7 bd 1e 02 8e bd 50 41 b2 bd
       -0.030062914 -0.08950822 -0.069339976 -0.087038636
000260 ea a4 c0 bd 1e c2 6c 3d df b6 49 ba eb 56 69 3b
       -0.09406455 0.057802312 -0.00076947914 0.0035604786
000270 a1 9b 28 3d 0f ef 8f 3d 30 fc 89 3d 1f c8 8b bb
       0.041164044 0.07028019 0.06737554 -0.0042657997
000280 fe 5d ab bd 7f 03 7a bd b3 8e e0 bd b0 f3 11 bc
       -0.08367537 -0.06103849 -0.10964718 -0.008908197
000290 15 17 09 bd 48 19 1e 3d 89 2d 3a 3d 46 45 bd bd
       -0.03346928 0.03859833 0.045453582 -0.092417285
0002a0 f9 02 05 3d 25 26 0e be 7a c6 9d bd 37 39 d7 3d
       0.032473538 -0.13881738 -0.07703872 0.1050896
0002b0 02 4a f9 39 50 e1 00 be 76 01 b0 3d 59 e7 c2 3d
       0.0004754812 -0.1258595 0.08594029 0.09516782
0002c0 cc 5a a4 bd 22 c6 9d 3d 75 03 b9 3d 0c 68 36 3d
       -0.08025131 0.077038065 0.090338625 0.04453282
0002d0 92 50 e6 bd 54 89 d9 3c be 3d 0c be 6c 94 b4 3d
       -0.11245836 0.026554741 -0.13695428 0.08817372
0002e0 35 5f c3 ba 38 f0 2b 3d 28 d1 1c 3d 32 d6 cc 3d
       -0.0014905693 0.041977137 0.038285404 0.10001792
0002f0 91 83 68 3b 42 e7 62 3d a4 c7 65 3d 44 48 6d 3d
       0.003547881 0.055396326 0.056098595 0.057930246
000300 e8 8e b5 bd 88 e0 21 bd 72 ad db bd b6 24 92 3e
       -0.08865148 -0.03952077 -0.107264414 0.28543633
000310 fe fe 00 bf ca f2 3a 3e 6e 16 cf bc 9a be b6 3d
       -0.5038909 0.18256679 -0.02527925 0.08923073
000320 44 4b 4c 3d 53 bc 94 bb e9 a8 56 be 04 09 83 3d
       0.049876466 -0.0045390516 -0.20962872 0.06398204
000330 46 df 4f 3d 83 69 2f bd 7e 61 3d 3e 70 d1 af bd
       0.05075004 -0.042825233 0.18494222 -0.08584869
000340 15 9f 8d be bd b1 ca 3d 67 54 24 3d 55 0e 7b 3d
       -0.27660432 0.09897182 0.040119555 0.061292965
000350 ad c0 51 bd 70 a7 de 3d e6 8b 73 3e 28 dc 67 bd
       -0.05120914 0.1087178 0.23783836 -0.05660644
000360 47 de 56 3d ef b1 ea bd 3c c3 89 3e 7e 76 c6 bd
       0.052458074 -0.114597194 0.26906765 -0.09690569
000370 46 d9 e4 bd 58 05 ab bc 87 46 95 be 77 ca 01 3e
       -0.11174254 -0.020876572 -0.2915537 0.1267489
000380 9f bb 40 3e 0c 5b 8b be b8 4a b8 be 95 69 e6 bd
       0.18821572 -0.272179 -0.35994506 -0.11250607
000390 7d 67 2e 3e 8e b9 ba bd cc 84 55 3e 4b ec 34 3d
       0.17031665 -0.09117423 0.20851439 0.04417066
0003a0 5c 72 0d 3e 17 26 85 3e be 1e ae 3e 42 40 41 3e
       0.13813156 0.26005623 0.3400783 0.18872169
0003b0 c0 f8 a9 be 67 a6 61 be f3 30 b7 bd d0 ac 98 3c
       -0.33197594 -0.22036134 -0.08944883 0.01863709
0003c0 c5 0f 02 3e fb 74 41 3d 1f f7 89 bd dc d9 fa bd
       0.12701328 0.047230702 -0.06736588 -0.12248585
0003d0 03 4c 71 be de 3b 00 bd 41 bd dd 3d 94 f0 dd bd
       -0.23564152 -0.031307094 0.10827113 -0.10836902
0003e0 ba 3a 10 3e ac e6 ab 3d 70 c7 8c bd 71 33 c5 bd
       0.14084902 0.083936065 -0.06873977 -0.09628952
0003f0 ce 67 cc 3d aa 36 48 3e 44 1a a3 3d 7f 36 3b bc
       0.09980737 0.19552103 0.07963994 -0.011426567

encoder.2.linear.bias f4 [32]
000000 d6 51 ac bd e9 5f 48 3d b7 0d 28 bc 0d a3 9b bd
       -0.084140465 0.048919592 -0.010257176 -0.07599459
000010 05 fb 21 3e a5 a1 0a bd 0a b2 57 3e 32 78 a0 bb
       0.15818413 -0.033845562 0.2106401 -0.004897141
000020 a1 c2 be 3c f6 37 5b 3e a2 9f 65 be b6 4d 4a 3e
       0.023286166 0.21408066 -0.22424176 0.19756207
000030 d2 c0 73 bd e4 61 32 3e f8 d8 99 bd dc 84 11 3e
       -0.05951006 0.17420155 -0.07512087 0.14210838
000040 9b 9a 30 3e 3a cf 52 bc 1d b5 a4 3d 39 aa 66 bd
       0.17246477 -0.0128667895 0.08042357 -0.05631468
000050 ee d2 a8 bc 84 94 a2 3e ad d7 57 3d 1c 7f 09 3e
       -0.020608392 0.31753933 0.05269592 0.13427395
000060 31 64 75 3d 19 59 0b be a7 e0 02 3e 19 93 8d 3d
       0.059910003 -0.13608207 0.1278101 0.06912822
000070 03 27 da bd c4 91 32 be 9a 7a 35 bd f9 c7 0f bc
       -0.10651972 -0.17438418 -0.044306375 -0.008775705

encoder.3.linear.weight f4 [16, 32]
000000 0a c7 06 3e 77 09 92 3e f4 5c 0e 3d de 8d 17 3c
       0.13161865 0.28522846 0.034756616 0.009250132
000010 c7 6a 81 3d c3 37 ad 3d 5d dd 96 3d 63 db 15 3e
       0.06319194 0.08457901 0.073664404 0.1463447
000020 30 0d af be d0 3e 0c 3e dd 15 c3 be f1 9e a0 be
       -0.3418975 0.13695836 -0.38102618 -0.31371263
000030 d5 65 a9 bb ca 3e 33 3e b2 dd 84 3e b5 a2 30 be
       -0.00516961 0.17504421 0.2595039 -0.17249568
000040 80 d7 61 bc 85 10 04 3d ce fb 46 bb c3 5f 8b bd
       -0.013784289 0.032242317 -0.003036249 -0.068053745
000050 6f 7a 1d 3e 7c b8 66 3d aa 38 0a b8 54 50 9f 3e
       0.15378736 0.05632828 -3.2954536e-05 0.31115973
000060 d6 ac 65 3e e2 0e 6e bd 92 5c 63 be 39 07 69 3c
       0.22429213 -0.058119662 -0.22203282 0.014222913
000070 4e 5f 1a be 15 3b 1b be 20 16 38 be 99 81 ee bc
       -0.15075418 -0.15159257 -0.1797719 -0.029114531
000080 5a b8 66 bd 1d a1 9a bd 5b ce e7 bd b8 4d 5c 3e
       -0.056328155 -0.07550261 -0.11318656 0.21514022
000090 35 00 16 3e 97 04 90 bd db 83 28 be 12 e4 16 3e
       0.14648516 -0.070321254 -0.16456549 0.1473544
0000a0 aa 40 aa be d3 ba f5 bd 57 2c 9c 3b 55 5a 20 3f
       -0.3325246 -0.119985245 0.004766028 0.62637836
0000b0 73 75 f0 bd 42 bc 51 3e fb fe f2 3e 54 70 2d 3f
       -0.11741152 0.20481971 0.4746016 0.67749524
0000c0 19 e6 06 3e 84 f6 23 3e 43 2e b2 3e 50 3a d2 bd
       0.13173713 0.16012007 0.3480092 -0.102650285
0000d0 b0 bf bf 3c 1d 96 a7 3d d3 06 96 3d 06 14 ab bb
       0.023406833 0.08182929 0.0732552 -0.005220893
0000e0 4a fb 42 3e 09 42 64 bd e1 35 3d bc b3 5a ab 3e
       0.19041172 -0.05572704 -0.01154849 0.33467636
0000f0 0c 24 96 3e 05 65 a2 3d 35 79 02 3e aa c2 2a be
       0.29324377 0.07929424 0.1274155 -0.16675821
000100 d1 99 38 3e 02 99 6d be 9f 0f 04 be cd c4 c8 3e
       0.18027426 -0.23202899 -0.12896584 0.39212647
000110 cc 53 3e 3d 0a 13 09 be f3 a6 89 bd 26 30 1f be
       0.046466634 -0.13386169 -0.06721296 -0.15545711
000120 91 0d 2c 3e 6b c9 1d be 7c 49 3b 3f ed 55 07 3f
       0.1680205 -0.15408866 0.73159003 0.5286549
000130 83 81 7e 3d 83 ed 29 3e cd 90 86 3e 21 92 a4 3e
       0.06213523 0.1659451 0.2628235 0.32142738
000140 a7 b7 4c 3e cc da d8 3d b4 39 12 3f 4e ef a8 3a
       0.19991933 0.10588607 0.571193 0.0012888701
000150 72 f7 7e 3d 77 00 43 3a f7 e4 0d 3e a0 d9 ab bd
       0.0622477 0.0007438729 0.13856874 -0.08391118
000160 a1 82 af bd 41 42 0b be 77 a4 63 3e a4 a3 d2 3c
       -0.08569837 -0.13599493 0.22230707 0.025712796
000170 d9 23 83 3e 82 76 7e 3d 78 d5 2d 3f 23 bc bd bd
       0.25613287 0.062124737 0.6790385 -0.092644
000180 00 75 f2 3d 21 f5 f7 be 7f b5 f2 3d 33 55 e5 3d
       0.11838722 -0.48429206 0.11851024 0.11197891
000190 b4 04 2e be 52 a6 27 3e e7 cc fa be 2a f3 1c be
       -0.16993982 0.1637204 -0.48984453 -0.15327135
0001a0 5d 11 1e 3e 8e 50 26 be a4 75 04 3f 7a e7 a5 3d
       0.15436311 -0.16241667 0.51742005 0.08100791
0001b0 ca ef 9a be d9 80 f3 be 84 26 38 3d 9d 33 63 be
       -0.3026107 -0.4755924 0.044958606 -0.22187658
0001c0 80 52 1d be 29 8d 72 be 76 32 88 3e bd 28 72 3d
       -0.15363503 -0.23686661 0.26601 0.059120882
0001d0 9f c5 d1 bd f3 e4 da bd 1b 45 c9 bd a6 c9 1b bf
       -0.10242771 -0.106882 -0.09827634 -0.60854566
0001e0 0a 73 ea 3c 9e 85 e6 bb c1 a9 a2 3d 9b 55 3f 3e
       0.028619308 -0.0070349714 0.07942534 0.18685
0001f0 51 8c 2a 3c f5 48 8b bd b2 9c 8c 3e a4 ca 0f be
       0.010409431 -0.06801025 0.274633 -0.14042145
000200 8a 13 f6 3a 6a 7a 6e 3d de ab de 3d 82 97 80 3e
       0.0018774134 0.058222212 0.10872625 0.2511559
000210 af b6 25 3e 08 85 76 bd ff e5 0f 3f 90 37 95 3b
       0.1618297 -0.060185462 0.5621032 0.0045537427
000220 62 8b 01 bf b7 18 8e bd 12 36 60 be af 74 ae be
       -0.50603306 -0.06938308 -0.21895626 -0.34073398
000230 15 d3 a4 3d 1a 67 bc bd 9d 14 87 3e 72 45 87 3d
       0.08048073 -0.091993526 0.26382914 0.066050425
000240 24 7d 16 be 54 dc 73 be 78 26 a3 3d 29 c5 15 bd
       -0.14696175 -0.23814517 0.07966322 -0.03656498
000250 82 9c 94 3e 33 d8 0b bd e8 ad d0 3c dd aa 1b 3e
       0.29025656 -0.03414173 0.02547355 0.15201898
000260 59 27 4d 3b 2a dc 08 3e 6b f9 e7 be 39 06 9c 3e
       0.003130397 0.13365236 -0.45307478 0.30473498
000270 a3 02 1f bd 55 58 05 3e d0 9e 75 bd 92 b2 95 3d
       -0.038820874 0.13021977 -0.05996591 0.0730945
000280 84 28 18 be 20 82 d6 3d fd c9 e8 3d 69 e3 ba bd
       -0.14859205 0.10474038 0.11366651 -0.09125406
000290 f8 be df 3e 29 c7 d8 3e 59 46 7d bd 57 ed d6 3e
       0.43700385 0.42339447 -0.061834667 0.4197795
0002a0 2e 90 39 3e 39 aa c2 3e b6 cf 34 3e 0f ca b2 3e
       0.18121406 0.38020495 0.1765736 0.34919783
0002b0 2f 56 f4 3e d4 42 cb 3e ac 79 b8 bd ea 22 f8 3d
       0.47722003 0.39699423 -0.09007582 0.12116034
0002c0 b7 77 93 3e 87 7c 9d 3e 0a dd 4e be 93 35 76 3d
       0.28802273 0.3075907 -0.20201507 0.060109686
0002d0 b4 be 8e 3e d6 b2 9d 3d 88 eb 84 3e 4f af 3c 3e
       0.2787987 0.07700126 0.25960946 0.1842625
0002e0 82 df 0c 3e a6 9e df bc 76 5e 45 3e c9 c3 54 3e
       0.13757136 -0.02729733 0.19274315 0.20777811
0002f0 79 18 5b 3d 95 c6 8d bd 18 66 7a bc ef 8a 9a 3c
       0.053490136 -0.06922642 -0.01528313 0.018865077
000300 75 74 f2 bd e6 16 b9 bd 71 3f 11 be 9b 15 88 3e
       -0.11838619 -0.09037571 -0.14184357 0.26578984
000310 83 8a 0b 3e 49 f8 8a bd ba 41 79 be c0 95 3a 3e
       0.13627057 -0.06785638 -0.24341479 0.18221188
000320 e4 df 86 3d 35 be 1f be a2 1b f0 3e 65 28 7b 3e
       0.065856725 -0.15599902 0.46896082 0.24527128
000330 a7 b7 8b bd e6 0f b5 3d 55 e7 b0 3e 5f 3e 8b 3e
       -0.06822138 0.08840923 0.34551492 0.27196023
000340 5b 5c d1 bd 6b b4 fc 3c 2f ad a2 3e 8a c1 83 3d
       -0.102226935 0.030847749 0.31772754 0.06433399
000350 9b 98 38 3e 17 60 1a be 6d 62 1c be 20 ce 82 3d
       0.18026964 -0.15075718 -0.15271921 0.063869715
000360 a7 4b 00 3c 76 38 70 3d 2d 0e 17 bd 9a 35 84 3e
       0.007830537 0.058647595 -0.036878753 0.25822145
000370 c5 22 e2 3d 7d 3c 16 be 2b a6 f4 3e 5b e3 45 bd
       0.11041788 -0.14671512 0.47783026 -0.048312526
000380 fc a9 8c 3b 5a 49 d6 bb 6f 81 0b 3e 43 02 91 3e
       0.0042927247 -0.006539506 0.13623594 0.28322038
000390 54 e0 8a 3d 3d dc 59 be 3f bd 70 3e 87 b7 49 bd
       0.067810684 -0.2127542 0.23509692 -0.04924729
0003a0 d9 29 14 3e 9f 16 1b be a0 fb c1 3e e0 7b 46 3e
       0.14469089 -0.15145348 0.37887287 0.19383192
0003b0 ab dd 38 be 83 f7 56 be 41 2e b4 3b ec 6e 71 3e
       -0.1805331 -0.20992856 0.005498678 0.2357747
0003c0 c1 98 7a 3c c8 ef 97 bd 2c 56 bd 3e 10 0d f5 3c
       0.015295208 -0.074187815 0.36979806 0.029913455
0003d0 af 21 1d 3e 92 67 10 be 24 f4 27 be ea cb 38 be
       0.1534488 -0.14102009 -0.16401726 -0.18046537
0003e0 f0 ca f0 bd 6a 28 09 be 3f 2a 83 3d 7c 02 2f be
       -0.11757457 -0.13394323 0.06404542 -0.17090791
0003f0 04 45 b9 3e 2a 2a 50 3d a1 0d 3d 3e 8c f4 19 bd
       0.36185467 0.05082146 0.1846223 -0.037586734

encoder.3.linear.bias f4 [16]
000000 46 27 ac 3d e8 75 30 bc 04 65 bf 3d 46 a8 98 bd
       0.08405928 -0.010770299 0.09345439 -0.074539706
000010 7d 65 91 3e d5 38 85 bc a4 94 c2 bb 92 d3 70 3e
       0.28397742 -0.016262451 -0.0059381295 0.23518208
000020 d9 2b ba bd 77 2c 58 3e be c9 c3 bd 2a 4e d5 bd
       -0.090903945 0.21110712 -0.09559964 -0.10415299
000030 52 df 16 3d b7 08 1f be 58 72 96 3c 76 5a 5f 3e
       0.03683407 -0.15530668 0.01836507 0.21811852

encoder.4.linear.weight f4 [8, 16]
000000 ed 55 11 3e 5a 61 a6 3e c9 47 75 bd 59 5f 2a 3d
       0.14192934 0.32496148 -0.059882913 0.041594837
000010 e2 40 26 bd 72 47 91 3e 7f d0 6b 3e fc 13 97 be
       -0.04058922 0.2837482 0.23028754 -0.29507434
000020 22 58 29 3d 38 fc ab be 39 2a 83 bd dc 39 cb 3e
       0.041343816 -0.33590865 -0.06404538 0.3969258
000030 cc 13 9d 3e 9a e0 ed 3d 8a 70 83 3e 30 ff a3 3d
       0.30679166 0.11615105 0.25671798 0.080076575
000040 40 02 61 3d 08 fd 13 bd 16 f0 5c be d0 b7 6e 3e
       0.054933786 -0.03612998 -0.2157596 0.23312306
000050 50 22 18 be 16 46 34 be 8a e2 2c 3e 08 2f 85 3d
       -0.14856839 -0.1760486 0.16883293 0.06503111
000060 10 90 0c bd 5c d4 67 be a0 fb ca bc 50 2a 23 3e
       -0.034317076 -0.22639602 -0.024778187 0.1593411
000070 94 b8 0b be 18 21 22 bd 4e 35 1a be 20 28 83 bc
       -0.1364463 -0.039582342 -0.15059397 -0.016010344
000080 7a 17 aa 3d 90 0b 20 be 60 15 ef bd 4c da 04 bc
       0.08305259 -0.1562941 -0.11673999 -0.008108687
000090 46 6a 5b 3e 7a 1a b3 3e 57 17 72 be 8a b9 d2 be
       0.21427259 0.34981138 -0.23641716 -0.4115718
0000a0 00 e3 20 bd 05 ba 8d 3d 07 35 2c 3e 23 f8 10 3e
       -0.039278984 0.06920246 0.16817103 0.14157157
0000b0 ec 3b 9e bb 9e 45 25 be 09 23 10 3e 02 8c 78 3e
       -0.0048289206 -0.16139838 0.14075865 0.24272159
0000c0 6b f4 00 bf cb 9a 94 3e 59 65 67 3e 46 fc 49 3e
       -0.5037295 0.29024348 0.22597255 0.19725141
0000d0 33 ae ca be 43 13 de 3e e8 e4 76 3e a1 19 41 bd
       -0.39586028 0.4337407 0.24110758 -0.047143582
0000e0 90 16 25 be 0c f2 97 3e 51 06 fc 3e ce 6d a0 bc
       -0.16121888 0.29676855 0.4922357 -0.019583609
0000f0 16 98 5d 3c 52 08 04 3d ab ce 5c 3e ed 0e bf 3d
       0.01352503 0.032234497 0.21563213 0.09329019
000100 17 15 97 be 58 2b 03 3d 75 7c 8e 3e 9a 57 8f 3e
       -0.29508278 0.032023758 0.27829328 0.27996522
000110 7a 44 6a 3e 2d d8 fb bd 8b 2f 58 3e ed 9f 12 3f
       0.22877684 -0.12297092 0.21111886 0.5727528
000120 3f 77 0a be f0 be 4d bd 43 f6 7c be cf d8 05 3e
       -0.13522051 -0.05023092 -0.24703316 0.13070987
000130 fb 19 42 3e 86 4d 03 be e3 e0 86 3e 82 41 ae 3e
       0.18955223 -0.12822542 0.2634345 0.34034353
000140 9e b0 9b 3e 70 d0 79 3e bd f8 6b bd e2 21 11 3d
       0.30408186 0.24395919 -0.057610262 0.035432704
000150 98 42 e0 3e 92 66 1d be d7 c4 88 3e 1f 3e d2 3d
       0.43800807 -0.15371159 0.26712677 0.10265755
000160 c0 a8 26 3c 80 de 25 3e fc 59 44 3e ed 94 a7 3e
       0.010172069 0.16198158 0.19174951 0.3273081
000170 00 e5 2c be 73 03 ce 3d af d4 9d be a7 b1 1d be
       -0.16884232 0.10059252 -0.30826327 -0.153998
000180 f0 99 1a bd cc 81 96 3d 9f 43 52 bc ea 7c e3 3d
       -0.037744462 0.073489755 -0.012833505 0.1110781
000190 13 78 10 3e 19 8e 67 be 9b 5e e9 bd 41 45 4d 3d
       0.14108305 -0.226128 -0.11394998 0.050114874
0001a0 21 32 69 3d 03 6e 78 be 7b 20 6b be 85 76 6e be
       0.056932572 -0.24260716 -0.22961609 -0.23287399
0001b0 98 a6 3b be 6a 25 9e 3d 47 83 75 bd b3 60 68 3d
       -0.18325269 0.0772198 -0.05993965 0.056732845
0001c0 49 fa 2a bf 4b 63 3b be 24 7b 9b 3d f5 54 f8 3e
       -0.66788155 -0.18299596 0.075918466 0.48502317
0001d0 1e 39 63 3e 22 42 00 bf 26 a5 6b 3e e3 b5 8b 3e
       0.22189757 -0.5010091 0.23012218 0.27287206
0001e0 34 83 56 3e 29 db bd be f9 61 d1 3e f5 fc 26 3e
       0.20948488 -0.37081268 0.4089506 0.16307433
0001f0 30 c3 91 be 37 c7 2e be 0f 3e 4f 3e 03 07 91 3e
       -0.2846923 -0.17068182 0.20238517 0.28325662

encoder.4.linear.bias f4 [8]
000000 7a 0e 80 3e 40 9e e5 3c 0e 40 2d bd d8 da 1d 3e
       0.25011045 0.028029561 -0.042297415 0.15415514
000010 99 f7 3c 3e 2b d1 50 3e fd a0 13 3e ab 6b 4a be
       0.18453826 0.20392291 0.14416881 -0.19767635

decoder.0.linear.weight f4 [16, 8]
000000 39 55 d9 3e c4 86 91 3d d6 d9 fd 3e 92 0a 75 be
       0.42447832 0.07105783 0.49580258 -0.23929814
000010 be 8a 7e be 50 fa bb 3d 9c fd 26 3e 5a 10 9a 3c
       -0.24857613 0.09178603 0.16307682 0.018806625
000020 90 64 0b bd 84 ff 97 3d 3c 38 b2 3e c7 5e 0a 3d
       -0.03403145 0.074217826 0.34808528 0.033781793
000030 1b c8 db 3c a4 46 a2 3e d2 90 76 ba ef 1c 5e bf
       0.026828816 0.3169452 -0.0009405735 -0.867629
000040 bb f5 0c 3e 8e 62 78 3e 63 86 ab 3e 35 03 b5 3e
       0.13765614 0.24256346 0.33500966 0.3535401
000050 9c 79 5c be 44 7a 53 3e fe 68 48 3e 59 3b 4e be
       -0.21530765 0.2065211 0.19571301 -0.20139827
000060 e9 b5 8f be f8 06 a4 3d e9 29 2c be 64 69 8b be
       -0.28068474 0.08009142 -0.16812862 -0.27228844
000070 5f 54 d0 be d0 bf 7a bd 96 b8 8d be e1 8b 8c 3d
       -0.4068937 -0.061218083 -0.2767989 0.06862617
000080 d9 91 fe 3c 28 b6 73 3d 5a a5 02 3f e2 ad a1 bb
       0.031075405 0.05949989 0.51033556 -0.0049340585
000090 55 46 5a be a1 8f 94 be bd c6 4f be 01 a6 56 3e
       -0.21315892 -0.2901583 -0.20290656 0.20961763
0000a0 2e aa 9c 3d e0 ef a3 bd d3 d0 56 be 5f ec b3 3e
       0.07649647 -0.08004737 -0.20978098 0.35141274
0000b0 f3 3e a8 3e ae 2b e1 bd 2c 40 29 bd 34 5b 04 3f
       0.32860526 -0.10994659 -0.041320965 0.51701665
0000c0 0f 8f f0 3e e1 b1 95 3e 6d 57 cf be a7 05 56 be
       0.46984145 0.29237273 -0.40496388 -0.20900594
0000d0 17 a4 d0 3e 09 43 f8 3e 9c 8f b3 3e 3e 82 77 be
       0.4075019 0.48488644 0.35070503 -0.24170777
0000e0 96 d6 b0 be 80 23 bb bb 53 33 77 3d a6 74 00 bf
       -0.34538716 -0.005711019 0.06035168 -0.5017799
0000f0 db 02 58 3e 09 e2 18 3f 60 7b 18 bd 52 98 2d be
       0.2109484 0.597199 -0.037227035 -0.16952637
000100 e8 fb 05 bd 5c ec c1 3d 70 78 b8 bd 44 a1 7c be
       -0.03271094 0.0946891 -0.09007347 -0.24670893
000110 8a 22 15 be 53 30 99 be 16 27 b0 be 8e 1e 3a 3e
       -0.14563957 -0.2991968 -0.3440482 0.18175718
000120 d3 25 05 be 74 27 22 be f7 20 91 be 20 24 7f be
       -0.1300271 -0.15835363 -0.28345463 -0.24916124
000130 c4 73 c2 3e 18 eb b2 3e bc 95 03 be 24 10 d6 3e
       0.37978947 0.34944987 -0.12850088 0.4180919
000140 e7 3e eb be 90 12 47 bd 27 ed 6b 3e fd 22 b8 3e
       -0.45946428 -0.048601687 0.23039685 0.35964194
000150 50 11 3e bd d4 ba 4c 3f d0 cc 45 bd f8 94 11 bd
       -0.04640323 0.7997258 -0.048291028 -0.03554246
000160 89 1b 2b bf 29 8b ab be 9c 9e a0 3e 01 f8 cc 3e
       -0.6683889 -0.33504608 0.3137101 0.40032962
000170 62 8e 18 be 6e dd 84 3e 7b 94 a2 3e 6f d7 b3 3e
       -0.14898065 0.25950187 0.31753907 0.351253
000180 73 48 0a be e0 d8 b3 bc 72 8b db 3e f2 7b 1c bd
       -0.135042 -0.021954 0.42879826 -0.03820414
000190 84 65 87 be 33 5b 0c 3e fe e0 63 3e 1f 39 81 be
       -0.26444638 0.13706665 0.22253796 -0.25238892
0001a0 88 e0 53 3d 7a 25 24 3e 7d 81 20 be 10 3a 81 3c
       0.0517278 0.16029921 -0.15674396 0.015774757
0001b0 66 41 19 be 00 c8 6e bb a0 20 8b be 60 14 c2 bd
       -0.14966354 -0.0036435127 -0.27173328 -0.094765425
0001c0 9d 00 94 3e 8c 0e c0 bd 9a 23 87 bd 0d 6a 97 3e
       0.28906718 -0.093777746 -0.06598587 0.29573098
0001d0 fe b7 48 3e 89 18 de be e2 ca 8a be 9d e6 85 be
       0.19601437 -0.43378094 -0.27107912 -0.26152506
0001e0 3d f4 02 be f0 95 d9 3d 53 59 f9 be fc 1e 6b 3e
       -0.12788482 0.106243014 -0.4870096 0.22961038
0001f0 a4 d4 83 3d ad c6 4b 3e 0a a5 58 3e 4f b3 f8 be
       0.06437042 0.19900008 0.21156707 -0.48574302

decoder.0.linear.bias f4 [16]
000000 71 20 d3 3d 27 25 9f be d1 d0 44 bf bb cc bd 3d
       0.10308922 -0.31083032 -0.7688113 0.09267565
000010 26 80 07 bf 46 d3 30 3e dc d4 e4 bd df 62 db 3c
       -0.52929914 0.17268094 -0.11173412 0.026780544
000020 00 10 6b bc a2 81 55 3e 6e 24 ee 3e 14 ca c1 3d
       -0.014347076 0.20850232 0.4651217 0.094623715
000030 02 c8 a6 3e e2 6a 44 be b8 b3 04 be 14 9a 50 be
       0.3257447 -0.19181398 -0.12959182 -0.20371276

decoder.1.linear.weight f4 [32, 16]
000000 93 4b 2f 3e 4b 19 b7 bd 66 f4 3b 3e 48 46 42 3e
       0.17118673 -0.08940371 0.1835495 0.18972123
000010 b3 8c 0c be 78 1f 70 be d7 bb 0c bf 1f 24 8d bd
       -0.13725547 -0.23449504 -0.5497412 -0.06891655
000020 be db 4c 3e f5 c6 28 be 1a 7d c0 3e 6d 42 e0 3e
       0.200057 -0.16482146 0.37595445 0.4380068
000030 f4 a0 06 3f c0 97 de bb 05 48 05 be 58 71 9a be
       0.52589345 -0.0067929924 -0.13015755 -0.301646
000040 74 6f 5b 3e 41 b7 c8 3d cd 3e 9e bd 64 21 02 3e
       0.21429235 0.09800578 -0.07726822 0.1270805
000050 4d 18 8c 3e 85 72 f5 3d 91 97 91 3e 5c 99 74 be
       0.2736229 0.119847335 0.28435948 -0.23886627
000060 f0 4f 59 be 13 37 14 3e 17 6f 74 bb c0 79 fd bd
       -0.212219 0.14474134 -0.003729766 -0.123767376
000070 c1 03 c7 bb 90 11 e7 3c ec f4 1f be 91 36 6f 3e
       -0.0060734455 0.028206617 -0.15620774 0.23360659
000080 3c a6 06 be 7d 2f 61 bd 6b 5a d2 be 11 62 cb 3d
       -0.13149351 -0.05497693 -0.41084608 0.09930814
000090 f9 ec 14 3f c0 ad 34 3e 33 6b 11 bd 19 af 9b 3e
       0.5817409 0.17644405 -0.035502624 0.30407026
0000a0 cc bf d7 3d 62 b5 10 3f 80 8a 9b 3e e7 91 9b 3e
       0.10534629 0.5652677 0.30379105 0.30384752
0000b0 ee ff a3 3e 42 70 28 3e 19 98 8a be fd 7a 95 bc
       0.32031196 0.16449073 -0.27069166 -0.018247122
0000c0 3f e7 1a be 3c 0c 46 be e2 a6 91 be 0b 64 f3 bc
       -0.15127276 -0.19340605 -0.28447634 -0.02971079
0000d0 68 6c 2c 3e e1 c7 8e 3e 9a c1 2b be 99 60 56 be
       0.16838229 0.2788687 -0.16773072 -0.20935287
0000e0 dc 34 06 3e f8 43 05 be 84 a6 87 3e 74 03 2e 3e
       0.13106102 -0.1301421 0.2649423 0.16993505
0000f0 ec c1 e1 bd 2c f7 e5 3d cb 6c b1 3e d2 6f 3c 3e
       -0.11023316 0.11228785 0.34653315 0.18402031
000100 02 77 04 3f 79 14 fd 3d 69 a0 a7 3d 28 74 31 3d
       0.5174409 0.123574205 0.08184893 0.043323666
000110 5b bc b2 3d 3d 8c d7 be 04 d7 33 be 6f 8d 93 3e
       0.08727332 -0.4209918 -0.1756249 0.28818843
000120 00 e2 29 bc c5 da c6 3e 09 32 8c 3e fe d3 cd be
       -0.010368824 0.38838783 0.27381924 -0.402008
000130 30 0e 3f 3e 70 82 ca 3d 0a e1 10 bf 6d 4f ea bd
       0.18657756 0.0988816 -0.5659338 -0.114409305
000140 cd 6d 0c 3e 6a 87 dd bd 79 b4 92 3d 40 36 95 bc
       0.1371376 -0.10816844 0.07163329 -0.018214345
000150 ec 74 19 bf bc c5 ca 3d 19 11 d4 3d 2d c2 04 bf
       -0.59944034 0.09900996 0.103548236 -0.5185879
000160 a0 11 aa bc 98 c4 3f be c7 a3 01 be e4 97 9b be
       -0.020760357 -0.18727338 -0.12660132 -0.3038932
000170 aa 0f 9a 3b 00 25 b4 bb c4 e7 de bd e3 d8 3e be
       0.0047015743 -0.005497575 -0.108840495 -0.18637423
000180 8a c6 22 3e 39 4a 62 3d 68 c1 9d be 6a 5e b7 3d
       0.15896049 0.055246565 -0.3081162 0.08953555
000190 b6 cc 6b be d5 41 d2 bd 72 bc d0 3e 5a 31 61 3d
       -0.2302731 -0.10266463 0.40768772 0.054978706
0001a0 c0 41 39 be d5 89 4b 3e 29 75 bc be 8d c6 c6 bd
       -0.18091488 0.19876797 -0.36808136 -0.09705839
0001b0 0b b8 4f be 08 91 38 3d ba 65 39 3e aa 29 03 be
       -0.2028505 0.045060188 0.18105212 -0.12808862
0001c0 46 8d 04 be b8 bc d0 3d 8e a9 76 be 98 3f 17 be
       -0.12944517 0.10192245 -0.24088117 -0.14770353
0001d0 80 06 f5 3d f4 a9 0f be d8 66 25 be 3c e1 56 3e
       0.119641304 -0.14029676 -0.16152513 0.20984358
0001e0 fa 42 7e be 20 6d dd bd 86 df 5f be 86 4a 6d be
       -0.24830237 -0.108118296 -0.21862611 -0.2317296
0001f0 b0 64 88 bd 28 49 fb bd fc c3 64 3e 40 0d a3 3d
       -0.066598296 -0.12269813 0.22340387 0.079615116
000200 6f 21 2e be 27 13 ef bd 3e dd 2c 3e e6 49 7d 3e
       -0.17004941 -0.11673575 0.16881272 0.24735221
000210 27 a7 ae be c6 74 a3 bd 73 a4 d3 bc e8 b2 5a be
       -0.34111902 -0.07981257 -0.025835251 -0.2135731
000220 d0 fa df bc 4e b5 df be 80 f6 a4 bd e8 0d a7 be
       -0.027341276 -0.43693012 -0.08054829 -0.32627797
000230 07 0a e7 bd 80 2e a4 bd fe 32 9b 3e ae c6 22 3d
       -0.112812094 -0.08016682 0.3031234 0.039740257
000240 43 48 48 bd ef 2f 95 bb e9 03 e2 3d a0 31 38 be
       -0.04889704 -0.0045528333 0.11035902 -0.1798768
000250 08 bc d1 3e 42 01 bc 3e 75 d0 85 be ad f1 f2 be
       0.4096377 0.3671971 -0.26135603 -0.4745001
000260 a6 3b 28 3e 9e 01 40 be f3 f9 15 be 18 b3 01 be
       0.16429004 -0.18750617 -0.1464613 -0.12665975
000270 74 9c d3 3e 28 75 6e 3e 12 03 ce 3e 44 4d 94 be
       0.41330302 0.23286879 0.40236717 -0.289652
000280 ad 77 98 be 78 a7 a4 3d b1 fd 91 3b 80 0f f3 bc
       -0.29778805 0.08039755 0.004455291 -0.029670477
000290 c1 8e 0c be 98 4e 0b be 98 80 24 3e f8 ab d8 be
       -0.13726331 -0.136042 0.1606468 -0.42318702
0002a0 cc c4 49 be 57 09 cf bb 4e 2a 38 3f c9 89 3d 3e
       -0.19703978 -0.006318252 0.7193955 0.18509592
0002b0 63 82 7c 3d 40 c2 e4 3b 8f 79 3d bd b9 cc 2c 3f
       0.061647784 0.006981164 -0.046258505 0.6749988
0002c0 dd 12 51 bd 1a 94 64 bc a9 62 74 3e 96 64 e0 bd
       -0.05104338 -0.013951326 0.23865761 -0.10956685
0002d0 e3 d7 84 be ff bb a0 bd 54 ad cf bc 8a a7 05 bf
       -0.25945958 -0.078483574 -0.025351204 -0.5220877
0002e0 74 ec 8f 3d 18 3a 41 be 2b 4e e4 3e 80 ea 08 bd
       0.07027522 -0.18869817 0.44590887 -0.03342676
0002f0 b0 69 8c be 64 3f ad bd 24 8f ac 3d c8 ee 30 bd
       -0.27424383 -0.084593564 0.084257394 -0.04319647
000300 e0 33 01 bf c8 5c 85 bd 30 ec cc be f8 3d 26 3e
       -0.5046978 -0.06511837 -0.40023947 0.16234577
000310 98 a6 72 3d 38 47 d0 3d 58 7f 98 3e 19 83 aa 3c
       0.059240907 0.10169834 0.29784656 0.020814465
000320 98 c2 42 3d c5 f5 02 3e fd 5c 74 bd 9b f9 61 bf
       0.04754886 0.12789066 -0.059658993 -0.8827149
000330 68 98 58 bf 90 e3 ff 3c ca 6a 02 3e 04 6a 14 3e
       -0.84607553 0.03123644 0.1273605 0.14493567
000340 40 06 55 bd 30 09 d3 bc a8 62 6c 3d a0 3c e3 bc
       -0.052007914 -0.025761217 0.057711273 -0.02773887
000350 5a e8 36 be fc 43 05 be c8 4c 7d be b6 9a 02 be
       -0.17862073 -0.13014215 -0.24736321 -0.1275433
000360 b4 a7 2a 3e 7e e0 38 3e f6 64 30 be cc d5 30 be
       0.16665536 0.18054387 -0.17226014 -0.17269057
000370 90 1d 65 be b8 ba df 3d 84 ec f5 3d 60 d7 bb 3c
       -0.22374558 0.10924286 0.120080024 0.022929847
000380 e8 34 16 be e9 55 dc bd d1 a2 2e bd 30 b5 df bc
       -0.1466862 -0.107585736 -0.042635743 -0.027308077
000390 3b a8 fe 3c 11 be 87 bd 74 4e 0d be 60 ff c5 bd
       0.031086078 -0.06628049 -0.13799459 -0.096678495
0003a0 08 e0 41 bd 28 48 e2 3d e6 2b 3d bd 54 b2 0e 3e
       -0.047332793 0.11048919 -0.046184443 0.13935214
0003b0 a6 d7 6b 3e b0 47 60 3d ce 8b c7 3d 50 24 a5 3c
       0.23031482 0.054755867 0.097434625 0.020158917
0003c0 d0 72 9e bd 3f 9d e5 bd 17 9e 28 3e 90 b5 0b 3e
       -0.077367425 -0.11211633 0.16466556 0.1364348
0003d0 29 57 39 3e 2c 17 a9 bc 79 c8 aa bb 80 4f 64 3f
       0.18099655 -0.020640932 -0.0052118865 0.8918381
0003e0 90 63 6d 3d ce aa 05 3f 0c 5e 10 3d 31 ba 18 3e
       0.05795628 0.5221375 0.03524594 0.14914776
0003f0 bc 57 e3 bc 50 3b 3e be c2 7f 83 3e 14 38 22 be
       -0.027751796 -0.18577313 0.2568341 -0.15841705

decoder.1.linear.bias f4 [32]
000000 e7 09 04 3f d2 2b 3b bf dd a0 a2 3e 9f 6b 40 3f
       0.5157761 -0.7311374 0.31763354 0.75164217
000010 41 87 b6 3e 70 c2 43 3f 92 18 ad 3d 20 bd 1e be
       0.35650066 0.76468563 0.08451952 -0.15501833
000020 e2 cd 63 be 2c 73 b1 3e f6 6b 90 3e 84 51 c8 3e
       -0.22246507 0.34658182 0.28207368 0.3912469
000030 4d 42 e3 bc 40 54 cc bd f9 0a f0 bd 39 18 66 bf
       -0.027741576 -0.09977007 -0.11720843 -0.8988071
000040 22 3b 0f bf 29 14 67 bf ef c7 53 bf 35 4f cd bd
       -0.55949605 -0.90265137 -0.8272695 -0.10024873
000050 78 97 3c be 15 a1 95 3e a8 8c 0c be f8 ee 0a 3e
       -0.18417156 0.29224458 -0.13725531 0.13567722
000060 14 98 d5 3e 14 8c 03 3f 6e 28 68 3e e2 63 43 bf
       0.4171759 0.5138562 0.22671673 -0.76324284
000070 f6 45 7c 3f 17 37 1c be d6 a4 a3 be e8 6e 79 be
       0.9854425 -0.1525539 -0.31961697 -0.24358714
