models/IPOD_model.pt (torch, 120169 bytes, 20 tensors)

encoder.0.linear.weight f4 [128, 24]
00000000: 5645 2a3e 18be dd3d 3898 04bf 47d8 693e
00000010: f2b7 a23e 9cb7 3bbe f8e6 5c3e ad4c e7be
00000020: 3711 9a3d ded7 54be a564 e03d 21c4 b03d
00000030: 19c9 4ebe 403d b7bc b914 cdbd 2d5c 1bbe
00000040: 54a5 793e c54a cdbb 389e dfbc af79 183e
00000050: d270 983e c3f3 79be f72f a4bc e73f afbd
00000060: ce16 08bf 942f 9a3a 644e c6be abae 563d
00000070: 1b0e fe3d af7f 543e f100 3ebe a43b 773e
00000080: c248 653c 5ab9 483e 6e8c 9b3c 7ba1 eb3a
00000090: 7e98 1abe 45b0 c03d 9605 48be 81e4 203e
000000a0: 2bd2 efbd 3bd0 053d 9b09 863e 567b 6dbc
000000b0: 7ab3 4bbd 4272 7fbe aefe 53be 3e33 1dbe
000000c0: d01d c1bd 821f bcbd 20c3 063d 9116 4ebe
000000d0: 6c9c cebd adbd 19be 887a dd3d e858 31be
000000e0: 522b 04be 4d6a 47be bb05 45be 3023 2cbe
000000f0: 6e5f c4bd 5561 d5bd 12c6 50be dc1d ae3d
00000100: ec42 b63d 705f 053e 98fb c93c 4802 05be
00000110: 0c46 cbbd 60bb 7d3c f078 f03c 50a8 3cbe
00000120: c760 02bf b80e c7bf 5820 95bd 2603 053f
00000130: 9acf c2bd 8d67 223e 2c3f 08bf af3b 25bf
00000140: e442 593e 6b17 edbe 870c b0be a79a 2ebf
00000150: 1399 8dbd 6203 b7bd dbcc b7be 322f 1bbf
00000160: 646d bdbe 4e0a bfbe b388 7dbe c24e b2bd
00000170: 1f7b cdbe 6167 8cbe eaf8 02bf 48fd 683e
00000180: 25a3 c63d 44eb f0bf ace3 b43c 291b 57be
00000190: ef6f bc3d add3 ae3e 7a24 1cbe 1384 353d
000001a0: 7d20 133f 6fb6 313e d51a f73d 288b 90bd
000001b0: 790e e03d 397c dabc 8ad9 e83b 3968 8fbd
000001c0: 76f4 3bbd 4f41 75bd 61d9 5a3d d252 883c
000001d0: a564 e53d 37b1 763d 4d35 903d b26a 063e
000001e0: bfa4 10bd 02ff a3be aef2 53bd 27cb b83b
000001f0: 441c b53d 65bc a33d 7928 afbf 8bf4 0c3d
00000200: 0322 20c0 9de0 5cbe 00a3 40bd 7dae 903d
00000210: 60d0 723d 99e0 f03c 223a 1dbd a37d 43be
00000220: 423c a1bd 98fd febc be84 e73d 73d5 093e
00000230: e0de 10be ec95 4fbe 884b cc3d 61f0 1cbc
00000240: 1c16 893e 93ee 383e 057b 87be c08a 343e
00000250: 1097 523c bbda 8a3e 42b0 773e 1d5b dfbb
00000260: 23da 66bd cbee e0bb 91bd 12bd 146a 213e
00000270: 896a 343e ccfe cb3a 60d9 3bbe bf01 2c3c
00000280: 0941 d7bc 60cb 033e 3ff1 24be 925a 85be
00000290: 20e4 ca3d 137f d3be 6bf5 82be 6dfa 58be
000002a0: 4200 c3bd 2b8b 603e 3f40 5b3d 3b0a 57be
000002b0: 5897 bf3d 3c95 4d3e aacb 333e 5cef d2bd
000002c0: 66b1 0fbf 843e 13be 2aaa 133c 78b2 e2bd
000002d0: 1fac 503c c634 733d fc0a 0d3e 9b83 35be
000002e0: 98d8 cb3a 637f b03d 1648 06be bfbd 17be
000002f0: a82f c03d 381b 1cbf 4f48 a83c 2304 023e
00000300: 879a 03be 9f44 89be 954a 943e dbba 8e3d
00000310: cced b6bd 17d7 7b3e 6e31 28be 1052 9bbd
00000320: cadf dcbf 47d4 99bd 9aec 0abe 1465 cebd
00000330: b0bf b43d e2c6 c63d f0a3 6b3c 25e7 e2bb
00000340: 83e7 da3d 22c5 183e f274 cf3d 4e8d 00be
00000350: bc16 34bd 9c32 98be cc88 893d 51b1 3b3c
00000360: 2425 2bba c417 1c3e fc76 413d 6812 563d
00000370: daea 013d 314b db3d ef7f ffbd 1f6c f6bf
00000380: 5953 b2bc 589b 6fbe af45 093e 1b0f 073d
00000390: 78a0 18bf 919f 8dbe 0bae 823e c7d9 4a3d
000003a0: efd4 8c3e 5f8f 933d 9ccf 973b 7b38 93bd
000003b0: 280d bd3d 9e89 32be b296 86be faad a73e
000003c0: 2b38 98be 706a 383f 1940 febd 4fd2 633d
000003d0: 33b1 b33e 1cc3 91bc 7528 0abf 3ba6 773b
000003e0: 03ed 2ebf 36d4 043d 231f 23bd 327c cfbe
000003f0: a534 113e 18a0 1dbe e4fb a73d fd89 0fbe
0.16628012 0.10827273 -0.5179477 0.2283641 0.31780964 -0.1833176 0.21572483 -0.45175686
0.07522815 -0.20785472 0.109566964 0.086311586 -0.201939 -0.022368073 -0.10013718 -0.15171881
0.24379474 -0.0062650167 -0.027297124 0.14890169 0.29773575 -0.24409394 -0.020042403 -0.0855711
-0.531598 0.0011763447 -0.38731682 0.05241267 0.12405034 0.20751832 -0.18555047 0.24143845
0.013994398 0.19601956 0.01898786 0.0017977202 -0.15097234 0.09408621 -0.19533381 0.15712167
-0.11710008 0.032669287 0.26179203 -0.014494738 -0.04973171 -0.2494593 -0.20702621 -0.15351579
-0.094295144 -0.09185697 0.03290093 -0.20125796 -0.10088429 -0.15013762 0.108143866 -0.17319071
-0.1290715 -0.19474144 -0.19240467 -0.16810298 -0.09588514 -0.10418955 -0.20388058 0.08501789
0.08899483 0.13024688 0.024656102 -0.12989151 -0.0992547 0.015486568 0.029354542 -0.18423581
-0.5092892 -1.5551367 -0.0728156 0.5195793 -0.09512253 0.15859814 -0.5322139 -0.64544195
0.21216923 -0.4630693 -0.34384558 -0.6820473 -0.06913962 -0.08936192 -0.3589848 -0.6061889
-0.3699752 -0.3731255 -0.24759178 -0.08706428 -0.40132996 -0.27422622 -0.5116106 0.22752869
0.09699086 -1.8821797 0.022081219 -0.21006455 0.09201037 0.3414587 -0.1524829 0.04431541
0.5747145 0.17354749 0.12065665 -0.07057792 0.109402604 -0.026670562 0.007106011 -0.07002301
-0.045887433 -0.059876736 0.053429965 0.016641054 0.11200837 0.0602276 0.07041416 0.13126639
-0.035313364 -0.32030493 -0.05174511 0.005639452 0.08843282 0.07994918 -1.3684226 0.0344129
-2.502076 -0.21570058 -0.04703045 0.07064531 0.059280753 0.029403972 -0.038385518 -0.19090895
-0.078728214 -0.031126782 0.113046154 0.1346033 -0.1414752 -0.20272034 0.09975344 -0.009578795
0.2677468 0.18059759 -0.26461044 0.17631054 0.012853399 0.27120003 0.24188331 -0.0068162815
-0.056360375 -0.006864404 -0.035825316 0.15763122 0.17618765 0.0015563606 -0.1834464 0.010498463
-0.026276128 0.1287055 -0.16107653 -0.26045662 0.09906793 -0.41307887 -0.25577864 -0.2118928
-0.095215335 0.21928088 0.053528067 -0.20999996 0.093550384 0.2007646 0.1755816 -0.102995604
-0.56130064 -0.14379317 0.009012738 -0.110691965 0.012736349 0.0593765 0.13773721 -0.17725985
0.0015552221 0.08618047 -0.13113436 -0.14818476 0.0938409 -0.6097903 0.020542292 0.1269689
-0.12851916 -0.26810166 0.28963152 0.069692336 -0.08932075 0.24593769 -0.16425106 -0.075840116
-1.7255795 -0.07511192 -0.13566819 -0.10077873 0.08825624 0.09705903 0.014382347 -0.006924527
0.106886886 0.1491895 0.101297274 -0.12553903 -0.043966994 -0.29726112 0.06715545 0.01145585
-0.00065286667 0.15243441 0.047232613 0.052263647 0.031718113 0.10707701 -0.12475573 -1.9251746
-0.021768259 -0.23399103 0.13405488 0.03297339 -0.59619856 -0.27660802 0.2552341 0.049524095
0.27506205 0.0720508 0.0046329033 -0.07188507 0.09231025 -0.1743531 -0.26286846 0.3274992
-0.29730353 0.7203741 -0.124145694 0.055620488 0.3509613 -0.01779323 -0.5396798 0.003778829
-0.683304 0.032428943 -0.039824616 -0.4052444 0.14180239 -0.15393102 0.08202341 -0.14017482

encoder.0.linear.bias f4 [128]
00000000: 4160 203e 985a ac3d 8a00 ccbd 8e32 e2be
00000010: ebab b6bd 976d f83d 1345 85bd 405c 773d
00000020: 5585 81be 08b6 27b7 e689 d7bd 041b b73c
00000030: 3ce6 1dbe 8aa2 913e 9797 8ebd ff1c 8d3e
00000040: f871 42bd 5d3d b03e 7636 63be 917e 833d
00000050: fd39 bc3e 8f6b 20be 029c 183e 494a 33be
00000060: f87f 1f3e 999a 003e 53a7 3bbe dbd8 953d
00000070: 8ae0 263e 6678 533e 649b c1bd 2afc 6f3e
00000080: 13ce 72be e6b4 e1bd f1d4 ecbd 655a b53d
00000090: 4438 ee3d 1bee 2ebe 74a7 02bd aefd 4c3d
000000a0: 4c73 2dbc 73bd c73c efd4 76be 2e8f c3bd
000000b0: feb3 b63b 35ec 7f3d 804f 923e ef2d 65bc
000000c0: 16e0 43be de2d 25be 578e 4dbe fd34 ac3d
000000d0: 28f4 813c 4d25 b63d 9ae3 913c aebf fe3d
000000e0: 8ac4 6a3e 80c8 863d 31c5 6a3e cd0b ac3e
000000f0: 9480 5f3e 0e51 e2bb ebae 9c3e 6590 77be
00000100: 0998 5ebe 1d09 143e ba45 693e 30f0 08be
00000110: 08ad 2fbe 8053 bf3d 5f2d a2bd c84a 693e
00000120: 670d 733e 36d9 4e3b b5f9 1e3d c571 9f3d
00000130: 43d5 a3bd 42bf 86be 0a5e 0b3d 74ab d13e
00000140: d509 db3e cd95 e33d 33e7 54bd 068a 5cbe
00000150: cd8a aabe f16a 473e 6efe 8cbd 5d46 ac3d
00000160: f825 5c3e 426e 203e 9694 08be c512 9dbd
00000170: dd15 c23e 11d9 093e b6b5 463e 25fe 463e
00000180: 55cb 34be abd2 ff3d 4c3e 573e 8eda 0fbe
00000190: 13d3 983e c5d3 a73e 334e 963d e7d5 9b3d
000001a0: a8ea 39be 5116 adbd 3a19 1fbb 39e4 703e
000001b0: 0fe8 093e ba05 28be 3973 733e d4dd 08bf
000001c0: b7a0 863d 8d32 bf3e c933 89be 711b b8bc
000001d0: 305f 783e fb4d 313e d841 743d 0469 ea3d
000001e0: fa96 68bc 798c cabd 06d8 63be 154b 40be
000001f0: 9b3b 163e e19f 543e f2ec bfbe 9c68 02be
0.15661718 0.08415717 -0.0996104 -0.44179195 -0.089195095 0.121302776 -0.065073155 0.06039071
-0.25297037 -9.996358e-06 -0.10524349 0.02235175 -0.15419859 0.2844432 -0.06962507 0.27561185
-0.04747197 0.34421816 -0.22188744 0.06420625 0.36762992 -0.1566603 0.14903262 -0.17508806
0.1557616 0.12558974 -0.18325548 0.073167525 0.16296592 0.20651397 -0.094534665 0.23436037
-0.23711424 -0.11020832 -0.11564053 0.08855132 0.116318256 -0.17083018 -0.031897977 0.050046615
-0.010586571 0.024382329 -0.24104665 -0.09548794 0.005575656 0.062481124 0.2857628 -0.013988002
-0.19128451 -0.16130778 -0.2007383 0.08408544 0.015863493 0.08893833 0.017808724 0.12438904
0.22926536 0.06581211 0.22926785 0.33602753 0.21826392 -0.006906635 0.30602202 -0.24176176
-0.21737684 0.14456601 0.22780505 -0.13372874 -0.1715585 0.09342098 -0.0791881 0.22782433
0.23735581 0.0031562573 0.038812358 0.07785372 -0.07999661 -0.26317793 0.03402523 0.4095112
0.4278094 0.111125566 -0.0519783 -0.21537027 -0.33309022 0.19474389 -0.06884466 0.08411858
0.21498859 0.1566706 -0.13337931 -0.07669596 0.37907305 0.1346171 0.19405255 0.19432886
-0.1765569 0.124913536 0.21019858 -0.14048216 0.29848537 0.32778755 0.07339134 0.07609158
-0.1815592 -0.08451522 -0.002427651 0.2352456 0.1346743 -0.16408435 0.23774423 -0.5346348
0.06573623 0.37343255 -0.2679732 -0.022474023 0.24255061 0.17314903 0.059633106 0.114458114
-0.014196152 -0.09890074 -0.22250375 -0.18778642 0.14671175 0.20764114 -0.37485462 -0.12735218

encoder.1.linear.weight f4 [64, 128]
00000000: 11b4 283d eab9 dabc c28b 183d 75bb 92bd
00000010: 297a b5bd 2c7c aebd ae01 1cbd 428f ccbd
00000020: 8cc2 36bd 02f7 bebd d9cb 273d ef97 1cbd
00000030: e4f2 a3bc afe6 0dbd cccb 563d 5310 17bd
00000040: fb3d 633d bea2 bfbd 08ab 883d 1937 2a3c
00000050: 45b2 7f3d 9dff a2bd a3b0 a2bd 9014 4abd
00000060: a529 a0bd 137e 963d d1f3 373d 9a4e 823d
00000070: 096d 3cbd 27a9 883d c37b 4abd 8893 6b3d
00000080: a360 22bd d465 5dbb b3bc d63c 3ea5 44bd
00000090: 048b e6bb 6016 8dbb 5559 513d 3d10 4abd
000000a0: d6f6 083d f2cc 8dbd 545c d23c 17f7 0f3d
000000b0: eacb 03bd 4ff1 23bd 0f5a 58bd 01a2 913b
000000c0: 20b9 22bb f8bf 93bd e700 9b3d 30f0 94bc
000000d0: 3b01 b5bd 293a 353c 8ac8 203d 476f bebd
000000e0: 6d64 b9bd 1691 cf3c c5fd 3a3b f88c aebd
000000f0: 29b4 5c3d 8a61 a0bb c24f 8a3d f8c4 8d3c
00000100: 2a3e 75bd 7be5 833c 7380 ed3b 2273 a13d
00000110: 62e4 743d 48cc 3cbc 9030 e13c f2c2 89bd
00000120: 92ce 8abc 3073 27bd ef95 873c abda 27bd
00000130: ac40 8f3c a0bc f3bb 7b0a 27bd d358 cabd
00000140: 9ee5 123d 6370 9a3d 665f 7bbd cdc0 69bd
00000150: a8fe 88bd 8fd9 ab3c 4ed6 763d 4461 423c
00000160: f60d a03d 9804 cfbd 6432 8ebc e77a d33c
00000170: 597d b83b e6de a5bd 922e ab3c 58bd 7ebd
00000180: 802f 893a 9160 27bd ee1a 7abd 033d b43d
00000190: 7e2e 363d fda1 4a3d da93 8ebd 1506 41bd
000001a0: 7d9a ab3d 605e fc3b 3008 6abc c4ac c2bd
000001b0: f133 1bbd 05ab 263d 2bfb 13bb 5e42 2f3d
000001c0: 3592 11bd 5010 3abd 2a72 44bd 2014 9bbd
000001d0: cc6e 833d a30e 063d 727d 8ebc cd1c abbd
000001e0: 44b1 7d3d 5ed8 75bd d61d cabc 7332 423b
000001f0: 4b2f a6bd 7ea0 813c 5ae0 443d b881 82bd
00000200: f248 8dbd 706c 7e3c fcc2 143d 5a9e 41bd
00000210: fa31 92bd 1c51 0cbd 55fe a03d ea9b 8dbd
00000220: 3e2d 933c 0cd3 df39 dd48 a8bd 2834 8dbd
00000230: d260 773d 57f6 8c3d 7d41 07bd 4273 34bc
00000240: 9fb4 84bd 30dc 8cbd f11d d7bc 60c8 16bd
00000250: bf21 d4bd f1a1 adbd f178 f9bc 8307 5dbd
00000260: fd85 06bd c755 7cbd 0dd4 00bd d274 10be
00000270: 3bc4 92bd f71c b63c 7e32 5a3b a8a6 ecbd
00000280: f9d0 61bd 47a6 333c 5a04 3d3c d60c 373d
00000290: 4df1 54bd 0b25 15bd b1f6 763d 6cc3 a0bd
000002a0: 628f 5c3d 288c 85bd fd40 453d dc15 0abe
000002b0: 528a e5bd 2acb 91bc d87f e3bd dd2e 04be
000002c0: b96f 693d 68ab 7bbd 32ff acbd 341b bd3c
000002d0: 3a10 e9bc 90e9 903d 6f28 03bd cd66 40bd
000002e0: b0bb a7bd 2bc7 67bd 878c babd 3f5b f0bd
000002f0: ac79 be3c 8491 e5bd 4bee c03c 0592 f93c
00000300: 0ae1 71bd bd06 98bb 8f22 8bbc 2e3f 5f3d
00000310: 70da 5c3c 0e80 70bd 2e7b 85bd d997 7ebd
00000320: 2b84 8d3c 4a7c 09bb 142d 89bd f5dc 40bd
00000330: bf35 81bd 5d96 3ebd dfb6 0f3d 8cec 953b
00000340: b6b3 123d 209a b5bd 6707 d5bc 850e ad3d
00000350: d767 fcbc 1bfb 95bb cb25 04be 379b 453c
00000360: bd39 d3bc dd68 15be c715 b4bd cb81 19bd
00000370: 1f8d 283d 9b97 e6bd d4ab 013d d4ef 533a
00000380: fc52 3ebc edae a7bd 33ef 99bd a21f 6e3d
00000390: 83f7 023d 26f6 c1bc e0d5 97bc c16e 5e3d
000003a0: 6bbc a03d c9f8 ccbd 302a 9cbd 7ab9 f3bd
000003b0: 3022 983d 3595 833c 4ebd 903d 2889 ba3b
000003c0: e3e6 b73c 0f62 3d3d 7afb 98bd 22c1 eb3b
000003d0: 4921 9cbd 1cf2 c2bc 6c82 8c3d ec61 8cbd
000003e0: 1522 253c c851 aa3b d3bb b53c 1a7f 11bd
000003f0: d8bc ddbd ee12 45bd 1669 063b d39c aabd
0.04118735 -0.026699979 0.03724266 -0.07164661 -0.08861191 -0.08519778 -0.03808754 -0.09988262
-0.044619128 -0.09324457 0.04096589 -0.038230833 -0.02001328 -0.034643825 0.05244045 -0.036880802
0.05547903 -0.093572125 0.066732466 0.010389113 0.06242587 -0.079589106 -0.07943847 -0.049336016
-0.07820443 0.073482655 0.044910256 0.06362648 -0.04600242 0.06672888 -0.049434435 0.057513744
-0.03964294 -0.0033782618 0.026213026 -0.04800915 -0.007035615 -0.004305646 0.051110584 -0.049331892
0.033438526 -0.06923856 0.025678791 0.035147753 -0.03217689 -0.04002505 -0.05282026 0.004444361
-0.0024829581 -0.072143495 0.075685315 -0.018180937 -0.08838125 0.01106123 0.03925375 -0.09298568
-0.09052358 0.025337737 0.0028532606 -0.085229814 0.05388275 -0.00489444 0.06753494 0.017305836
-0.059873737 0.016100636 0.0072479784 0.07883288 0.059788115 -0.011523314 0.027488977 -0.06726636
-0.016944204 -0.040881336 0.016550986 -0.040980022 0.017486893 -0.0074382573 -0.04078148 -0.09880223
0.03586351 0.07540967 -0.061370276 -0.057068635 -0.06689197 0.020977763 0.06026297 0.01186401
0.07815163 -0.10108298 -0.017358012 0.02581544 0.005630177 -0.08099155 0.02089623 -0.06219229
0.0010466427 -0.040863577 -0.06106084 0.088006996 0.044477932 0.04947089 -0.06961794 -0.04712494
0.08379076 0.00770168 -0.014284179 -0.09505609 -0.037891332 0.04069044 -0.0022580128 0.042787902
-0.035539825 -0.045425713 -0.047960438 -0.07572198 0.06417617 0.032728802 -0.017393801 -0.08355103
0.06193663 -0.060020797 -0.02467243 0.002963212 -0.08114489 0.015823599 0.04806552 -0.06372398
-0.06898679 0.015528783 0.036318764 -0.047270156 -0.071384385 -0.03425704 0.0786101 -0.06914504
0.01796591 0.00042691117 -0.082170226 -0.06894714 0.06039507 0.06882923 -0.03302144 -0.011013808
-0.06479763 -0.06877935 -0.026259394 -0.036812186 -0.10357999 -0.084781535 -0.030453177 -0.05396224
-0.032842625 -0.06160524 -0.031452227 -0.14107063 -0.07166334 0.022230608 0.0033294256 -0.11555225
-0.055130932 0.010964937 0.011536682 0.044689976 -0.051987935 -0.03641228 0.060293857 -0.07849774
0.053847678 -0.06520873 0.04815768 -0.13484901 -0.11208023 -0.017797071 -0.11108369 -0.12908502
0.056991313 -0.061442763 -0.08447112 0.02308426 -0.02845012 0.070757985 -0.032020982 -0.04697304
-0.081900954 -0.056586426 -0.09108835 -0.11736154 0.023251377 -0.112093955 0.023551127 0.030465135
-0.059052505 -0.004639475 -0.016984252 0.054503612 0.013479814 -0.058715872 -0.06517635 -0.062156532
0.017274937 -0.0020978623 -0.06698051 -0.04708572 -0.063090794 -0.046530116 0.03508651 0.0045753177
0.035815917 -0.08867288 -0.026004506 0.08450035 -0.030811233 -0.0045770532 -0.12905042 0.012060932
-0.025784368 -0.14590783 -0.08793216 -0.037477296 0.04115021 -0.11259385 0.03165801 0.00080847484
-0.011616465 -0.08187661 -0.07516327 0.058135636 0.031974327 -0.023676943 -0.0185346 0.054304842
0.07848438 -0.100083895 -0.07625234 -0.11900611 0.07428396 0.016062358 0.07067357 0.00569262
0.022448963 0.046236094 -0.0746984 0.007194654 -0.07623536 -0.023797087 0.068608135 -0.068546146
0.010078927 0.0051977374 0.022184288 -0.035521604 -0.10827035 -0.048113756 0.0020509413 -0.08330693

encoder.1.linear.bias f4 [64]
00000000: 5f22 85bd 9766 2cbd 58c3 eb3d f32e 88bd
00000010: 8a5e 4c3e 6a02 a4bd 953d 62bd b2bb 5f3d
00000020: 776e f53c a922 a1bd 6566 3abd 3468 6ebc
00000030: b97d 15bd ae51 303e 662e 52bd 2c2f e6bd
00000040: f1c7 5fbd bd97 233c e198 a8bc 42ea acbc
00000050: 2f56 873c bb55 e93c 079c 80bc abd3 e8bd
00000060: 9bc2 d9bc f795 81bd f88d d13a 3f28 323e
00000070: 08e5 053e 70c6 823d 2ad9 3a3d c369 eebd
00000080: 29ae c53d 7012 b5bd 1533 d63d 1354 0fbd
00000090: ba6b 5f3d d3d5 97bd 1d3f 263d f380 9bbd
000000a0: 02fb 343d 66e0 0dbe 80fd 393e c456 9c3d
000000b0: d323 2cbd b0bd 44bd 4adf c43c 9073 923d
000000c0: 0ac8 d7bc c5b5 20bd 6e38 243e 2fac 683d
000000d0: 2093 1ebc 51bf a2bd fce2 cfbc cd72 113d
000000e0: 0e3b 073c 3384 ffbc 2144 4dbd 6acf 0fbd
000000f0: 990a f2bc 05c1 39bd f8ee fdbc 0e65 2b3e
-0.065006964 -0.042090025 0.11511868 -0.0664958 0.19957939 -0.08008273 -0.05523451 0.05462236
0.0299599 -0.07867939 -0.045507807 -0.014551211 -0.03649685 0.17218658 -0.05131378 -0.11239466
-0.05463404 0.009984908 -0.02058071 -0.021107797 0.016520588 0.028483262 -0.0156994 -0.113684975
-0.026582053 -0.06327432 0.0015987745 0.17398165 0.1307565 0.06385505 0.04561726 -0.11641266
0.09652359 -0.08841407 0.10458962 -0.03499229 0.054546095 -0.074138306 0.040587533 -0.075929545
0.044184692 -0.13855132 0.18163109 0.07633737 -0.042026352 -0.048032463 0.024032254 0.07150948
-0.026340503 -0.03923585 0.16037151 0.056804832 -0.009678632 -0.07946647 -0.02537679 0.035509873
0.008253826 -0.031190967 -0.0501138 -0.035109915 -0.029546069 -0.045350093 -0.030997738 0.16737768

encoder.2.linear.weight f4 [32, 64]
00000000: 6e1d b53d 5e8e a23c 7bcd 4e3e 0053 033d
00000010: f25e dabe 9cfe 96bd a72a 8d3c aacc 7cbc
00000020: cff7 b23d dff5 9b3e f297 c6bd 22da 7dbe
00000030: d9de b3be 4723 913d 374d 33bc 5d62 c43d
00000040: ec07 863e ba2e fabd d932 bc3d 20a5 d7bc
00000050: 4a3c 843d 23c0 5abd 3778 543d cfc5 2fbd
00000060: da39 333d 5e3a 273d 77c0 9abc 5de1 ebbc
00000070: 3c86 133d db60 5a3e 29c5 ae3c 1fc9 29bc
00000080: 8303 7b3e e736 9dbd b17c dfbc 3fbe adbd
00000090: 2cd6 753d 805f abbc e29b 183e c4fb c2bd
000000a0: a52c 5b3c e8f4 8a3e 6c98 1f3e 77c9 173c
000000b0: f966 25bd deef ef3e 4927 aebd 06a5 783e
000000c0: 2727 083f c5d5 043d 557f 2c3e 6c35 8c3e
000000d0: 1d3e ee3d 4264 f4bd 900c 6d3d a6f8 213c
000000e0: 5ed7 903d 9f24 233e 8a40 563d 488e 7bbd
000000f0: 6e76 2b3f 2056 fc3d 780e 2d3d 3a8f 5e3d
00000100: c3fd f3bd 426b 873c ebd8 bc3b b70e a6bd
00000110: 6a58 f1bd d1b5 da3d e06c ae3c 67f6 2dbc
00000120: c2f5 853c 2a13 183f 34c6 3fbd 48b4 59bd
00000130: 01a4 a4be 01e8 f43d 7ac3 a23d 3599 823e
00000140: ee8d 673f d098 46bd 62ab 033f ccb1 4cbd
00000150: e419 e9bc 2086 d9bd 926d 50bd 1406 2a3c
00000160: e6e0 7f3d 0330 a13d c046 533b 2b62 1fbd
00000170: 424e 9f3c 03d6 1a3e 44a5 f5bc 9de3 373e
00000180: ee0c 8e3e 1dda 863d bbe0 c1bd 81cf bf3d
00000190: 5773 e0b8 80cc 4cbb 3c5c 59be 6535 3b3d
000001a0: 704c f13c 223f 623e efc4 9a3c f327 913d
000001b0: b092 a33d 81b3 fa3e 3733 b83d 2ecb 5b3e
000001c0: 19d6 743f ea2f 9ebc 5f24 ecbd f108 6b3e
000001d0: 5679 903e 97fb 403c 42f4 d93d 7999 08be
000001e0: 797e 913d 7fc0 e4be c3e7 9bbc 3d58 bd3d
000001f0: fa3c 743f c519 afbd a63c 99bd 3a5b c03d
00000200: 0404 47bd a965 38bd 089c 2a3d 865b c23d
00000210: 20c3 8c3e b03c cdbd 08f8 08bd 7362 1a3d
00000220: 7093 55b8 dd73 41bf 18c2 db3c ca16 8cbd
00000230: 2b3f 89be 23ea 253e 9c3c 5b3d 16f3 f0be
00000240: 5cc6 933e 9712 6abd 6d51 51bd c105 eebc
00000250: d8bd 3fbd 98c7 d3bd 3723 cbbb 53c5 0cbd
00000260: 8054 bfba 9cd3 07bd 4815 c73d 5709 293b
00000270: 5172 eabc ef54 7b3d e010 c9bd b02b 39bd
00000280: d4df 46be 1348 bb3d eea0 023e 34eb e2bc
00000290: 902a 5dbd c098 a2bc 0bd8 80bc 48dd a73c
000002a0: e000 943d 17ce d23c 2562 d63c b15d 133d
000002b0: 57c6 aebd 2294 a9be 80d0 f73b 382a f63d
000002c0: c43d abbe f809 9ebd 3226 a63c cb45 cb3d
000002d0: 67e6 133c c087 a73c fc6a dfbc 3c14 fbbd
000002e0: b18b c73d ecb7 423c e3f1 adbe b272 c0bd
000002f0: 47a0 5cbf 99ea 833d 1a2d 053e 1aeb 313d
00000300: 633f e1bd 9251 6fbd 6831 393e fbbf a6bd
00000310: 2cc6 cfbd 4b8b e9bc ea88 e43d 2d94 b1bd
00000320: 4bd0 633e 2dfa 3f3e cce7 f83d 73d2 333e
00000330: d54f 473e fd8d 4cbe 6022 51bd 1004 ba3e
00000340: ccf4 ba3d 887b a43d 9baa 113e 2799 bebd
00000350: c9b6 4bbd 82d0 db3c 65cd 1a3e 7b6d 7abd
00000360: 1b09 afbd 3462 83bd e172 c53d abc2 b93d
00000370: ae6c c53d 234f 25be 595b 92bc 83f7 98bc
00000380: b0b9 a5bb d938 173e f4f5 213e a478 9b3d
00000390: 63fd 9b3c 02ce b3bd 4a7e e53d 8793 a33c
000003a0: df77 c43d adab 8e3d c608 d33d a470 c7bc
000003b0: 6dd8 d4bd 9dc7 ab3e 7071 7a3d 84f0 81bd
000003c0: be37 143f 0f9e c13d 3e34 153e d1bd 01bd
000003d0: bc3e c7bc 8a4b 083e 1263 21bc 1374 b4bd
000003e0: 7c78 43bd 15d6 9dbd 9f0e ab3e 8c3b 93bd
000003f0: 89b3 f03e 8bdc ffbd 813a 12bd b720 b83d
0.08843504 0.019843277 0.20195572 0.032061577 -0.42650563 -0.07372782 0.017232252 -0.015429655
0.08738672 0.30461022 -0.0969695 -0.24790242 -0.35130957 0.07086807 -0.010943702 0.09589074
0.2617792 -0.12215944 0.09189386 -0.026323855 0.06456812 -0.053405892 0.05187246 -0.042913254
0.043756343 0.040827148 -0.018890603 -0.028793985 0.036016688 0.2132601 0.021334248 -0.010362892
0.24513058 -0.076764874 -0.027281137 -0.08483552 0.060018703 -0.020919561 0.14903215 -0.09520677
0.013377343 0.27139974 0.15585488 0.009264342 -0.040381406 0.46862692 -0.08503587 0.24281701
0.5318474 0.03243043 0.16845448 0.27384508 0.11632941 -0.11933185 0.05787331 0.009885943
0.07072328 0.15931939 0.052307643 -0.061414987 0.66977584 0.123211145 0.042250127 0.05433581
-0.119136356 0.016530637 0.0057631633 -0.081082754 -0.11784442 0.1067921 0.02129215 -0.010617829
0.016352538 0.5940424 -0.04681988 -0.053150445 -0.32156375 0.11958314 0.079474404 0.25507513
0.9045094 -0.048485577 0.51433384 -0.049974248 -0.028454728 -0.106212854 -0.050885744 0.010377426
0.06247034 0.07870486 0.0032238215 -0.03891198 0.019446496 0.15120701 -0.029986031 0.17957921
0.2774424 0.065845706 -0.09466692 0.0936575 -0.00010702636 -0.0031249821 -0.21226591 0.045705218
0.029455394 0.22094396 0.018892733 0.07087698 0.07986963 0.48965076 0.089941435 0.21464226
0.9563919 -0.019309957 -0.11530375 0.2295263 0.28217572 0.011778734 0.106422916 -0.13339795
0.07104201 -0.44678113 -0.019031411 0.09245346 0.9540554 -0.08549837 -0.07482271 0.093924
-0.048587814 -0.045018826 0.04165271 0.09490113 0.2749262 -0.10021341 -0.033439666 0.037691545
-5.092047e-05 -0.7556742 0.02682595 -0.06840284 -0.26806006 0.16202597 0.0535246 -0.4706046
0.28862274 -0.057146635 -0.051103044 -0.029055478 -0.04681191 -0.10340804 -0.0061992663 -0.03436787
-0.0014597327 -0.03316079 0.09720856 0.002579292 -0.028618963 0.061360296 -0.09817672 -0.04520768
-0.19421321 0.091446064 0.12756702 -0.027700044 -0.05399567 -0.019848228 -0.015728017 0.020491257
0.072267294 0.025733037 0.026169846 0.035978023 -0.08533924 -0.3312083 0.007562697 0.12019771
-0.3344556 -0.07716745 0.020281885 0.09925421 0.0090271 0.020450473 -0.027272694 -0.12259719
0.09743441 0.011884671 -0.33973607 -0.093968764 -0.86182064 0.0644123 0.13005486 0.0434371
-0.10998418 -0.0584274 0.18085253 -0.08142086 -0.1014522 -0.028508803 0.11158927 -0.086708404
0.22247426 0.18747778 0.12153587 0.17560749 0.19464047 -0.19976039 -0.051058173 0.36331224
0.091287225 0.08031374 0.14225237 -0.09306555 -0.049734864 0.026832823 0.15117414 -0.061139565
-0.085466586 -0.06415215 0.09641052 0.09070333 0.0963987 -0.1614347 -0.017865824 -0.01867271
-0.005057536 0.1476778 0.1581648 0.0759137 0.019041723 -0.08779527 0.11205728 0.019967807
0.09593176 0.06966338 0.10304408 -0.024345703 -0.103928424 0.3355073 0.06114334 -0.06344703
0.57897556 0.094539754 0.1457071 -0.031675164 -0.024321906 0.13310066 -0.00985028 -0.08811202
-0.047722325 -0.077068485 0.33409593 -0.07189092 0.47011974 -0.12493237 -0.035700325 0.08990615

encoder.2.linear.bias f4 [32]
00000000: 1bae 00bc d1ef f53c cd0f f03b fbb2 523e
00000010: cf7b 563d b105 9d3e c390 b63d ead1 aabc
00000020: 9875 413e 3abc 503e cf15 4b3e 6264 fcbc
00000030: a63c 2ebb 1a06 6d3d bb0a d83d e397 b93d
00000040: 80f4 8f3e bb31 ac3c fb1a 723e 70b4 533d
00000050: 0fb4 9d3d 5538 943e 5e6f 843e 15d9 143e
00000060: 7f57 fe3d bf44 99bd 5267 7d3e f4c5 313e
00000070: db5d 5f3d edd1 b73d 705e a439 0b9e 9939
-0.00785401 0.03002158 0.0073261023 0.20576088 0.052364167 0.30668405 0.0891433 -0.020852048
0.18892515 0.20384303 0.19832538 -0.030809585 -0.0026586442 0.057867147 0.10548922 0.09062173
0.28116226 0.021019807 0.23643105 0.05168575 0.07700359 0.28949228 0.25866216 0.14535935
0.12419032 -0.074838154 0.24746445 0.1736067 0.054532867 0.08975587 0.0003135088 0.00029300185

encoder.3.linear.weight f4 [16, 32]
00000000: 089a 6e3e 752d 913e 1cf3 f03d fc38 d2bd
00000010: ffbb a13e 0fe3 cc3e 41aa 0d3e 4c0e ab3d
00000020: b9aa 213e f4e9 8b3e 51ba 663c 834d 39bd
00000030: 108d 95be 3619 d03e 7533 e63e 146d 1b3f
00000040: 8c9c 5abe 9c5c aa3d ccaf 4fbe 2f6a b3be
00000050: 1f5c 9e3c c03f 9d3d a31c babd 139b 4b3e
00000060: bb25 e73e b37a 0a3e 38ed 89bd 96f3 d83c
00000070: 600e 223e 928e 34be 782a 8abd 6207 a1bc
00000080: e8ff 833d 0817 0b3c 3390 bf3d e929 5ebd
00000090: 25a5 7c3e ccfa 3fbe ad09 32be 28a7 50bd
000000a0: 0762 493e 885b 59bd 6cae bbbd 4826 613d
000000b0: f414 2abe 0f47 333e 0a61 db3d 4830 24bd
000000c0: ca00 0bbc 0348 973e ea3e 32be 8717 673e
000000d0: 803a 003e 4a0f 853d 84d6 263e 988d 84bd
000000e0: 9d4f 673e 00cc c4ba e6ad a23d 35f5 ff3c
000000f0: 5c83 cdbd a9fd 91be 9e50 a0bd dc4e 093d
00000100: c756 ffbd bc7a 40be 104c 7b3e f472 b1bd
00000110: d02c e53d f934 0f3f 9618 033f 6085 013d
00000120: 05b0 003e 1034 a83d ca60 513e 7a2b 28bd
00000130: b100 003e 6ff9 e53e 4859 83be bac2 9b3e
00000140: 62db 103f 9960 14bf 3b66 29be a481 b7be
00000150: 929f d83e 87f4 8d3d 1462 48bd 752f 493d
00000160: 2317 3e3e 16b7 d13d 43ff 2d3e 10cc b93d
00000170: 4490 473e 1d45 b5bd 6374 6b3e a0b4 fd3d
00000180: 32d3 8bbc 06e6 4cbd 8243 dd3d 36c4 053e
00000190: 9fe6 38be edb7 45bd 2f0c 9cbd 497b 2a3e
000001a0: 964e d73d e45b 163d b02a 10be bb6e b13d
000001b0: 8d3f adbd d7b4 b9bd 53f1 40be d0b0 22be
000001c0: 622b 993d cc8a 003d 9da7 00be caf7 d8bd
000001d0: a850 433b d496 a53d cbb8 8fbc d6b1 bcbd
000001e0: 73e0 1bbe d84c 223d d3ce 4dbd 2c6b 56be
000001f0: 122e 1cbe f0c6 49be 9fd1 e03d 9c0b 2abd
00000200: 7ba4 3dbe f9ba 2d3d 8123 053e a1bd eabd
00000210: ed6f 6fbd 539c b33c 18e2 e53b ecfd 7d3d
00000220: b4b0 1bbe 1333 0abe f6a4 a9bd 5d0d 9abd
00000230: b44d 683d 6568 20be 5772 0bbe 1422 803d
00000240: 19d9 263e 2b2c 92bd e9ec e03d 255e 8ebc
00000250: f97e 803d c9aa 63bd a2f2 693d fddc 03be
00000260: 0112 91bc 1d67 1f3e e9e7 f8bc 357e acbd
00000270: 5616 81bd e9ea ac3d 0c63 933d 7693 ecbc
00000280: 76f5 0abd a7fa 653e acd1 40be cac6 103a
00000290: 2c54 5c3d caf4 e13e b8b8 cd3d 6177 d0bd
000002a0: 73e3 863e cd11 7b3c 0476 963d 7b99 47be
000002b0: f061 fe3e 5084 403e b6b6 14bf 4b3a 033d
000002c0: 7c49 953e 7e48 6fbe 4bc3 16be 265a 62bd
000002d0: 22d2 f23e 2ba8 6d3e 09a3 343e 52dd 423c
000002e0: 67cf f43d 6529 ebbc 2999 a6bd 77d1 1cbd
000002f0: 5989 18be f711 43bd aaed b93e 9f5a 8dbd
00000300: 36bd 79be ba2b e1be abf7 4b3e 2026 583e
00000310: 1a0b 2e3d cffe 073f 8ba4 013f 6353 2f3c
00000320: 7aaa ffbc 176f 253d 9f1c ae3e 6132 373e
00000330: b691 b53e 3940 243e 2ce7 03bc c8bf 673d
00000340: 6fde babd e5ca 82be 8fc1 323e aac3 b53e
00000350: 95fa 963e c0fa 6d3e 0ecd 663d 8f6f c4bd
00000360: 9e86 fcbd c500 05be 18ea 4d3e 447f 893e
00000370: f7cd 483e e6de 953e 3a19 813e b99d 163e
00000380: 1bf9 51bd eb45 a13e db33 86be ce55 503e
00000390: cae5 873d ffea 0d3e 0b84 20bd ac29 d3bd
000003a0: d173 b93d de5a 0dbe e02f 3dbb 71ae 493d
000003b0: 3080 a63e b667 b03d ef22 92bd a3ad 973d
000003c0: 4f4f cebe 7ab0 9ebd 5ed4 a83e e9ca 35be
000003d0: 0d8b 89be 5cf1 223d edb9 223e 4ac9 df3d
000003e0: 5e45 693e d874 02be 9b74 0c3e a418 0e3e
000003f0: 5c16 2bbe ac66 1fbe 67c4 3d3e 204c 07be
0.23300946 0.28354993 0.117651194 -0.10264775 0.31588742 0.40016982 0.13834478 0.08352336
0.15787782 0.2732693 0.014082507 -0.045239937 -0.29209185 0.40644234 0.44961134 0.60713315
-0.2134878 0.08318445 -0.20281905 -0.3504195 0.019331036 0.07678175 -0.09087493 0.19883375
0.45145974 0.13523369 -0.06734699 0.026483338 0.15825796 -0.17632511 -0.067463815 -0.01965684
0.064452946 0.008489378 0.09353676 -0.054239187 0.24672373 -0.18748015 -0.17386504 -0.050940663
0.196663 -0.053065807 -0.09164128 0.05496815 -0.16609555 0.17507575 0.10711868 -0.040085107
-0.008484075 0.29547128 -0.17406812 0.22567569 0.12522316 0.06497057 0.16292769 -0.06472319
0.22588964 -0.001501441 0.07943325 0.031244854 -0.100348204 -0.2851384 -0.078278765 0.03352247
-0.12467723 -0.1879682 0.24540734 -0.08664504 0.11190188 0.55940205 0.5120939 0.031621337
0.12567146 0.08213055 0.20447078 -0.041057087 0.12500264 0.44916865 -0.25654054 0.30422002
0.5658475 -0.57959896 -0.16542904 -0.35841095 0.42309242 0.069314055 -0.04892166 0.049117524
0.18563513 0.10239999 0.16991906 0.09072125 0.19488627 -0.08851073 0.22993617 0.12387967
-0.01706848 -0.050024055 0.10803892 0.1306313 -0.18056725 -0.04827111 -0.07619511 0.16648592
0.10513036 0.036708727 -0.14078784 0.08663698 -0.08459387 -0.090676956 -0.18842058 -0.15887761
0.07478978 0.031382367 -0.1256394 -0.10594137 0.0029802714 0.08085409 -0.01754417 -0.09213607
-0.1522234 0.039624065 -0.05024607 -0.2093932 -0.1525195 -0.19704795 0.10977482 -0.041514978
-0.18519776 0.04241464 0.13001825 -0.1146195 -0.05845635 0.021925127 0.007015478 0.062009737
-0.15204126 -0.13496046 -0.08283417 -0.0752208 0.05671473 -0.15664823 -0.13617836 0.062565
0.16293754 -0.071373306 0.10982687 -0.017378876 0.06274218 -0.055582795 0.05711616 -0.12877269
-0.01770878 0.15566678 -0.03038402 -0.084225096 -0.06303088 0.08443243 0.07196626 -0.028878909
-0.033925496 0.22458898 -0.18829983 0.0005522786 0.05379121 0.44132072 0.10044998 -0.1017902
0.26345405 0.015324068 0.073467284 -0.19492142 0.49684095 0.18800473 -0.58091295 0.032038014
0.29157627 -0.23367497 -0.14722936 -0.055261753 0.47425944 0.23208682 0.17640318 0.011893587
0.11953621 -0.028706262 -0.08134682 -0.0382857 -0.14896144 -0.047624554 0.36314136 -0.0690205
-0.24388584 -0.43978673 0.19918697 0.21108294 0.042491056 0.5312318 0.506417 0.010701033
-0.03120922 0.040389147 0.3400621 0.17890312 0.3546273 0.16040124 -0.008050721 0.05657938
-0.09124457 -0.2554542 0.17456649 0.35500842 0.29488054 0.23240185 0.0563479 -0.095915906
-0.12330364 -0.12988575 0.20108831 0.26854908 0.1960982 0.2927162 0.2521456 0.14708604
-0.051262956 0.31498656 -0.26211438 0.20345232 0.06635626 0.13859175 -0.039188426 -0.10310683
0.09055293 -0.13804194 -0.0028867647 0.049238626 0.32519674 0.08613531 -0.07135569 0.074061655
-0.40294883 -0.07748504 0.32974523 -0.17753185 -0.268639 0.03978096 0.15891238 0.10927065
0.22780368 -0.12739885 0.13716356 0.13876587 -0.16707748 -0.1556651 0.18531953 -0.13212633

encoder.3.linear.bias f4 [16]
00000000: 7ce1 0c3e e220 49be f983 4c3d a822 0dbe
00000010: 6639 24be 4934 0a3e f9fd 743e 9b53 543c
00000020: 9308 013e 068e 383e 1cd9 cbbd 6640 233e
00000030: 0018 cc3d b9e6 233e c3d5 4e3e 60d3 0bbe
0.1375789 -0.1964145 0.049930546 -0.13782752 -0.16037521 0.13496508 0.23925008 0.012959386
0.12600927 0.18022928 -0.0995352 0.15942535 0.09965515 0.16005982 0.20198731 -0.13654852

encoder.4.linear.weight f4 [8, 16]
00000000: 996b 0bbe 20e3 64bd 06c2 46be 0523 c33d
00000010: ae84 773d a35c d4bd b9ed 56be 0cd4 f1bd
00000020: b579 0a3d d904 3ebe 547f 82bd 96f4 4a3e
00000030: 3e46 1e3e 45b6 80be b8b1 a7bd 80a9 20bb
00000040: c1d0 1cbe 0104 1fbd 5233 bc3d f46b 3bbe
00000050: 682c e03d d3bf f53e 7aac 003f bc63 983e
00000060: 967d c13e 11c9 a23e f414 78be 4e02 133e
00000070: f2dd 833d 57dd 883e 4084 aebc 687c b1be
00000080: 852c 7a3d c462 e23d 7fc9 d4bc f614 763e
00000090: b8af 2c3d 10e1 2f3d 9408 8dbe ef4f a03d
000000a0: fb69 35bd 0b63 79be 60ea b7bd 34f7 c8bd
000000b0: 6837 4c3d 56a2 ae3d 21ed e0bd 61b6 4ebc
000000c0: f1a3 153f b648 a5be da6e cf3d a2fb 4bbe
000000d0: b2b6 14be 0c62 c1be 98c6 b4be 8414 2d3e
000000e0: de0d 213e 72b1 493d 7852 49bd 1e4d b53e
000000f0: 7164 97bd bc03 033f 7894 cc3e 72a3 f43c
00000100: 7706 2b3b eec6 82be 41fb 5cbb 3ed7 413e
00000110: 60ce 853c 4f2d ed3b 43bd 88bd d59c 3b3e
00000120: 355e 98be 7bb2 91be 38ad 753e 95fb 8cbe
00000130: 86ca 3a3e 493d 3b3e d424 363e 7208 50bd
00000140: 0f92 023f 444b 693e a481 e83d 78d1 11be
00000150: ab39 183d 28c2 083f 1afe e3be cd99 483e
00000160: 3bb8 103e 714c 7b3e 860e 24be 4295 4b3e
00000170: 42e5 9a3e 42ea 65be 8f2d 0c3d 22c3 8d3d
00000180: 0cd9 b5bd a348 afbe 928c de3d 11d6 0ebe
00000190: 95d2 e7bd 3114 073f 7143 213e e679 55be
000001a0: f7c9 4a3d f5a7 1bbe a42f 1dbe 2c4b 2e3c
000001b0: 87c6 973e 0a7d 6a3e ba3a 513f 7ec1 353e
000001c0: 9a4e ad3e 05ff 143e 55fd 0e3e 676e 4a3d
000001d0: 90d6 05be c1f7 c9bd 14c0 4f3e 1318 ddbd
000001e0: 8295 3b3e bcb2 65be f011 16bd 43d5 a4bd
000001f0: ad07 b5bd cf2a bfbd 2b36 b93d 3f2d 0f3f
-0.13615264 -0.055880666 -0.19409952 0.09528164 0.060429268 -0.103692316 -0.20989121 -0.11808023
0.033807475 -0.18556537 -0.06371942 0.19819865 0.15456483 -0.2513906 -0.08188194 -0.0024515092
-0.15314008 -0.038822178 0.09189476 -0.183029 0.1094597 0.47997913 0.5026318 0.2976359
0.37791127 0.31794026 -0.24226743 0.14356348 0.06438817 0.2673137 -0.021303296 -0.34665227
0.061077613 0.11053994 -0.025974987 0.24031433 0.042159766 0.042939246 -0.27545607 0.07827746
-0.044290524 -0.24354188 -0.0898025 -0.09812775 0.049857527 0.08527057 -0.10982729 -0.012616725
0.5845328 -0.32282037 0.10128565 -0.19920209 -0.14522818 -0.37770116 -0.35307765 0.16902357
0.15727946 0.04924149 -0.049150914 0.35410398 -0.073922046 0.51177573 0.39957023 0.029863093
0.0026096383 -0.25542396 -0.0033719095 0.18929765 0.016333759 0.007238067 -0.06676724 0.18321545
-0.29759374 -0.28456482 0.23991859 -0.27535692 0.18241319 0.18285097 0.17787486 -0.050789304
0.5100412 0.22782618 0.11352852 -0.14240062 0.03716437 0.5342126 -0.44529802 0.1958992
0.14132778 0.24540879 -0.16021165 0.19881156 0.30253035 -0.22452644 0.034223136 0.06921984
-0.08879289 -0.34235105 0.108666554 -0.13948847 -0.11319462 0.52765185 0.15748383 -0.20847282
0.049509015 -0.1520079 -0.15350205 0.01063804 0.29643652 0.22899261 0.81730235 0.17749593
0.3384903 0.14550407 0.13963826 0.049421694 -0.1307013 -0.098617084 0.20288116 -0.107956074
0.18318751 -0.22431463 -0.0366382 -0.08048489 -0.08839355 -0.09334337 0.09043535 0.55928415

encoder.4.linear.bias f4 [8]
00000000: 5305 3d3e c6b2 3cbe 635f 0abd 4920 8d3e
00000010: 5caf 9cbe c97f fa3d c2de 953d 5248 6e3d
0.18459062 -0.18427572 -0.033782374 0.27563694 -0.3060254 0.12231404 0.07317878 0.05817444

decoder.0.linear.weight f4 [16, 8]
00000000: d7a8 8d3e 69a2 af3e 73e6 6c3e 9777 903e
00000010: b339 613e 13e9 593e ebfb 6fbe 1484 6dbe
00000020: 6a39 4dbe 9adb a13e 0eb8 d9bd d1ca 0dbe
00000030: a8c0 a9be 1642 3fbe 731c 423e c32e 1a3f
00000040: f9a0 e93c 004d 1c3e fdfa fbbb 19e6 823e
00000050: c0dd c8be 504f 203e e27c e43e a011 b2be
00000060: d86f e8bc 0a05 2ebd 0c82 b03e 43a5 8f3e
00000070: e8b1 8d3e dd66 32bd af70 ee3e f687 f8be
00000080: 4344 a63b 503c 98be bc32 94be 5b4c 023e
00000090: ce0f 3dbe 12d2 c33e d629 283d 1857 183d
000000a0: 961a 86be aec8 f73d 82d3 a93e 024a 9e3e
000000b0: 7a4c c23d 42f0 b93e 8214 77be e3ec 5ebd
000000c0: 81c2 233e 7fca babd 46ec 523e b9ad d93d
000000d0: b00a 8ebe 47ed 363e b524 523e f383 123f
000000e0: fc37 20be 411e 3d3e 4f86 53bc ce87 ae3e
000000f0: 290c 9fbe c57f ccbe 4ca9 aebe 5847 ca3e
00000100: f3d1 aabe 58db a0bd c25f 69be 91bb 9e3e
00000110: 04c5 903e 61c6 abbe 76d7 983e 9bee 363e
00000120: 0647 773e f7cc df3d bf3d ae3e 97be 893e
00000130: 2ec9 533e e796 45be fb74 4d3d 5b3a 4b3e
00000140: 30bb 203d 121c 83be 052e 99be f540 cf3e
00000150: 6037 283e 5551 9c3e 36d4 adbd f83f 70be
00000160: 50a5 f1bc 02b5 b73e d006 463d ce99 03bf
00000170: 9029 883d 93ca 07bf cfc5 123e a096 443e
00000180: e612 67be 2cee 69be 0b18 54be a3e7 513e
00000190: 8c26 65be 6aa6 bd3e 482c a43e dd8b fabe
000001a0: 1f00 2c3e 93cf 7a3e f7b3 2cbd 1c5c a7be
000001b0: 9e1e cb3d 549b 8e3e 3757 413d 4c99 1f3e
000001c0: 2b39 a1be 2e37 413b c053 78be fbaf 8d3c
000001d0: 1435 ee3d fc8f aa3e fa08 39be b859 6ebe
000001e0: 6ab5 74be 1376 0f3f 3eae 38bc 8cc7 db3d
000001f0: 6a09 ff3d b8b2 893d 674e 3bbc e3bc 10bf
0.27667877 0.34303597 0.23134784 0.2821624 0.21994667 0.21280317 -0.23435943 -0.23194915
-0.20041433 0.31612855 -0.10630809 -0.138469 -0.33154798 -0.18677554 0.18956165 0.602276
0.02851914 0.15263748 -0.0076898322 0.25566176 -0.39231682 0.15655255 0.44626528 -0.34779072
-0.028373644 -0.042485274 0.34474218 0.28055772 0.27674794 -0.04355513 0.46570346 -0.4854123
0.0050740554 -0.29733515 -0.28944957 0.1272444 -0.1846306 0.38246208 0.041055523 0.037192434
-0.26192158 0.120988235 0.3316918 0.30915838 0.09487243 0.36316115 -0.24128917 -0.05442513
0.15992166 -0.09120654 0.20597944 0.10628838 -0.2774253 0.17863952 0.20521815 0.5723259
-0.15646356 0.18468572 -0.01291044 0.34087986 -0.31063965 -0.3994123 -0.34113538 0.39507556
-0.33363304 -0.078543365 -0.22790435 0.31002477 0.2827531 -0.3354979 0.29851884 0.17864458
0.24148187 0.10927766 0.34031484 0.2690322 0.20682213 -0.19295846 0.05016039 0.1984648
0.039241016 -0.25607353 -0.29917923 0.40479246 0.16427374 0.305308 -0.08487742 -0.23461902
-0.029497772 0.35880286 0.04834634 -0.5140656 0.066485524 -0.5304348 0.1433327 0.19198084
-0.22565803 -0.22844762 -0.20712297 0.20498519 -0.22377986 0.37041026 0.32065034 -0.48934832
0.16796921 0.24493246 -0.042163815 -0.3268746 0.09917949 0.2785288 0.047202315 0.15585822
-0.31488928 0.0029482353 -0.24250698 0.017295828 0.116312176 0.33312976 -0.1806983 -0.23276412
-0.23897329 0.5603954 -0.011272011 0.1073142 0.124529675 0.06723541 -0.011432267 -0.5653822

decoder.0.linear.bias f4 [16]
00000000: 7023 bb3e a887 c23d 3446 10bd 4e01 9c3e
00000010: a17b 1f3e 0a09 0a3e e18b 893e 630d b43e
00000020: 96a5 e43e 591c 04bf 3d26 b63c ffee fe3d
00000030: de83 1abe 28e9 4a3d 1b1e 07be 499b 72be
0.36550474 0.094985306 -0.0352232 0.30469745 0.15574504 0.1348001 0.26864532 0.35166463
0.44657582 -0.51605755 0.02223503 0.12447929 -0.15089366 0.04953876 -0.13195078 -0.23692049

decoder.1.linear.weight f4 [32, 16]
00000000: dbef e1be b860 ae3d d773 6dbf 4059 8b3e
00000010: fe70 5f3f 92c2 80be 9257 453e ea34 983d
00000020: 4a36 283e d1eb e7bd b07a 373d 6c1d 713d
00000030: 107e 8e3d 73dd a13e cdfd 003e 52c1 2abf
00000040: be79 a6bd 99b9 0e3e ca3a f03d 7c89 11be
00000050: 26b6 edbe 40c8 90be 8e8c 483d 730a b73d
00000060: 934d 1dbb 7550 683f cb08 70be d0bb cd3e
00000070: 77b3 4e3e ac89 3e3e a681 6e3d 95b7 8f3e
00000080: 7bfc 103e e9d1 9ebd ceb3 b4be 3500 863d
00000090: 2a0a 49be 48a9 933e 1d87 513e 08a8 703e
000000a0: 1041 83be 6b30 7fbe 8a7a b4bb 98c8 b7be
000000b0: 9542 b1be e721 693e 6c93 6e3d 2be4 96be
000000c0: 8758 643e 3cc9 a43d a2bb a2bd 9a69 8cbe
000000d0: b699 853d b798 453e 1871 a73e 6beb 163e
000000e0: f59f 48be 50f6 943e 5cff 88bd 7644 273c
000000f0: ec27 17be b9f5 a93d 2027 243e 5e5b 933b
00000100: b0c3 90bd 1278 6dbe 40c7 0abe f022 9abc
00000110: 40f6 b4bd 5843 5d3d e4bc 23be 1463 9abd
00000120: 5cde 3cbe 5ed0 0ebe 60f7 98bc 0464 603e
00000130: 2485 c1bd 64aa 6bbe 902b 95bc 00cf df3d
00000140: 9ce3 10be 7609 6c3e 1e2f 633e bbc8 413e
00000150: c5c5 80be 770d 6f3e 2f2e 263c 5b52 8c3d
00000160: 1dd5 a1be bf1f 97be 583d d6bd 86ab 00bc
00000170: a7e7 9b3d 2a4d 783e d6ca 5e3e 0911 513e
00000180: cc07 6e3e 8be3 6d3e 37a7 293e d7e3 eebc
00000190: c5b5 70be 328b 11bc 2646 8abe 6275 573e
000001a0: 2893 57bd 1d90 04bc fcec 6b3d df41 633d
000001b0: 332b c2bd ac1f a0bd 02c3 6c3e e412 203f
000001c0: 7361 5cbe 9fe6 89be 4fac 853e 72dc d63d
000001d0: 9e58 36be 8f87 a23d 447f 503e 37f9 3abe
000001e0: cbc6 ad3e 98ac ee3d 9678 163e e9c2 293e
000001f0: e9da 93be 4bae 1fbc c0b9 afbc e4f2 6b3e
00000200: daa7 d33d 8d7e 46be 6341 ca3d 295c 0ebc
00000210: 5f43 983e e7e0 813e ceae 103c ffd8 fb3d
00000220: fecf bfbd 7760 62be fe57 1cbd 712d 86be
00000230: ebe2 953e 51de 0bbe eb77 a73e 1243 b03d
00000240: d8d4 4c3e b33b b0bd e94a 1abe 4e23 293e
00000250: 7843 083e 1e7b 153e 8167 6fbd 793b 8c3e
00000260: c927 74be cba4 18bd b562 8cbd 86ac ab3c
00000270: d195 a93d dcf2 66be 24bf ac3d 7938 c43e
00000280: 79d6 cebe 390a 853e 9d1c 24be 9409 a6bd
00000290: 7712 1a3f 7e24 c0be d4dd 073e d5b2 27bd
000002a0: 38d6 433e a0c9 c0be 7ad5 ef3e 04f7 1d3f
000002b0: bfea 38be a4a4 a0be c63d 4a3b 6b1a c0bd
000002c0: 1673 443e 2e32 7cbe 6ae1 1ebe 42d4 63be
000002d0: 8276 76be 602e 753d 46c2 47be b634 463e
000002e0: ec55 4e3e 0c0d a5bd f02d f1bd 98ab 593e
000002f0: 40ec 5cbe f054 a43d 8c1b d2bd 2270 37be
00000300: b4f2 643e 448a 943e 407e d5bd 41a4 e3bc
00000310: aac7 5dbe a333 24be d438 873d c66a 27be
00000320: ae3b c23d dfc3 0fbf c90d 8abc 4472 9cbb
00000330: 1c00 fbbd 93f1 753e 0cf7 98be 1d76 5d3e
00000340: 66a5 ca3d cf76 853e 6832 84bd ae61 8abe
00000350: 8233 a6be 1c24 be3c 78c6 0fbe af28 47be
00000360: 6040 20bf c76b a83e 09e8 023e 1098 1a3f
00000370: d028 f73d e017 873e 56f5 ec3e 177b 843e
00000380: e3f3 063d 173c 1bbe 0881 753e 751f d53d
00000390: 1652 a33e df07 bf3e 23ae 4e3e ec2c 95be
000003a0: 70ac 63be 7d42 4cbd 77ab d23d 7b6b 73be
000003b0: 5c79 7c3e 53a0 f53d 7465 0bbe 801a 6b3e
000003c0: fbe7 3a3e 95e3 04be 19d3 803e 1838 ce3d
000003d0: 6271 ee3d d2f9 0abe 51b0 8f3e 9b4e 88be
000003e0: 0d96 9ebc 907b 6ebe 6e35 81bc 977f 00be
000003f0: 2c1c 323e 1b80 80bd 5879 953e 2d48 963c
-0.44128308 0.085145414 -0.9275488 0.2721653 0.8728179 -0.25148445 0.19271687 0.074319676
0.1642696 -0.11324275 0.04479474 0.05886595 0.06957638 0.31614265 0.12596817 -0.66701233
-0.08128689 0.13937987 0.11729963 -0.14212602 -0.4642803 -0.2827778 0.04896217 0.0893754
-0.0024002537 0.9074777 -0.23440854 0.40182352 0.20185648 0.18607205 0.05822911 0.2806975
0.14158814 -0.07754881 -0.3529343 0.06543008 -0.19632784 0.2884009 0.20461698 0.23501599
-0.25635576 -0.24920814 -0.005507772 -0.35895228 -0.3462111 0.22766839 0.05824606 -0.29470953
0.22299396 0.08046195 -0.07945944 -0.27424318 0.06523459 0.19296537 0.3270347 0.14738242
-0.19592269 0.29094172 -0.06689331 0.010209193 -0.14761323 0.08298821 0.1603055 0.004496976
-0.070685744 -0.23190334 -0.1355257 -0.018815488 -0.08836031 0.054019302 -0.15990025 -0.07538429
-0.18444198 -0.13946673 -0.018672645 0.21913153 -0.09449223 -0.23014218 -0.018209249 0.10928154
-0.14149326 0.23050484 0.22185943 0.18924229 -0.25150886 0.2334498 0.010142847 0.068516456
-0.31607905 -0.29516408 -0.10460919 -0.007853394 0.076125436 0.24248186 0.21757063 0.20416655
0.23245162 0.23231332 0.16567694 -0.029161377 -0.2350684 -0.008883284 -0.27006644 0.21040872
-0.052630574 -0.008091 0.057599053 0.05548274 -0.09480896 -0.07818541 0.23121265 0.62528825
-0.21521549 -0.26933762 0.26108024 0.10491265 -0.17807242 0.07936012 0.20361048 -0.1825913
0.3394073 0.116540134 0.14694437 0.16578259 -0.28877953 -0.0097461445 -0.021450877 0.23041874
0.103347495 -0.19384213 0.09875753 -0.008688965 0.297389 0.253669 0.008830739 0.12297248
-0.09365843 -0.22107111 -0.038169853 -0.26206544 0.29274687 -0.13659026 0.32708678 0.08606543
0.20003068 -0.08605137 -0.15067638 0.16517374 0.13306987 0.14597747 -0.05844832 0.27389124
-0.23843302 -0.037266534 -0.06854764 0.020956289 0.08280528 -0.22553581 0.08434895 0.38324335
-0.40398005 0.25984362 -0.1602654 -0.08107296 0.60184425 -0.3752784 0.13268214 -0.040942032
0.19124687 -0.37653828 0.46842557 0.6170504 -0.18058299 -0.3137561 0.0030859574 -0.09380039
0.19184527 -0.24628517 -0.15515676 -0.22248939 -0.24068645 0.05985868 -0.19507703 0.19356045
0.20149964 -0.08059129 -0.1177634 0.21256864 -0.21574497 0.08024013 -0.102591604 -0.17913869
0.22358209 0.29011738 -0.10424471 -0.027788283 -0.21658197 -0.16035323 0.06602636 -0.16349325
0.09484039 -0.5615825 -0.016852276 -0.0047743637 -0.1225588 0.24017935 -0.29875982 0.21627088
0.098948285 0.26067206 -0.06454927 -0.2702765 -0.32461172 0.023210578 -0.14040554 -0.19449113
-0.6259823 0.32894728 0.12783827 0.6038828 0.12068331 0.26385403 0.46280926 0.2587516
0.032947432 -0.15159641 0.23975003 0.104063906 0.31898564 0.37310693 0.20183615 -0.29135835
-0.22233748 -0.049868096 0.102866106 -0.2377147 0.2465567 0.1199347 -0.1361292 0.22959328
0.18252556 -0.1297744 0.25161055 0.10069293 0.1164272 -0.13571861 0.28064206 -0.2662247
-0.01935866 -0.23289323 -0.015772548 -0.12548672 0.17393559 -0.06274434 0.2919414 0.018344963

decoder.1.linear.bias f4 [32]
00000000: 7fa1 cfbd 1e89 93be 177b 873e 97be a3be
00000010: 3283 1fbe 05cb 84be 975a 983d 15b6 ee3c
00000020: 7d4f 773e 90a7 8c3d b755 013f cec4 61be
00000030: 7e3a 393e cacd 53bf f78c b6be d932 763e
00000040: 3dbf 20be 0011 87be 3d24 ac3e 3c70 53be
00000050: 246d ac3e 805c 013f b444 693e 5977 b2bd
00000060: ff9b 8e3e 816b 33be 8f7e 533e 51eb b5bc
00000070: 42f5 463e 6070 0e3c b06a 08bf 13bb afbe
-0.10138225 -0.2881555 0.26461098 -0.31981346 -0.15577391 -0.25936142 0.07439154 0.029139558
0.24151416 0.068678975 0.50521415 -0.22047731 0.18088719 -0.82735884 -0.35654423 0.24042834
-0.15697952 -0.26380157 0.33621398 -0.20648283 0.33677018 0.5053177 0.22780114 -0.0871417
0.2785339 -0.17521478 0.20653747 -0.022206934 0.19429496 0.0086937845 -0.5328779 -0.34322414
