models/ipod_model_concat.pt (torch, 141737 bytes, 20 tensors)

encoder.0.linear.weight f4 [128, 45]
0	0x3e2b86af	0.16750596
1	0x3f29e180	0.6635971
2	0xbc5db1f9	-0.0135312015
3	0x3f13c28e	0.5771874
4	0xbc5259c3	-0.012838784
5	0xb9b93060	-0.00035321992
6	0xbf63f15c	-0.8904016
7	0xbe81b308	-0.25331903
8	0x3e8f867e	0.28032297
9	0x3e7cafd9	0.24676456
10	0x3e3c8f50	0.18414044
11	0x3df194b3	0.1179594
12	0x3ec49d58	0.38401294
13	0x3e9d8eef	0.30773112
14	0x3ece393f	0.4027805
15	0x3ea3bd4c	0.3198036
16	0x3ea16735	0.31524053
17	0x3dbf80a4	0.09350708
18	0x3e43e149	0.19128908
19	0x3ea6c199	0.32569578
20	0x3eb2cb53	0.3492075
21	0x3df4fce0	0.119622946
22	0xbedd9d7d	-0.43284217
23	0x3e404264	0.18775326
24	0x3e62ebf0	0.22160316
25	0x3ed79f90	0.42113924
26	0x3e1bf86e	0.15231487
27	0x3ebf544f	0.3736901
28	0xbde0db11	-0.109792836
29	0xbe2e1736	-0.17001042
30	0xbe50654d	-0.20351143
31	0xbe89a54e	-0.2688393
32	0x3ca90456	0.02063195
33	0xbed379b2	-0.41303784
34	0xbed33adc	-0.41255844
35	0x3d9a5474	0.075356394
36	0xbe0228ae	-0.1271083
37	0xbe370e2f	-0.17876504
38	0x3e5ecbd9	0.21757449
39	0xbd041a64	-0.03225173
40	0xbe4d30ec	-0.20038193
41	0x3d84fd09	0.06493575
42	0x3e9f5689	0.3112071
43	0x3f09a95d	0.5377405
44	0x3ddc1eda	0.10748072
45	0x3f102dab	0.56319684
46	0xbc6a98ae	-0.014318628
47	0xbe04d967	-0.12973557
48	0x3e01c4ef	0.1267278
49	0xbd884298	-0.06653327
50	0x3e198139	0.14990701
51	0x3dde3141	0.10849238
52	0x3f149860	0.58045006
53	0x3e4aab7e	0.19791982
54	0xbd8dbf34	-0.06921235
55	0xbd1a09fe	-0.037607186
56	0x3e0e283d	0.13882537
57	0x3e1c0e09	0.15239729
58	0xbeed583e	-0.46356386
59	0xbe341800	-0.1758728
60	0xbea8a113	-0.3293539
61	0x3c41e889	0.011835226
62	0x3cc5708f	0.024101524
63	0xbeb15f38	-0.3464296
64	0xbd1f3fac	-0.03887908
65	0x3d9dc4f0	0.077035785
66	0xbeddfa14	-0.43354857
67	0xbe65b97a	-0.22434035
68	0x3f4e7ef9	0.80662495
69	0x3ec730e0	0.38904476
70	0x3ed3948d	0.41324273
71	0xbe424e7f	-0.18975256
72	0xbf4ba1e7	-0.7954392
73	0x3c8f533f	0.01749575
74	0x3d1eb04b	0.038742345
75	0xbdb9ff5e	-0.090819106
76	0x3d48bc5f	0.04900777
77	0xbd955cac	-0.072930664
78	0xbe330a10	-0.17484307
79	0xbea8e732	-0.32988888
80	0xbf9b869e	-1.2150457
81	0x3ca32664	0.019915767
82	0x3e3e1188	0.18561375
83	0xbccaaaca	-0.024739642
84	0x3d5b3752	0.053519554
85	0x3e976d44	0.2957555
86	0x3e1b4706	0.15163812
87	0xbf47ffd7	-0.78124756
88	0xbd6c5d53	-0.05770619
89	0xbf1ee706	-0.62071264
90	0x3e8eee09	0.2791598
91	0x3eced382	0.40395743
92	0xbd28597c	-0.041100964
93	0x3d74c29d	0.05975591
94	0x3ddfada3	0.109217905
95	0x3bf32eb8	0.007421341
96	0xbed1b11d	-0.4095544
97	0xbc1b961d	-0.009496239
98	0xbf507660	-0.81430626
99	0x3a082696	0.0005193738
100	0xbec90873	-0.3926426
101	0xbe2b6577	-0.16737925
102	0x3cce49f4	0.025181748
103	0x3b9c7e5d	0.004775806
104	0x3ec42c6d	0.38315144
105	0xbdb5224f	-0.088444345
106	0xbeb3242c	-0.34988534
107	0xbedabb52	-0.4272104
108	0xbe139787	-0.14413272
109	0xbee415cb	-0.44547877
110	0xbe8459b8	-0.258497
111	0xbe5aa97c	-0.21353716
112	0x3c881b18	0.016614482
113	0x3e0f3b28	0.1398741
114	0xbf010ba1	-0.5040837
115	0xbea311ec	-0.3184961
116	0xbf09ef18	-0.53880453
117	0x3e7a2aca	0.24430385
118	0xbe3cdecb	-0.18444364
119	0xbd8bf5f6	-0.06834023
120	0x3d39c17d	0.04535054
121	0xbc5e13d3	-0.013554531
122	0x3cf84625	0.030306885
123	0x3dac6196	0.084170505
124	0x3e8279a3	0.25483426
125	0x3cba5046	0.022743355
126	0x3db1cf1b	0.0868208
127	0x3d8037ec	0.06260666
128	0x3e042ee9	0.1290852
129	0xbd7fa025	-0.062408585
130	0xbce00172	-0.02734444
131	0x3c4e3024	0.01258472
132	0xbc09385c	-0.0083752535
133	0xbe2b6b5e	-0.16740176
134	0x3e13c89f	0.14432
135	0x3dacba06	0.08433919
136	0xbd6cebf0	-0.057842195
137	0xbb8e31ff	-0.004339456
138	0xbd302661	-0.04300535
139	0x3dba07cb	0.09083518
140	0xbdc71b08	-0.09721953
141	0xbe176bd7	-0.14787231
142	0x3ed461f4	0.41480982
143	0xbe8bf971	-0.27338746
144	0xbdca069a	-0.098645404
145	0xbeb3ea02	-0.3513947
146	0xbf02d50d	-0.5110634
147	0xbee98cef	-0.45615336
148	0xbf746864	-0.9547179
149	0xbf999252	-1.1997778
150	0xbe436842	-0.1908274
151	0xbf229da8	-0.63521814
152	0xbf10dc5a	-0.5658623
153	0xbf05966d	-0.52182657
154	0xbf24b962	-0.6434537
155	0xbf39ecf0	-0.7262716
156	0xbc782c01	-0.01514721
157	0xbf47adeb	-0.7799975
158	0x3e70bf5e	0.23510501
159	0xbe907278	-0.28212333
160	0x3ee341a9	0.44386032
161	0x3e88fd58	0.26755786
162	0xbe562834	-0.20913774
163	0xbd0ef8e1	-0.03490532
164	0xbc6c326b	-0.014416317
165	0x3c051e7e	0.008124946
166	0xbd139b2e	-0.036036663
167	0xbdd6d4e2	-0.10489823
168	0x3d50d145	0.050980825
169	0x3e82d3a1	0.25552085
170	0x3f1e0a49	0.61734444
171	0x3cc423f7	0.02394293
172	0xbdde3558	-0.10850018
173	0xbda74149	-0.08166749
174	0x3c7cf7da	0.015439952
175	0xbd7d5899	-0.06185207
176	0xbd22ef93	-0.039779257
177	0x3f06d58a	0.52669585
178	0x3efc9da8	0.49339032
179	0xbf572db4	-0.8405411
180	0xbe0e6fe4	-0.1390987
181	0x3d1e57de	0.038658015
182	0x3d944774	0.07240191
183	0x3dfc2b44	0.1231294
184	0xbdb3fdf6	-0.087886736
185	0x3cde5ca0	0.027143776
186	0xbdd661bc	-0.1046786
187	0x3ca38533	0.019960975
188	0x3d881040	0.066437244
189	0x3d810d26	0.06301336
190	0x3d820fd1	0.06350673
191	0x3e1776af	0.14791368
192	0x3de9337b	0.11386772
193	0xbd59894a	-0.053109445
194	0xbd6e16bd	-0.058127154
195	0x3d5dd3fc	0.054157242
196	0xbda706df	-0.081556074
197	0x3db50b32	0.08840026
198	0xbe0a372c	-0.13497609
199	0x3e04f665	0.12984617
200	0xbc3b87d9	-0.011445963
201	0x3c3a55bc	0.01137298
202	0xbd524cdd	-0.051342834
203	0xbbfbabbe	-0.0076803854
204	0xbd190c42	-0.037365206
205	0x3da757d8	0.08171052
206	0x3dca3bf3	0.09874716
207	0xba2e2cf3	-0.0006644271
208	0xbdd5468b	-0.10413846
209	0xbda0725e	-0.07834314
210	0xbdfa5a7f	-0.12224292
211	0xbdb3a524	-0.087717324
212	0x3d44cfe0	0.048049808
213	0xbdf38a67	-0.118916325
214	0xbd02e14f	-0.031953152
215	0x3d0fc404	0.035099044
216	0xbd7b12ec	-0.061297342
217	0x3dc686cc	0.09693679
218	0xbddf122c	-0.10892138
219	0x3d5e3380	0.054248333
220	0xbdb0ab68	-0.08626443
221	0x3dd6a39c	0.10480425
222	0xbe176166	-0.14783248
223	0x3dd78d6d	0.10525022
224	0xbd8dfb08	-0.06932646
225	0xbd84c690	-0.06483185
226	0x3e056439	0.13026513
227	0xbdf093ae	-0.11746918
228	0x3d2b49d4	0.041818455
229	0xbd27ebd0	-0.040996373
230	0xbd86f926	-0.0659049
231	0xbcf0d7d8	-0.029399797
232	0x3d374044	0.044739023
233	0xbde823fb	-0.11334988
234	0xbe13989b	-0.14413683
235	0xbd05827c	-0.032595143
236	0x3c9ebcf8	0.019377217
237	0x3c596630	0.013268992
238	0xbded1d46	-0.11577849
239	0xbd563fa8	-0.0523068
240	0xbdae5468	-0.08512193
241	0x3dd0dbea	0.10198195
242	0xbe13b581	-0.14424707
243	0x3ce47600	0.027888298
244	0xbd97d854	-0.07414308
245	0x3d0cbaac	0.03435771
246	0xbdb422f6	-0.08795731
247	0xbc80bc68	-0.01571484
248	0xbd919a61	-0.071095236
249	0x3d8d91c4	0.06912568
250	0x3d5f2bc4	0.054485098
251	0x3e081b4f	0.13291667
252	0xbc81a930	-0.015827745
253	0x3dfecec2	0.1244178
254	0xbdf69d2a	-0.120416954
255	0xbe0ff5fe	-0.14058682

encoder.0.linear.bias f4 [128]
0	0x3e2a34be	0.16621682
1	0x3ec201f6	0.3789212
2	0xbe7395e0	-0.23787642
3	0xbcf09f38	-0.029372796
4	0xbdf753ec	-0.12076554
5	0xbc76ef00	-0.0150716305
6	0xbd57a84c	-0.052650735
7	0xbaf5ae89	-0.0018744032
8	0xbd1f1029	-0.03883377
9	0x3deb1db5	0.114802755
10	0xbe2f1161	-0.17096473
11	0xbe28948d	-0.16462918
12	0xbe54714d	-0.20746346
13	0x3b5f7881	0.0034098926
14	0x3d374dc5	0.0447519
15	0x3da3dbbe	0.08000897
16	0xbc063eed	-0.008193714
17	0xbe1d4b8f	-0.15360855
18	0xbdf8429f	-0.12122082
19	0x3d9a35d7	0.075298004
20	0x3e0f81ea	0.14014402
21	0xbcd8550d	-0.026407743
22	0xbe0a061b	-0.13478892
23	0xbd8fab62	-0.070151106
24	0x3d19b804	0.037529007
25	0xbe1e3047	-0.15448104
26	0x3df8eb69	0.12154276
27	0xbd75ef71	-0.060042802
28	0x3ccf5ce8	0.025312856
29	0xbbfdc355	-0.0077442327
30	0xbcbb5d65	-0.022871682
31	0x3ed3482a	0.41265994
32	0xbe6437bd	-0.22286887
33	0xbd8c76c4	-0.0685859
34	0xbd982901	-0.07429696
35	0xbd582db3	-0.052777957
36	0x3deb7b04	0.11498073
37	0xbd7130fb	-0.058884602
38	0x3d5f10e6	0.054459475
39	0x3d6b8722	0.05750192
40	0x3e5041a7	0.20337544
41	0xbdacbd65	-0.08434562
42	0xbe38710d	-0.18011875
43	0xbd139d31	-0.03603858
44	0xbdf83fc4	-0.12121537
45	0x3d64f7ac	0.05590026
46	0xbc5ca6e4	-0.013467524
47	0xbda99453	-0.08280244
48	0x3be5706a	0.007001926
49	0x3de7d81a	0.11320515
50	0x3e7b9e1e	0.24572036
51	0xbdabca0d	-0.083881475
52	0x3d56ebb3	0.052470874
53	0xbc5b6caf	-0.013392611
54	0x3d4d0a90	0.0500589
55	0x3d0cafff	0.03434753
56	0xbe2e9337	-0.17048346
57	0x3e9bbe67	0.30418703
58	0xbdb620e1	-0.0889299
59	0x3cea1e30	0.028578848
60	0x3dc3ce44	0.095608264
61	0xbdb198ed	-0.086717464
62	0x3d905cba	0.07048936
63	0xbe27333a	-0.16328135
64	0x3e9f8b02	0.31160742
65	0xbca59fb2	-0.02021775
66	0x3e9f2799	0.31084898
67	0x3ceba649	0.028765814
68	0xbd4a68f9	-0.049416516
69	0x3e34e257	0.17664467
70	0xbb03de0c	-0.0020121364
71	0x3dbedfb5	0.093200125
72	0x3c4654cc	0.012105178
73	0xbe027140	-0.12738514
74	0x3da5782e	0.08079563
75	0xbd8b897a	-0.06813331
76	0x3d7da911	0.061928812
77	0x3d59f1c7	0.053209092
78	0x3c7eb52f	0.015546127
79	0x3dc8a4b0	0.09797037
80	0x3de18976	0.11012547
81	0x3d3b6715	0.045752604
82	0xbdc7cf47	-0.09756332
83	0x3cf9bebb	0.030486455
84	0x3c4b6589	0.012414345
85	0x3dba56e7	0.090986066
86	0xbe1e2a26	-0.15445766
87	0xbd72ba6d	-0.05925982
88	0xbe120ade	-0.14261958
89	0x3cfb59bc	0.030682437
90	0xbe362eee	-0.1779134
91	0xbda1608e	-0.078797445
92	0xbe192455	-0.14955266
93	0xbbc80d10	-0.006105073
94	0x3e188473	0.14894275
95	0xbdba62c2	-0.09100868
96	0xbdac7288	-0.084202826
97	0x3d8dc275	0.06921855
98	0x3d05b18b	0.03264002
99	0xbd853d6d	-0.06505857
100	0xbe0b5eb6	-0.13610348
101	0x3ea22a31	0.31672814
102	0x3eab61c4	0.33473027
103	0xbe3a1235	-0.18171008
104	0xbdd5b888	-0.10435587
105	0xbdba2eb4	-0.09090939
106	0x3e3c7350	0.18403363
107	0xbde7cc9a	-0.113183215
108	0xbe797cc4	-0.24364
109	0xbdaa7721	-0.08323503
110	0xbe3e6399	-0.18592681
111	0xbe13bb29	-0.14426865
112	0xbe279236	-0.16364369
113	0x3e4bf7f8	0.19918811
114	0xbe01f7c4	-0.12692171
115	0xbdf0f59d	-0.11765597
116	0x3e0ced06	0.13762292
117	0xbdca5678	-0.09879774
118	0xbe2cd9f3	-0.16880016
119	0x3bd56702	0.0065125236
120	0xbd0b3418	-0.033985227
121	0x3da12ca0	0.0786984
122	0xbe359046	-0.17730817
123	0xbe488cf4	-0.1958502
124	0xbd01d731	-0.031699363
125	0xbdade402	-0.08490755
126	0xbdb51871	-0.088425525
127	0xbe578eb5	-0.21050532

encoder.1.linear.weight f4 [64, 128]
0	0xbf6b57d4	-0.9193089
1	0xbf12a804	-0.5728762
2	0xbb8f553d	-0.004374175
3	0x3ee90579	0.45511988
4	0xbdb98606	-0.09058766
5	0x3d56a492	0.05240304
6	0x3d683f1a	0.056700803
7	0xbdebcfd0	-0.115142465
8	0xbcf11d49	-0.02943291
9	0xbda03804	-0.07823184
10	0x3c8ef4e8	0.017450765
11	0x3d53cbba	0.05170796
12	0xbd273371	-0.040820543
13	0x3d245293	0.04011781
14	0x3cb4ac82	0.022054914
15	0xbf4a28f6	-0.7896875
16	0x3d39a880	0.04532671
17	0x3e18cfcb	0.14923017
18	0x3da88807	0.0822907
19	0x3eb90864	0.36139214
20	0xbe701e89	-0.23449148
21	0x3dc0cce9	0.094140835
22	0x3d0b5282	0.034014232
23	0xbd342cde	-0.0439881
24	0xbd7692bc	-0.06019853
25	0xbbbe665f	-0.0058105434
26	0xbdf4f4f5	-0.11960784
27	0xbd1501c4	-0.036378637
28	0x3db33cab	0.08751806
29	0x3e0fcba7	0.14042531
30	0x3d0fdaec	0.03512089
31	0xbf159b1c	-0.58439803
32	0x3d9202ff	0.07129478
33	0xbd834310	-0.064092755
34	0xbd42e9b1	-0.047586147
35	0x3abe8e90	0.0014538337
36	0x3dc4c63f	0.09608125
37	0x3dde021c	0.10840246
38	0x3e177916	0.14792284
39	0x3db21cd4	0.08696905
40	0x3d6fa61e	0.05850803
41	0x3c12362a	0.0089240465
42	0x3e194de7	0.14971124
43	0xbe06be71	-0.13158585
44	0x3ea5f4ca	0.32413322
45	0xbe18e4c2	-0.14931014
46	0x3bb62b3f	0.0055593546
47	0x3d972dc5	0.07381777
48	0xbd6bd9ee	-0.05758088
49	0x3d4cfc46	0.050045274
50	0xbdb3fa80	-0.087880135
51	0xbc23a58e	-0.009988202
52	0x3e445084	0.1917134
53	0xbddced84	-0.1078749
54	0x3dd03a40	0.1016736
55	0x3d90e0f3	0.07074156
56	0xbc629f27	-0.01383189
57	0xbea7e047	-0.32788298
58	0x3d74d1d2	0.059770413
59	0xbc161c69	-0.009162047
60	0x3e23136a	0.15925375
61	0x3dc10bc0	0.09426069
62	0x3ee1cf0d	0.4410328
63	0xbc217890	-0.0098554045
64	0xbb599c43	-0.0033204712
65	0xbce1b101	-0.027550222
66	0xbecaf738	-0.39641738
67	0xbe005ad1	-0.12534644
68	0xbd4b30d9	-0.04960713
69	0x3e56f533	0.20991974
70	0x3dd0a695	0.10188023
71	0xbe43304a	-0.1906139
72	0x3dea75e8	0.1144827
73	0x3d76c449	0.060245786
74	0x3e5b09ca	0.21390453
75	0xbe2903a7	-0.165053
76	0x3d036447	0.032078054
77	0xbe29edb5	-0.16594584
78	0x3ec3b5d6	0.38224667
79	0x3e3f5ef3	0.18688564
80	0x3e29f31d	0.16596647
81	0x3ddbf61d	0.10740302
82	0xbd828762	-0.063734785
83	0x3ddd3527	0.10801154
84	0x3e1f2241	0.1554041
85	0xbc89509f	-0.016762076
86	0xbde43858	-0.11143559
87	0x3e3f9ee2	0.18712953
88	0xbc205eaf	-0.009788199
89	0x3da4271a	0.080152705
90	0x3da81dda	0.08208819
91	0xbc819059	-0.0158159
92	0x3e807b02	0.25093848
93	0x3cc9f222	0.02465159
94	0xbcc5f358	-0.024163887
95	0x3d81775d	0.06321595
96	0x3d57c1c3	0.05267502
97	0x3e76714c	0.24066657
98	0xbd0540d8	-0.032532543
99	0x3db67ded	0.08910737
100	0x3d072bac	0.033000633
101	0xbeb464cf	-0.3523316
102	0xbe71b716	-0.23604998
103	0xbe06a57d	-0.13149066
104	0x3e1f6a65	0.1556793
105	0x3ba09f5a	0.0049018087
106	0xbc22d7b2	-0.009939121
107	0x3ca12dc7	0.019675149
108	0x3d6f65a9	0.05844656
109	0x3fa292df	1.2701072
110	0x3dc579fb	0.096424066
111	0x3dd8a899	0.105790325
112	0x3da4a401	0.08039094
113	0xbe81d034	-0.2535416
114	0x3d68d574	0.05684419
115	0x3d2b6e90	0.041853487
116	0x3dc1ec07	0.09468847
117	0x3d375693	0.044760298
118	0xbd4a1b48	-0.049342424
119	0x3d8957d2	0.067062035
120	0x3dc91e00	0.09820175
121	0xbe36e515	-0.17860825
122	0xbda7963b	-0.08182951
123	0xbca6c804	-0.020359047
124	0x3e0a69b9	0.13516892
125	0xba0f4c04	-0.00054663443
126	0xbd4822db	-0.048861366
127	0x3e06ac1d	0.13151594
128	0x3c248da7	0.010043538
129	0xbd9e5fe3	-0.07733133
130	0xbd6547cc	-0.055976674
131	0x3ccb6676	0.02482913
132	0xbb3f0c80	-0.0029151738
133	0xbadbfa00	-0.001678288
134	0xbd849123	-0.06472995
135	0x3cbdf1bc	0.023186557
136	0x3ca05c54	0.019575275
137	0xbdc8191f	-0.097704165
138	0xbd7da63e	-0.06192612
139	0xbdd61eec	-0.10455117
140	0x3d276a13	0.040872645
141	0xbc843fdc	-0.016143732
142	0x3c97169f	0.018443404
143	0xbd177e8f	-0.03698593
144	0xbdc2b0cf	-0.0950638
145	0x3d4b52ef	0.04963964
146	0xbcaa7f68	-0.020812705
147	0xbb1688b7	-0.0022969672
148	0x3c59d829	0.0132961655
149	0xbd63f854	-0.055656746
150	0x3d8c6768	0.06855661
151	0xbd239614	-0.039938048
152	0xbcd2840e	-0.025697734
153	0x3d25cda4	0.040479317
154	0x3cac742c	0.021051489
155	0x3d721d01	0.05910969
156	0xbc155801	-0.00911522
157	0xbc837a8c	-0.016049646
158	0x3d441a59	0.04787669
159	0x3d9ee991	0.07759393
160	0xbdc7332f	-0.09726559
161	0x3c839ae0	0.016065061
162	0xbdbbf566	-0.091776654
163	0xbdd53f54	-0.104124695
164	0x3cfddec4	0.030990012
165	0xbd9e49a0	-0.077288866
166	0xbda47576	-0.080302164
167	0xbdb84273	-0.08997049
168	0x3cdd82b0	0.027039856
169	0x3d2a2afa	0.041544892
170	0x3ce9ec8f	0.028555183
171	0x3d565b87	0.05233338
172	0xbd0befdf	-0.034164306
173	0xbd35fdbd	-0.044431437
174	0x3d15703e	0.036483996
175	0xbd07e6b9	-0.03317902
176	0x3dc6480b	0.0968171
177	0x3c2d5040	0.010578215
178	0x3d015457	0.031574573
179	0x3be65ed2	0.0070303464
180	0xbd90e90f	-0.070757024
181	0xbd48f5a3	-0.049062382
182	0xbd1697ac	-0.03676574
183	0x3ca5603c	0.02018749
184	0xbc3209f0	-0.010866627
185	0x3d313971	0.04326767
186	0x3c890760	0.01672715
187	0xbdbe07b2	-0.092788115
188	0xbdcc5e23	-0.09978893
189	0xbcb6a14f	-0.022293715
190	0xbd7b7c8d	-0.061398078
191	0xbd24aa64	-0.04020156
192	0xbdc57f35	-0.096434034
193	0xbda4018a	-0.08008106
194	0xbd62c093	-0.055359434
195	0xbcc4e976	-0.024037104
196	0xbd994a6e	-0.074848995
197	0xbd03d354	-0.03218396
198	0xbd4199c9	-0.0472658
199	0x3b331d43	0.0027330674
200	0xbc948911	-0.018131765
201	0xbd56568b	-0.052328628
202	0xbd9be3a1	-0.07611776
203	0xbddf8544	-0.1091409
204	0xbce779cc	-0.02825632
205	0xbd5d2210	-0.053987563
206	0xbc9525e3	-0.018206542
207	0xbd635403	-0.05550004
208	0xbdb9d307	-0.090734534
209	0x3cefc374	0.029268004
210	0x3d334436	0.043766223
211	0x3d89117b	0.06692787
212	0x3daa24ac	0.08307776
213	0x3c29a734	0.010354806
214	0xbda3fe1a	-0.080074504
215	0xbcf905f5	-0.030398348
216	0xbccd24c0	-0.025041938
217	0xbd932f54	-0.071867615
218	0xbdab8679	-0.08375258
219	0x3ce1e4fd	0.02757501
220	0x3c862bd9	0.01637833
221	0x3d8289b1	0.06373919
222	0xbdd1a5f6	-0.10236733
223	0x3d6a6e56	0.05723413
224	0xbda91a1e	-0.082569346
225	0xbcd21227	-0.025643421
226	0x3d8c086e	0.06837545
227	0xbd8626f5	-0.06550399
228	0xbca155d0	-0.019694239
229	0xbdab4ad4	-0.08363882
230	0xbd8cd72f	-0.068769805
231	0xbca5a47f	-0.02022004
232	0x3d7243db	0.059146743
233	0xbd800c42	-0.06252338
234	0x3d1fe889	0.039040122
235	0xb9df97d1	-0.00042646987
236	0xbd1c4f75	-0.038161714
237	0xbd6aaa49	-0.057291303
238	0x3cd25296	0.025674146
239	0x3cf38445	0.029726157
240	0xbd85702b	-0.06515535
241	0xbd9bbabb	-0.076039754
242	0x3b98c5d0	0.004662253
243	0x3d1a5375	0.037677247
244	0x3d15f0fc	0.036606774
245	0xbd2d08f8	-0.04224488
246	0xbdc4f779	-0.09617514
247	0xbcb245ae	-0.021761741
248	0x3bbcda7b	0.0057633496
249	0xbdc29992	-0.095019475
250	0xbdde534a	-0.1085573
251	0x3c052c3e	0.008128224
252	0xbbda6881	-0.00666529
253	0x3b168a40	0.0022970587
254	0x3dd17858	0.10228032
255	0xbc9c2d4d	-0.01906457

encoder.1.linear.bias f4 [64]
0	0xbc821653	-0.015879786
1	0xbdad96e5	-0.084760465
2	0xbde26806	-0.11054997
3	0xbdd5ec3d	-0.104454495
4	0x3db324b7	0.08747237
5	0xbdd07549	-0.1017862
6	0x3c87207f	0.016494988
7	0xbdc2a5f3	-0.095043086
8	0xbdc8de1e	-0.098079905
9	0xbd8ac1de	-0.067752585
10	0x3c178a11	0.009249226
11	0xbd625c85	-0.055264015
12	0x3d013caa	0.031551994
13	0x3c0003a5	0.007813369
14	0xbdb6cbba	-0.089255765
15	0xbca0ede6	-0.019644689
16	0x3ccecf4d	0.025245333
17	0x3a2cb823	0.0006588718
18	0x3d89b4cc	0.067239374
19	0x3df76e88	0.12081629
20	0xbc2843cb	-0.010270069
21	0x3dbf4588	0.09339434
22	0xbd6e9727	-0.05824962
23	0xbcf50ea7	-0.029914213
24	0xbcbe5523	-0.023233956
25	0x3d0d3786	0.03447678
26	0x3dd3233c	0.10309455
27	0xbd7c833f	-0.061648604
28	0x3d7a6fc8	0.06114176
29	0x3db7f8e3	0.08983018
30	0x3e096faa	0.13421503
31	0x3e0d30e3	0.1378818
32	0x3c87bfff	0.016571043
33	0xbd793275	-0.060839135
34	0x3dda4f93	0.10659709
35	0x3c9859cf	0.018597512
36	0xbd1c2cda	-0.03812871
37	0xbcf7ad90	-0.030234128
38	0x3e13046c	0.14357156
39	0xbd22039e	-0.03955423
40	0x3dacb7cd	0.08433495
41	0xbda9e611	-0.08295835
42	0xbd9aaa3c	-0.07552001
43	0x3e17c951	0.1482289
44	0xbda0e02a	-0.07855256
45	0x3cc90edd	0.02454322
46	0x3ddc249f	0.107491724
47	0xbddba9a9	-0.107257195
48	0xbd9dd6a7	-0.07706957
49	0x3d78c194	0.060731485
50	0xbdb1f16a	-0.08688624
51	0xbdcfa076	-0.10138027
52	0x3e2d5272	0.16925982
53	0x3e52e476	0.20594963
54	0x3e2257ac	0.15853757
55	0x3c9d21af	0.0191811
56	0xbd6c2bef	-0.057659086
57	0xbd642846	-0.05570247
58	0x3d76fc22	0.060299046
59	0xbc943bb2	-0.018094871
60	0xbdf1c2c8	-0.1180473
61	0x3dd981b5	0.10620443
62	0x3c70f888	0.014707692
63	0xbd4b639f	-0.049655553

encoder.2.linear.weight f4 [32, 64]
0	0x3e06f8c4	0.13180834
1	0xbd95ebfc	-0.07320401
2	0x3da722fd	0.0816097
3	0x3dbfaf96	0.09359662
4	0xbe82042a	-0.25393802
5	0x3df8b43a	0.121437505
6	0x3d0fb334	0.03508301
7	0x3dba0368	0.09082681
8	0xbd91921e	-0.07107948
9	0x3df76b45	0.12081007
10	0x3ec9695f	0.39338204
11	0xbdeda8de	-0.116044745
12	0xbdbd00fe	-0.09228705
13	0xbcd54155	-0.02603213
14	0x3bc7f8e0	0.0061026663
15	0x3e567f06	0.20946893
16	0x3bc84b44	0.006112488
17	0x3d73ef29	0.059554253
18	0xbd18f09e	-0.037338845
19	0x3e8bfc7f	0.27341077
20	0xbd0166dc	-0.031592235
21	0xbe9106be	-0.28325456
22	0xbdf44128	-0.1192649
23	0xbaa64461	-0.0012685173
24	0xbdd590b0	-0.104279876
25	0xbd65a65a	-0.05606685
26	0xbcd30601	-0.025759699
27	0x3c4a9d77	0.012366644
28	0xbd677182	-0.056504734
29	0x3d8b3301	0.067968376
30	0x3ee0ebe5	0.43929973
31	0x3b8654d0	0.004099466
32	0x3dc99473	0.098427676
33	0xbd3a3356	-0.045459114
34	0x3e8014fe	0.25016016
35	0x3db348ba	0.08754106
36	0x3e356b46	0.17716703
37	0x3e544d2a	0.20732561
38	0x3e69daf1	0.22837426
39	0x3d90f332	0.07077636
40	0x3de3346e	0.110939845
41	0x3d8db9ae	0.06920181
42	0xbd6a7e17	-0.057249155
43	0x3cf698d5	0.030102173
44	0x3dabc517	0.08387201
45	0x3ec554b3	0.38541183
46	0x3db10a20	0.08644509
47	0xbd800ad6	-0.06252067
48	0x3d3a5590	0.045491755
49	0xbdeed449	-0.11661584
50	0x3aa32880	0.0012447983
51	0xbd877732	-0.066145316
52	0x3c8d9f1e	0.017287787
53	0x3edaa638	0.4270494
54	0x3df6324b	0.12021311
55	0x3c3f1267	0.011662102
56	0x3c044c57	0.008074841
57	0x3d6672ef	0.056261953
58	0xbd3eb715	-0.04656132
59	0x3c32a5a0	0.010903746
60	0x3da44d00	0.08022499
61	0x3b84ff6c	0.004058769
62	0xbda4b287	-0.08041864
63	0x3cc2ad0c	0.023764156
64	0xbddb3aaa	-0.10704549
65	0x3deb8826	0.11500578
66	0xbdd01f63	-0.101622365
67	0xbcaca5bf	-0.021075128
68	0xbea15be4	-0.3151542
69	0xbd7d7b1a	-0.061884977
70	0xbd2fc621	-0.04291356
71	0xbd1b849e	-0.03796827
72	0x3db38e88	0.0876742
73	0x3df0cea6	0.11758165
74	0xbf80f9f9	-1.0076286
75	0x39e5b43a	0.00043812563
76	0xbe4059f6	-0.18784317
77	0xbc8e02b5	-0.017335275
78	0xbdebd500	-0.11515236
79	0x3c63188d	0.013860834
80	0x3d11be0a	0.035581626
81	0x3e155812	0.14584377
82	0x3d2cc055	0.04217561
83	0x3efd9b62	0.4953261
84	0xbd357f04	-0.044310585
85	0xbd85188c	-0.064988226
86	0xbdb5e89e	-0.08882259
87	0x3e0daee5	0.13836248
88	0x3d806c16	0.06270616
89	0x3e003308	0.12519467
90	0x3e19843b	0.14991848
91	0xbd9f3f17	-0.07775705
92	0x3e48efbf	0.19622706
93	0x3edb1986	0.4279291
94	0xbe8680ce	-0.26270145
95	0xbb749e9a	-0.003732598
96	0x3cfe677a	0.0310552
97	0xbd876b0d	-0.06612215
98	0x3e25634a	0.16151157
99	0xbdaf168f	-0.085492246
100	0xbdf0623c	-0.11737487
101	0xbe4355f7	-0.19075762
102	0xbf99522d	-1.1978203
103	0x3e0b7eae	0.13622543
104	0x3dfdf702	0.124006286
105	0x3c6aa17d	0.014320728
106	0x3dcb4daa	0.099269226
107	0xbe0da194	-0.13831168
108	0x3e0b6c60	0.1361556
109	0x3eb534b5	0.35391775
110	0x3e2f32b1	0.17109181
111	0xbd5d9a91	-0.054102484
112	0xbde237d5	-0.11045805
113	0x3cc58b28	0.024114206
114	0xbe52c639	-0.20583428
115	0x3d537481	0.05162478
116	0xbed3a599	-0.41337278
117	0x3e02c006	0.12768564
118	0x3ed10748	0.40825868
119	0xbd7cac46	-0.06168773
120	0xbdf3898e	-0.11891471
121	0xbe6c639f	-0.23084877
122	0x3d994498	0.07483786
123	0xbe8cb921	-0.27484992
124	0x3d43dddc	0.047819003
125	0xbdd5fcbd	-0.104485966
126	0x3b742bd6	0.0037257574
127	0xbbd33c4e	-0.006446398
128	0xbc20d2cd	-0.009815884
129	0x3d865f28	0.06561118
130	0x3d84a1d5	0.064761795
131	0x3d8637a1	0.06553579
132	0x3a08a2f2	0.0005212269
133	0xbdc1f136	-0.094698355
134	0xbe071f13	-0.13195448
135	0xbc5d6e6a	-0.013515094
136	0x3ceee540	0.02916205
137	0xbcccc0e8	-0.024994329
138	0x3d77468c	0.060370013
139	0xbd6bd4a6	-0.057575844
140	0xbbf8c3e1	-0.00759171
141	0xbd5715e8	-0.052511126
142	0xbdf98142	-0.12182857
143	0xbd4c80e1	-0.049927596
144	0x3a6bc200	0.0008993447
145	0x3ca4eac0	0.020131469
146	0x3c27c915	0.010240813
147	0x3d91d26b	0.07120212
148	0xbcd3df38	-0.025863275
149	0xbda670f7	-0.08127015
150	0x3d1c5118	0.038163275
151	0xbd83cfc1	-0.0643611
152	0xbdbaa0ae	-0.091126785
153	0x3d9869cc	0.07442054
154	0xbcc58851	-0.024112852
155	0xbdd1309a	-0.10214348
156	0xbdac3cc7	-0.0841003
157	0x3da891e8	0.082309544
158	0x3d1edbc4	0.038783804
159	0xbde8b826	-0.113632485
160	0xbd1fef52	-0.039046593
161	0xbdd7a821	-0.10530115
162	0xbe250756	-0.1611608
163	0x3d64ff27	0.055907395
164	0xbd514334	-0.05108948
165	0xbdb3d5f0	-0.0878104
166	0xbd0b1d8a	-0.033963718
167	0x3ab8392d	0.0014055126
168	0xbb340340	-0.0027467757
169	0x3d251e58	0.04031214
170	0x3c587210	0.013210788
171	0x3d13f00c	0.0361176
172	0x3bccba74	0.006247813
173	0x3d48d072	0.049026914
174	0x3d493f69	0.04913274
175	0x3d8dc112	0.06921591
176	0xbb905660	-0.004404828
177	0xbdb96c58	-0.09053868
178	0xbdb75810	-0.089523435
179	0xbdc9d4fa	-0.09855075
180	0xbe002cbf	-0.1251707
181	0xbd7384f2	-0.05945296
182	0x3d7b9650	0.061422646
183	0x3de43322	0.11142565
184	0x3c9c06b8	0.019046172
185	0xbdf1b8b3	-0.11802807
186	0x3cc888db	0.02447932
187	0xbda83231	-0.08212698
188	0x3cc4d5c0	0.024027705
189	0x3a70437b	0.0009165329
190	0xbdfdc067	-0.123902135
191	0xbbb1a417	-0.0054211724
192	0xbdf12af5	-0.117757715
193	0x3d47dfab	0.04879729
194	0xbdb2bab1	-0.08727015
195	0xbde848cd	-0.11342011
196	0xbf56a698	-0.8384795
197	0xbc8f6960	-0.017506301
198	0xbdc12642	-0.09431125
199	0x3db3cb36	0.08778994
200	0x3d1c61e4	0.038179293
201	0xbbb3824d	-0.0054781795
202	0xbf1bf356	-0.60918176
203	0x3d2a8b32	0.041636653
204	0xbe33e574	-0.17567998
205	0xbd923098	-0.07138175
206	0xbdb9f23a	-0.09079404
207	0xbdf3e97e	-0.119097695
208	0xbcafb5fb	-0.02144908
209	0xbd9a2004	-0.07525638
210	0x3c8dff71	0.017333718
211	0x3c83018b	0.015991947
212	0x3c9c9e48	0.019118443
213	0x3e175eaf	0.14782213
214	0xbd97f91e	-0.07420562
215	0x3d862d45	0.06551603
216	0x3f05857a	0.52156794
217	0x3d425b61	0.047450427
218	0x3d849316	0.06473367
219	0xbc22faf4	-0.009947527
220	0x3e74b79a	0.23898163
221	0xbdef5698	-0.11686438
222	0xbf633015	-0.8874524
223	0x3e2c3b12	0.16819409
224	0x3e26f5bd	0.16304679
225	0x3d1fc886	0.039009593
226	0x3d321330	0.04347533
227	0x3d847f1a	0.06469555
228	0xbda6c9ab	-0.08143934
229	0x3dd0a014	0.101867825
230	0xbf27c47e	-0.655342
231	0x3ebd90c9	0.37024525
232	0xbd9f428c	-0.07776365
233	0x3d11438b	0.035464805
234	0xbd7852cc	-0.060625836
235	0xbe165483	-0.14680676
236	0x3e45fa5a	0.19333783
237	0x3e434d44	0.19072443
238	0x3e908d13	0.2823263
239	0x3b98aef2	0.004659527
240	0x3dce85e4	0.10084131
241	0x3d58446d	0.05279963
242	0xbcc91666	-0.024546813
243	0xbdd2f6a4	-0.10300949
244	0xbee0c889	-0.43902996
245	0x3ea8ce09	0.32969692
246	0x3e348cf8	0.176319
247	0xbc549ba3	-0.01297656
248	0x3de4cc14	0.11171737
249	0x3d3fec2c	0.04685609
250	0x3ce51dcb	0.027968308
251	0xba2d1847	-0.0006603044
252	0xbcd34448	-0.025789395
253	0xbc8ecb3b	-0.017430892
254	0x3df9b23b	0.12192198
255	0xbcce295b	-0.025166204

encoder.2.linear.bias f4 [32]
0	0x3c223518	0.009900354
1	0x3e88e330	0.2673583
2	0xbdbada53	-0.09123673
3	0x3e87bd39	0.26511553
4	0x3e9eaf53	0.30993137
5	0x3e2e8e6a	0.17046514
6	0x3e2a2141	0.16614248
7	0x3e30ec11	0.17277552
8	0x3d81e0b5	0.063416876
9	0x3dbd228a	0.092351034
10	0xbc44b9e8	-0.012007214
11	0x3cd75ad2	0.026288424
12	0x3c343cf4	0.0110008605
13	0x3e3a2d9f	0.18181466
14	0x3e379025	0.1792608
15	0x3e15f038	0.14642417
16	0x3dcbcfa2	0.09951712
17	0x3dac5927	0.08415442
18	0xbb726710	-0.00369877
19	0xbe3dd629	-0.18538727
20	0x3dad5dbf	0.08465146
21	0xbdccb282	-0.09994985
22	0x3e2e480a	0.17019668
23	0xbd12e22a	-0.035860218
24	0xbd10a861	-0.03531683
25	0xbdfe0dda	-0.12404986
26	0x3c99146b	0.018686494
27	0xbcb05556	-0.021525066
28	0xbe2831bd	-0.16425224
29	0xbe2b67d0	-0.1673882
30	0x3de6c677	0.11268323
31	0x3e1a3745	0.15060146

encoder.3.linear.weight f4 [16, 32]
0	0x3ef2fb20	0.47457218
1	0xbd012c43	-0.031536352
2	0x3c4cbded	0.012496454
3	0x3eeb3a4d	0.45942917
4	0x3bd48df9	0.006486651
5	0x3e9b40ab	0.30322775
6	0xbdd0a519	-0.1018774
7	0xbe01a6f2	-0.12661341
8	0xbebceb0a	-0.3689807
9	0xbeacd7bc	-0.33758342
10	0x3d92e087	0.071717314
11	0x3e47dfe2	0.19518998
12	0x3c9727a4	0.01845152
13	0xbda2b8f8	-0.07945436
14	0x3e40f517	0.18843494
15	0xbd94bf19	-0.072630115
16	0x3ec97d02	0.39353186
17	0xbe88a54b	-0.2668861
18	0xbe5a2187	-0.21301852
19	0x3e6379ca	0.22214428
20	0x3eb74322	0.35793406
21	0xbc87e294	-0.016587533
22	0x3f07602e	0.52881134
23	0xbdfe583c	-0.12419173
24	0x3f2876a8	0.65806055
25	0x3dc4a973	0.096026324
26	0x3e03f2ec	0.12885636
27	0x3ce44e76	0.027869444
28	0x3ecf9ce4	0.40549386
29	0x3e13ce44	0.14434153
30	0x3ed2665e	0.41093725
31	0x3e95c13a	0.29248983
32	0x3da045fa	0.07825847
33	0xbf5a7d08	-0.8534703
34	0xbdb3e8cf	-0.08784639
35	0x3dc64b53	0.09682336
36	0xbd9b3163	-0.07577779
37	0x3e2dc629	0.16970123
38	0xbd2137cb	-0.03935985
39	0xbecab3e8	-0.39590383
40	0xbdb4e239	-0.08832211
41	0xbe29bdb3	-0.16576271
42	0x3eb0ef05	0.34557357
43	0xbbf09a74	-0.007342631
44	0xbc360406	-0.011109358
45	0x3ed27089	0.41101483
46	0x3e7e9fde	0.24865672
47	0xbd030901	-0.03199101
48	0xbd327b8d	-0.04357486
49	0xbe5a9459	-0.21345653
50	0xbf126dbd	-0.571987
51	0x3e87be27	0.26512262
52	0x3c8962d1	0.016770752
53	0x3ee14697	0.43999168
54	0x3e10eb3b	0.14152233
55	0x3edbe5da	0.429488
56	0xbe8700d6	-0.26367825
57	0xbd472170	-0.048615873
58	0xbee911f6	-0.45521516
59	0x3e23e2e7	0.16004525
60	0x3f16bb63	0.5887968
61	0xbdcb7f4f	-0.099363916
62	0x3e52d704	0.20589834
63	0x3e642932	0.2228134
64	0x3de64029	0.11242706
65	0x3e016ebc	0.12639898
66	0xbe1805e0	-0.14845991
67	0x3da9e113	0.082948826
68	0x3b67d12e	0.0035372484
69	0xbd8c0636	-0.06837122
70	0xbd942be4	-0.07234934
71	0xbc7c1094	-0.015384812
72	0xbe65713d	-0.22406478
73	0xbd2d3f87	-0.042296913
74	0xbce2050d	-0.027590299
75	0xbe237e19	-0.15966071
76	0xbd902fe0	-0.070403814
77	0x3ca8fc87	0.020628227
78	0x3c3fe424	0.011712108
79	0xbdef0274	-0.1167039
80	0xbd98fc41	-0.074699886
81	0xbd9b90e3	-0.07595994
82	0x3d2ebbb6	0.042659484
83	0xbe413a26	-0.18869838
84	0xbd2c4961	-0.042062167
85	0xbe03d60f	-0.12874626
86	0x3d385876	0.045006238
87	0xbe0ecceb	-0.13945358
88	0x3dead8c9	0.1146713
89	0xbe0358fe	-0.12826917
90	0x3cfaa7e0	0.030597627
91	0x3e0de041	0.13855077
92	0x3d0eb235	0.03483792
93	0x3e2d0c05	0.16899116
94	0x3da82a6e	0.08211218
95	0xbb99207a	-0.004673061
96	0x3d73cdd2	0.059522457
97	0x3deb5726	0.114912316
98	0x3cec5f1a	0.028853942
99	0x3e334316	0.1750606
100	0x3dadd7a3	0.08488395
101	0xbe905200	-0.2818756
102	0x3db0c362	0.08631016
103	0x3e845860	0.25848675
104	0x3e7c33a5	0.24629076
105	0x3e0fe933	0.14053802
106	0x3dd4b40c	0.10385904
107	0xbdde2521	-0.108469255
108	0x3e44d304	0.19221121
109	0x3e984469	0.29739693
110	0x3e95d83d	0.2926654
111	0x3e628de4	0.2212444
112	0xbd3391ff	-0.043840405
113	0x3d6c3022	0.05766309
114	0x3eb9aed4	0.36266196
115	0xbe62fdc2	-0.22167113
116	0xbdfd25f8	-0.123607576
117	0x3cacb4cb	0.021082303
118	0xbd0dfef1	-0.03466696
119	0xbdf5a68e	-0.119946584
120	0x3e5ae1b5	0.21375163
121	0x3e099317	0.13435017
122	0xbe09d4ce	-0.13460085
123	0x3cfabfae	0.030608978
124	0xbde781e1	-0.11304069
125	0x3da2a0e2	0.07940842
126	0x3e5281cd	0.20557328
127	0x3e8893a0	0.2667513
128	0xbe94e58f	-0.2908139
129	0x3d2906b5	0.041266162
130	0x3e2006fa	0.15627661
131	0xbbb90692	-0.005646535
132	0xbec1da7d	-0.37862006
133	0x3d717078	0.05894515
134	0x3f773291	0.96561533
135	0x3e6c2fe6	0.23065147
136	0x3e86530b	0.26235232
137	0xbeebf085	-0.4608194
138	0x3e774845	0.24148662
139	0x3dd5148c	0.1040431
140	0x3d32fded	0.043699194
141	0x3f1339ab	0.5750987
142	0xbe1171b5	-0.14203532
143	0xbe2dc855	-0.16970952
144	0xbdf1a07f	-0.1179819
145	0x3dea1aa6	0.11430864
146	0xbd8610f5	-0.06546203
147	0xbd16459b	-0.036687475
148	0xbdb5b61a	-0.08872624
149	0xbd80f593	-0.062968396
150	0xbb0ef3ca	-0.002181279
151	0x3d46104f	0.048355397
152	0xbeb96f20	-0.36217594
153	0xbd8b5548	-0.068033755
154	0xbeb5745f	-0.35440347
155	0x3d7cf489	0.061756644
156	0x3ec4532e	0.3834471
157	0xbe61c9da	-0.22049657
158	0xbe8c6ce6	-0.27426833
159	0xbd0006b6	-0.0312564
160	0x3dd73c6e	0.10509573
161	0xbe7a0f0d	-0.24419804
162	0x3caa19a2	0.020764176
163	0x3d2f35ea	0.042776026
164	0x3d6c65e4	0.057714358
165	0xbebfcc04	-0.3746034
166	0x3ebfc6e2	0.37456423
167	0xbe2aa49e	-0.16664359
168	0x3ebee52a	0.37284213
169	0x3f0ae561	0.54256254
170	0x3d60dce7	0.05489817
171	0x3e5aa10c	0.21350497
172	0xbec2b170	-0.38026
173	0xbdc665cd	-0.09687386
174	0x3ea558ce	0.32294315
175	0x3e39afff	0.18133543
176	0x3c4bd195	0.012440105
177	0xbb38813a	-0.0028153197
178	0x3ee30daa	0.44346362
179	0xbdd9332b	-0.10605463
180	0xbe436d92	-0.19084767
181	0x3e0da431	0.13832165
182	0x3eaf1687	0.34196874
183	0xbeddbcb3	-0.4330803
184	0x3e28675e	0.16445681
185	0xbd13f25c	-0.036119804
186	0xbea4427c	-0.32081974
187	0x3e165f74	0.1468485
188	0x3ec14b4c	0.3775276
189	0x3d0cc7f6	0.034370385
190	0xbe0cff7f	-0.13769339
191	0xbd53f351	-0.051745716
192	0x3db54fd1	0.088531144
193	0xbeae987a	-0.34100705
194	0x3c3cecd7	0.011531076
195	0x3c649c97	0.01395335
196	0x3d651f5b	0.055938106
197	0xbce7b1d4	-0.028283037
198	0xbcc3082c	-0.023807608
199	0xbeb3f436	-0.35147256
200	0xbe254821	-0.16140796
201	0x3f518ee9	0.8185869
202	0x3e3fb781	0.18722345
203	0x3e4fe385	0.20301636
204	0x3c1d4d02	0.00960088
205	0x3ec80126	0.39063376
206	0xbda0d207	-0.078525595
207	0xbee1f0a3	-0.44128904
208	0xbe15d7d0	-0.14633107
209	0xbe9d5af8	-0.30733466
210	0x3dba0220	0.090824366
211	0xbe0103ee	-0.12599155
212	0x3d8cb55e	0.068705305
213	0xbd595c7f	-0.053066727
214	0xbd32a99f	-0.043618795
215	0xbc122503	-0.008919957
216	0x3e818dd9	0.25303534
217	0xbda1e9f1	-0.07905949
218	0x3e17f16c	0.14838189
219	0xbccedc78	-0.025251612
220	0x3e93f921	0.28901008
221	0x3e0ad147	0.13556395
222	0xbcce6a8b	-0.025197288
223	0x3e3e1d55	0.18565877
224	0x3d08eb8b	0.033427756
225	0xbe4f9c77	-0.2027453
226	0x3dc9b527	0.09849005
227	0xbeb8871d	-0.36040583
228	0x3eabbd98	0.33543086
229	0x3e071b60	0.13194036
230	0x3f1ff2be	0.6247977
231	0xbe25dd3e	-0.16197678
232	0xbda8b2bb	-0.08237215
233	0x3f42e428	0.7612939
234	0xbf76bfd6	-0.9638647
235	0xbde92513	-0.113840245
236	0xbe96559a	-0.29362184
237	0xba9aa74c	-0.0011799126
238	0x3e4ec928	0.20193923
239	0x3dc714b9	0.097207494
240	0x3e6b2f76	0.22967324
241	0x3dfdfb10	0.12401402
242	0x3eb713b9	0.35757235
243	0x3e784dc8	0.24248421
244	0xbf47b883	-0.7801592
245	0x3e21d407	0.15803538
246	0x3df0552f	0.117349975
247	0xbce057bc	-0.027385585
248	0xbcc9b7f3	-0.024623847
249	0xbdf65360	-0.12027621
250	0x3fb03a69	1.3767825
251	0xbe1a8a66	-0.15091857
252	0xbe207638	-0.15670097
253	0x3daa953a	0.08329244
254	0xbd544b7d	-0.051829804
255	0xbddf0abe	-0.10890721

encoder.3.linear.bias f4 [16]
0	0x3df0d320	0.11759019
1	0x3d74d5b0	0.0597741
2	0xbe45e1f8	-0.19324481
3	0xbdd80c09	-0.105491705
4	0xbe2980bc	-0.16553015
5	0xbdc10630	-0.09425008
6	0xbe1be7f9	-0.1522521
7	0x3df63bb0	0.12023103
8	0xbe49ee44	-0.19719797
9	0xbcb97eb9	-0.022643434
10	0x3d81dd12	0.06340994
11	0x3ec1365d	0.37736788
12	0xbbff9a10	-0.007800348
13	0x3d8e8b98	0.06960219
14	0xbe4413e6	-0.19148216
15	0x3da52162	0.08063008

encoder.4.linear.weight f4 [8, 16]
0	0xbc240800	-0.010011673
1	0x3e0c6fac	0.13714474
2	0xbdb7b442	-0.08969928
3	0xbdb09540	-0.08622217
4	0x3d470ccc	0.04859619
5	0xbdb8a4d3	-0.09015813
6	0xbcecc819	-0.028904008
7	0x3f193213	0.5984203
8	0x3dbf3c0e	0.093376264
9	0x3eed5792	0.46355873
10	0x3f0ed1f2	0.557891
11	0x3e496de7	0.1967083
12	0x3e5266c9	0.20547022
13	0x3e168119	0.14697684
14	0x3e20d31f	0.15705536
15	0xbdbc7a78	-0.092030466
16	0x3e805eb5	0.25072256
17	0x3e27aeab	0.16375224
18	0x3d177e00	0.036985397
19	0x3de0e028	0.109802544
20	0x3c2d80ff	0.010589837
21	0xbe90f744	-0.2831365
22	0x3ee592ef	0.44838664
23	0x3e0c20b0	0.13684344
24	0xbe2d6b22	-0.16935399
25	0xbe8065fc	-0.25077808
26	0x3d184e38	0.03718397
27	0x3dd489a5	0.10377816
28	0x3e9c37fa	0.30511457
29	0xbe3f466b	-0.18679206
30	0xbd98036c	-0.07422528
31	0xbd4ae664	-0.049536124
32	0xbe83fb0e	-0.25777477
33	0x3cf1d2d6	0.02951948
34	0x3e296074	0.165407
35	0x3dffc2bc	0.124883145
36	0xbd3f0466	-0.046635054
37	0xbe52c011	-0.2058108
38	0xbbe10140	-0.006866604
39	0x3dc2eee4	0.09518221
40	0xbd622108	-0.055207282
41	0xbe0e9814	-0.139252
42	0xbe8bd5e5	-0.27311626
43	0xbc5f2116	-0.013618728
44	0xbe7f165b	-0.24910872
45	0xbe5f52bd	-0.21808906
46	0x3cc5f630	0.024165243
47	0xbe88160b	-0.26579317
48	0xbed2fc0f	-0.4120793
49	0x3da08d84	0.07839492
50	0xbe60198a	-0.21884742
51	0x3f22338b	0.633599
52	0x3ea601b5	0.32423177
53	0xbe572dcc	-0.21013564
54	0xbd8eb4c3	-0.06968071
55	0x3a96e8d7	0.0011513483
56	0xbdc6a3a0	-0.09699178
57	0x3db28acf	0.08717882
58	0x3dcbca2f	0.09950673
59	0xbe353fca	-0.17700115
60	0xbddcbc85	-0.10778145
61	0x3e598e76	0.21245751
62	0x3df71f7a	0.120665506
63	0x3e313ba1	0.17307903
64	0x3ddb1f98	0.106993854
65	0x3e4caa12	0.19986752
66	0x3d93e0ab	0.072205864
67	0x3e93c399	0.28860167
68	0xbe2cfeb2	-0.16894034
69	0x3f0274cb	0.5095946
70	0xbd013260	-0.031542182
71	0x3d8904d4	0.06690374
72	0x3c7be5d1	0.015374617
73	0xbea555af	-0.32291934
74	0xbd91bc0e	-0.07115947
75	0x3ee0ba06	0.43891925
76	0x3e55bb7e	0.20872304
77	0x3e7c64c9	0.24647821
78	0xbd8be230	-0.06830251
79	0x3eb0b6da	0.34514505
80	0x3dcb8a2c	0.099384636
81	0x3ef58fe1	0.47961333
82	0xbc5d6153	-0.013511973
83	0xbde5303f	-0.11190843
84	0x3ec6532a	0.38735324
85	0xbe9c1491	-0.3048444
86	0x3d3c6e4d	0.04600363
87	0x3e558ed7	0.2085527
88	0x3d257d28	0.04040256
89	0x3e293c28	0.16526854
90	0x3db47702	0.088117614
91	0xbef2b797	-0.47405693
92	0xbedb7f77	-0.42870685
93	0xbe675f08	-0.22594845
94	0xbe6affd3	-0.22949152
95	0xbd1badab	-0.03800742
96	0x3ed7061d	0.41996852
97	0xbd187767	-0.037223246
98	0xbc9c8f47	-0.019111289
99	0x3f3df420	0.7420063
100	0xbe49ce45	-0.19707592
101	0xbc8038a8	-0.015652016
102	0xbe3a17ca	-0.18173137
103	0xbd08b7ac	-0.03337829
104	0x3e39d645	0.18148144
105	0x3e0c5ca9	0.13707222
106	0x3e0d5684	0.13802534
107	0x3d462925	0.048379082
108	0xbe420544	-0.18947321
109	0xbdf3658e	-0.118846044
110	0x3e29b1d4	0.16571742
111	0xbdd4f178	-0.10397619
112	0x3e98f585	0.29874817
113	0x3e9807d1	0.29693463
114	0xbe557b1b	-0.20847742
115	0x3e1febd4	0.15617305
116	0xbed7de2b	-0.42161688
117	0xbecc9d79	-0.39963892
118	0x3e157627	0.14595853
119	0xbea348de	-0.3189153
120	0x3e4190bc	0.18902868
121	0x3ebbaa0c	0.36653173
122	0x3dddf90a	0.10838516
123	0xbe0a7670	-0.13521743
124	0x3e02276f	0.12710355
125	0x3e47af15	0.19500382
126	0x3dbb2d5c	0.09139511
127	0x3eae95a1	0.34098533

encoder.4.linear.bias f4 [8]
0	0xbe5ac992	-0.21365955
1	0xbe531696	-0.20614085
2	0x3e1b522e	0.15168068
3	0xbca44b18	-0.020055339
4	0x3e803c8c	0.25046194
5	0x3ecd8860	0.40143108
6	0xbe202c1d	-0.15641828
7	0xbcf82f24	-0.030295916

decoder.0.linear.weight f4 [16, 8]
0	0xbd8e5d29	-0.06951363
1	0xbe3827e4	-0.17983967
2	0x3e02eaf0	0.12784934
3	0x3eedabc6	0.46420115
4	0x3cd55a4e	0.026044037
5	0x3d531225	0.051530976
6	0x3f0539ca	0.52041304
7	0xbe286f4e	-0.1644871
8	0x3d2b2fb5	0.041793544
9	0x3e09e916	0.13467821
10	0x3e8ab7da	0.27093393
11	0x3c35b124	0.011089597
12	0x3ec76f9a	0.38952333
13	0xbe87df1c	-0.26537406
14	0x3e3f22a7	0.18665563
15	0x3e687eeb	0.22704665
16	0x3e352f25	0.17693765
17	0xbf016db4	-0.5055802
18	0xbe9e456e	-0.30912346
19	0x3eb9f7c6	0.3632185
20	0x3ed4ba82	0.41548544
21	0x3e820795	0.2539641
22	0xbe691a41	-0.22763921
23	0x3e5d2ca7	0.21599065
24	0xbf0e5130	-0.5559263
25	0x3ed920bf	0.42407796
26	0xbd858428	-0.065193474
27	0x3e308b5f	0.17240666
28	0x3e06f70e	0.13180181
29	0x3e12ade8	0.14324152
30	0xbf15c805	-0.5850833
31	0x3e901511	0.28141072
32	0xbe8cd9a9	-0.27509812
33	0x3d466a51	0.048441235
34	0xbe7e8c06	-0.24858102
35	0x3e2fc010	0.1716311
36	0xbeb2afce	-0.34899753
37	0xbe882ea0	-0.26598072
38	0xbe96b82e	-0.29437393
39	0x3d062837	0.032753196
40	0xbed0e608	-0.408005
41	0xbdb0b950	-0.086290956
42	0xbc02cd60	-0.0079835355
43	0x3dff5190	0.12466729
44	0x3e5008aa	0.20315805
45	0x3ec0152c	0.37516153
46	0xbe94cc75	-0.29062238
47	0xbbc6ffc1	-0.0060729687
48	0x3b92893a	0.004471925
49	0x3ef119bb	0.47089943
50	0x3e290cfe	0.16508862
51	0xbdcf9d47	-0.1013742
52	0x3dcdfc33	0.10057869
53	0xbe29f134	-0.16595918
54	0xbdabb321	-0.083837755
55	0x3d12a54f	0.03580218
56	0x3ecb067f	0.39653394
57	0xbe609f19	-0.21935691
58	0x3d89689b	0.06709405
59	0xbe8d29ec	-0.27571046
60	0xbe13321e	-0.14374587
61	0xbe802249	-0.25026157
62	0x3ec77acb	0.3896087
63	0xbcdc61f0	-0.026902169
64	0x3dc358a1	0.09538389
65	0x3e85a0b3	0.26099166
66	0x3d70e03e	0.058807604
67	0x3f20bcab	0.62787884
68	0xbc1e7c44	-0.009673182
69	0xbd95f862	-0.07322766
70	0x3eb8616f	0.36011836
71	0xbe5f90e1	-0.2183261
72	0xbe2e2ab5	-0.17008479
73	0x3df1b3a8	0.11801845
74	0x3be98a36	0.0071270717
75	0x3f1f081b	0.6212174
76	0xbe411f90	-0.18859696
77	0x3f4740e0	0.77833366
78	0x3e5dc027	0.21655332
79	0x3f0474af	0.51740545
80	0x3df42838	0.119217336
81	0x3e850413	0.2597967
82	0x3d17fb70	0.037105024
83	0x3ed6aa3b	0.4192675
84	0x3bf0cf23	0.0073489114
85	0x3df25d3a	0.11834188
86	0x3e28324a	0.16425434
87	0xbf1b0017	-0.6054701
88	0xbf25a067	-0.6469788
89	0x3d4a0304	0.049319282
90	0x3c820db0	0.015875667
91	0x3ee168b0	0.44025183
92	0xbd8cc59f	-0.06873631
93	0x3e1f50d4	0.15558177
94	0x3e316da4	0.17326981
95	0x3cda053a	0.02661382
96	0x3eac4fb2	0.33654553
97	0x3d443986	0.04790642
98	0x3e64c84a	0.22342029
99	0x3d8438c6	0.06456141
100	0x3dfad978	0.1224851
101	0x3c627cf8	0.01382374
102	0xbeb85382	-0.3600121
103	0x3e16c9de	0.14725444
104	0x3dbabce3	0.091180585
105	0x3eb92261	0.36159042
106	0xbe25f0a8	-0.16205084
107	0xbeecccff	-0.4625015
108	0x3e7af2e4	0.24506718
109	0x3ecfac87	0.40561315
110	0x3ebcb6bc	0.36858165
111	0x3e5d1fe1	0.21594192
112	0xbed540da	-0.4165104
113	0x3dc94b61	0.098288305
114	0xbea0eef9	-0.31432322
115	0xbddb5a57	-0.1071059
116	0x3efc3420	0.49258518
117	0x3dd0ca45	0.1019483
118	0xbdc21179	-0.09475989
119	0x3e08ec90	0.13371491
120	0x3e9704a9	0.29495743
121	0x3dfae66e	0.12250982
122	0x3d57076d	0.052497316
123	0xbe34f84d	-0.17672844
124	0xbe1494f9	-0.14509954
125	0x3f2976ad	0.6619671
126	0x3c881b23	0.016614502
127	0x3d71e686	0.059057735

decoder.0.linear.bias f4 [16]
0	0x3e8fceae	0.28087372
1	0xbefdca16	-0.49568242
2	0x3e90be83	0.2827035
3	0x3c128cf0	0.008944735
4	0x3e07789f	0.13229607
5	0x3e890972	0.2676502
6	0xbf55d7d9	-0.8353248
7	0xbde0be9c	-0.10973856
8	0xbc981288	-0.018563524
9	0x3cd743c2	0.026277427
10	0x3d5b051a	0.053471662
11	0xbe332093	-0.17492895
12	0xbd4679e6	-0.048456095
13	0xbc294dd4	-0.010333497
14	0x3d739df2	0.0594768
15	0x3e3a6f0c	0.18206424

decoder.1.linear.weight f4 [32, 16]
0	0xbe45d234	-0.19318467
1	0x3cadc330	0.021211237
2	0xbdb0f5cb	-0.08640631
3	0xbe16ae13	-0.14714842
4	0xbd421268	-0.047380835
5	0xbecf80b8	-0.40527892
6	0x3e901fc1	0.28149226
7	0x3f1224b6	0.57087266
8	0x3cfa72b2	0.03057227
9	0xbe852c2e	-0.2601027
10	0x3e9d76c7	0.30754682
11	0x3f2243e2	0.6338483
12	0x3ec23e60	0.37938213
13	0x3e1b3b3e	0.15159318
14	0xbe213614	-0.15743285
15	0x3ee82f68	0.45348668
16	0xbe762843	-0.24038796
17	0x3c9f9ab8	0.019482955
18	0x3c12b2c2	0.008953752
19	0xbe49e0b0	-0.19714618
20	0x3dc72874	0.09724513
21	0xbe62049a	-0.22072068
22	0x3e4f033c	0.20216078
23	0x3d931c04	0.07183078
24	0x3db1f047	0.086884074
25	0x3d19d988	0.03756097
26	0x3d8dd9c0	0.06926298
27	0x3d2aecdf	0.041729804
28	0xbe626eee	-0.22112629
29	0xbe22a82f	-0.1588447
30	0xbe802e5f	-0.25035378
31	0xbe6f0012	-0.2333987
32	0x3cade1e1	0.021225872
33	0xbd9fe109	-0.07806594
34	0x3e884a14	0.26619017
35	0xbdb151c5	-0.086581744
36	0xbe185c82	-0.14879039
37	0x3dff523b	0.12466856
38	0xbe2fe37c	-0.17176622
39	0xbe8d6d27	-0.2762234
40	0x3ed8213d	0.4221286
41	0xbcb639d9	-0.02224438
42	0x3ea28809	0.31744412
43	0xbf74357c	-0.9539411
44	0xbeb27be1	-0.34860137
45	0xbea7f3c2	-0.3280316
46	0xbf39d92a	-0.7259699
47	0xbe754935	-0.23953708
48	0x3ea98fc3	0.33117494
49	0x3e1b1430	0.1514442
50	0x3e79749f	0.24360894
51	0xbe9e32ce	-0.30898136
52	0x3e411b9d	0.1885819
53	0x3e42589d	0.18979116
54	0x3d0071a5	0.03135838
55	0x3cf10206	0.02941991
56	0x3ebf5674	0.37370646
57	0xbdb2e879	-0.08735747
58	0x3deb8355	0.11499659
59	0xbd2374a2	-0.03990615
60	0x3edb9503	0.42887124
61	0xbe3a0ede	-0.18169734
62	0x3e1e1e14	0.15441161
63	0xbeaf2a91	-0.34212163
64	0x3e281536	0.16414341
65	0xbdb96e8c	-0.09054288
66	0xbe2ac867	-0.1667801
67	0x3e414b14	0.18876296
68	0x3dc28d78	0.09499639
69	0x3e0143c2	0.12623504
70	0x3d2df688	0.04247144
71	0xbe467334	-0.19379884
72	0xbd5a5b8c	-0.053309962
73	0xbe39e0c9	-0.18152155
74	0x3d42f345	0.04759528
75	0xbe030ff8	-0.1279906
76	0x3e112abf	0.14176463
77	0x3d38ece4	0.04514779
78	0xbddb75ac	-0.107158035
79	0x3e143e8a	0.14476982
80	0x3e084bad	0.13310118
81	0x3e89faec	0.2694925
82	0x3d5278d5	0.051384766
83	0x3e39e049	0.18151964
84	0x3d76adad	0.060224224
85	0x3df8337b	0.12119194
86	0xbe5bdefb	-0.21471779
87	0xbc998c11	-0.018743547
88	0x3e31ed7b	0.17375748
89	0x3ea691eb	0.32533202
90	0xbe91f92e	-0.28510422
91	0x3f217b89	0.63079125
92	0xbd3b6d46	-0.04575851
93	0xbc5f3011	-0.0136223
94	0x3d4e3f1c	0.050353155
95	0xbe943714	-0.2894827
96	0x3d873a3d	0.06602905
97	0xbede97f6	-0.43475312
98	0xbc85c669	-0.01632996
99	0x3dcbed1e	0.09957336
100	0xbda718a4	-0.08158997
101	0x3deb710a	0.1149617
102	0xbe329589	-0.17439856
103	0xbe2867ee	-0.16445896
104	0x3f070432	0.52740777
105	0x3e68d4ff	0.22737502
106	0x3e890608	0.26762414
107	0x3e9f8f70	0.31164122
108	0xbf17acbd	-0.5924795
109	0xbe4ac164	-0.19800335
110	0xbd8ad5dc	-0.06779072
111	0x3ebe08d9	0.37116125
112	0xbe301193	-0.17194204
113	0x3edc519e	0.4303102
114	0x3af82150	0.0018930826
115	0x3e5923b8	0.21205032
116	0xbe2caed1	-0.16863562
117	0x3f18f62e	0.5975064
118	0x3ee79c97	0.45236656
119	0xbc0f52f3	-0.008747804
120	0x3e3c961d	0.18416639
121	0xbe761845	-0.24032696
122	0x3eb98d69	0.362407
123	0x3d6897a1	0.05678523
124	0x3e835d5e	0.2565717
125	0x3e766b17	0.24064289
126	0xbe05fa31	-0.13083722
127	0xbe9d65c0	-0.30741692
128	0xbdd1fea4	-0.10253647
129	0xbde0db98	-0.10979384
130	0x3cc41340	0.02393496
131	0xbe118b72	-0.1421335
132	0xbe00e70c	-0.12588137
133	0x3d9670cc	0.07345733
134	0xbd8f2edc	-0.069913596
135	0xbdd5b2b8	-0.104344785
136	0x3cfdcfb0	0.030982822
137	0xbe12a8de	-0.1432223
138	0xbd9478f8	-0.072496355
139	0x3de9f268	0.114231884
140	0x3db16aec	0.08662972
141	0xbdb40e44	-0.087917835
142	0xbe33690c	-0.17520541
143	0x3d0a14c8	0.033711225
144	0xbe55200f	-0.2081301
145	0xbd253945	-0.04033782
146	0x3e2e3fed	0.17016573
147	0x3ee9b5b0	0.4564643
148	0x3e923795	0.2855803
149	0x3f4f92c8	0.81083345
150	0xbeab1e4e	-0.33421558
151	0xbe62bdfe	-0.22142789
152	0x3cb96a2f	0.02263364
153	0x3b9425e5	0.004521119
154	0x3e7c66fb	0.24648659
155	0x3ea9b3d1	0.33145002
156	0x3e9ba2a1	0.30397514
157	0x3db27c13	0.087150715
158	0x3e5f8d36	0.21831211
159	0xbd8c6349	-0.06854875
160	0xbe3b04bf	-0.18263529
161	0x3de4532d	0.11148677
162	0x3db050c5	0.086091556
163	0x3e932576	0.28739518
164	0xbde1102d	-0.109894134
165	0x3ec925c7	0.39286634
166	0x3cb3cadf	0.021947322
167	0xbe7f4472	-0.24928454
168	0xbee642c4	-0.44972813
169	0x3e9c8338	0.30568862
170	0xbe4be7bd	-0.1991262
171	0x3ec15f7c	0.3776816
172	0xbe13db33	-0.14439087
173	0x3e4c2e3d	0.19939514
174	0x3c54895b	0.012972201
175	0x3db4a233	0.088199995
176	0x3e67586c	0.22592324
177	0x3e6e93f5	0.23298629
178	0xbda9bfec	-0.08288559
179	0x3de1a183	0.11017134
180	0xbd6238f0	-0.05523008
181	0xbf693459	-0.910955
182	0x3d33b4c5	0.043873567
183	0xbe8f4ebd	-0.2798976
184	0x3e048c32	0.12944105
185	0xbeced2ab	-0.40395102
186	0x3eff800b	0.49902377
187	0xbe35c288	-0.17749989
188	0xbe61cc50	-0.22050595
189	0xbadc6988	-0.0016816119
190	0x3efe5e43	0.4968129
191	0xbf24541e	-0.6419085
192	0xbe18e407	-0.14930736
193	0x3d8e933e	0.06961678
194	0x3e906793	0.2820402
195	0xbd947d34	-0.07250443
196	0x3dd15cb0	0.10222757
197	0xbeac72d4	-0.33681357
198	0xbe1043a1	-0.14088298
199	0x3ee71cf3	0.45139274
200	0x3e7ec6ea	0.24880567
201	0xbc4c69b9	-0.012476378
202	0xbf6138cf	-0.8797731
203	0xbe9e901f	-0.3096933
204	0x3e69e0b0	0.22839618
205	0xbc9231f8	-0.017846093
206	0xbe79b819	-0.24386634
207	0x3eab2c31	0.33432153
208	0x3c1a74c1	0.00942725
209	0xbe195d6f	-0.14977048
210	0x3e806e03	0.25083932
211	0xbed0a591	-0.40751317
212	0xbdef417f	-0.11682414
213	0xbe31fe36	-0.1738213
214	0x3e7e8ec9	0.24859156
215	0xbe8f64be	-0.28006548
216	0xbda8b9a7	-0.082385354
217	0x3eae52ac	0.3404745
218	0xbf1cefed	-0.613036
219	0x3e98cfb6	0.2984597
220	0xbd552c43	-0.052044164
221	0x3d091208	0.03346446
222	0x3e32c6a5	0.1745859
223	0x3cdfdfd9	0.027328419
224	0xbc9ca0c0	-0.01911962
225	0xbe56eead	-0.20989485
226	0xbd3109fd	-0.043222416
227	0x3ccfe95c	0.02537983
228	0x3d6cee78	0.05784461
229	0x3e9fa736	0.3118226
230	0xbdf57e43	-0.11986973
231	0xbe3037a5	-0.17208727
232	0x3eb501e1	0.35352996
233	0x3eb0c5f3	0.34526023
234	0x3f24bb28	0.6434808
235	0xbe1877f5	-0.1488951
236	0x3e02a231	0.12757184
237	0xbcf48639	-0.029849159
238	0xbdc4b82a	-0.09605439
239	0x3eb047db	0.3442982
240	0xbd9e2d6f	-0.077235095
241	0x3e18b082	0.14911082
242	0x3df17afe	0.11791037
243	0xbf239bd8	-0.63909674
244	0x3dbd7f1e	0.09252761
245	0xbec42ec9	-0.38316944
246	0xbf13c75f	-0.5772609
247	0x3c2e2661	0.010629267
248	0x3cf7e404	0.030260094
249	0x3eceacdf	0.40366265
250	0xbede7b3e	-0.434534
251	0xbeef8d69	-0.46787575
252	0xbed3e49a	-0.41385347
253	0x3e5492e2	0.20759156
254	0x3e227627	0.15865384
255	0xbe613005	-0.21990974

decoder.1.linear.bias f4 [32]
0	0x3e05a3b0	0.13050723
1	0xbe0f8228	-0.14014494
2	0x3f2a8ce2	0.6662122
3	0x3dba7ca1	0.09105802
4	0xbe72b994	-0.23703605
5	0xbcfbae27	-0.03072269
6	0x3b18c2ab	0.002330939
7	0xbec874fc	-0.39151752
8	0xbdf9b948	-0.12193543
9	0x3eeb4253	0.4594904
10	0xbe089851	-0.13339354
11	0xbe08b178	-0.13348949
12	0x3e3fa371	0.18714692
13	0xbf4cbafd	-0.7997282
14	0x3eeca2c3	0.46217927
15	0x3ef68fb3	0.4815651
16	0xbdf219e4	-0.118213445
17	0xbd1d3ebd	-0.03838991
18	0xbeefe894	-0.4685713
19	0x3e03064a	0.12795368
20	0x3f59f796	0.8514341
21	0x3f01b989	0.5067373
22	0x3d63d6c4	0.05562474
23	0x3eee5dfb	0.46556076
24	0x3d1ea1a3	0.038728368
25	0xbf7852ea	-0.97001517
26	0xbf1f3ae9	-0.62199265
27	0xbcb2cb60	-0.021825492
28	0xbe81f7f6	-0.25384492
29	0xbe300880	-0.17190742
30	0xbe6aae4f	-0.22918056
31	0x3bede4bd	0.0072599337
