models/IPOD_model.pt (torch, 120169 bytes, 20 tensors)

encoder.0.linear.weight f4 [128, 24]
00000000: 01be 2d3d db77 943e 3b87 df3d 4080 983e
00000010: a74b c73d f83f 9abe 2877 233e dd51 823d
00000020: 63e4 663e fd64 eb3c 21c6 69ba 53ec b63d
00000030: 8796 80bd e3cc 88bd 4b60 8c3e 8ff5 b3bd
00000040: 6c8d b43d b507 993e 3c69 6e3d 9b89 39be
00000050: b7c7 063e ff84 0ebd f48d 5dbe 74e5 8dbd
00000060: f5b5 c4be 6c8c a13e f47f a23e 5a79 233e
00000070: bee0 eb3d 8652 06be bbca fabd fd42 74be
00000080: 8672 d33d ac5c 84bd f9a0 0cbe 780f 14bd
00000090: 36f0 e83e ebc3 a33d 7f16 983d 1ae6 3dbe
000000a0: ae29 65be 7888 363e 0a0a e7bd cc89 5abe
000000b0: c14e 95bd 4009 62bc 4f26 16bc 4e16 223e
000000c0: ec7f c83e 3246 113f ba0b 80bc c4d9 f03d
000000d0: cf91 c43b 622b a43d 88fc 803e 6152 3fbf
000000e0: 9483 773e 61ab 31be e0fc d53d cefb 54bc
000000f0: 7292 253e c1cb 66bf d76d 20ba c632 d5be
00000100: f76a 693e 70f1 2f3e bcd3 babe 0aa0 133e
00000110: cac3 05be 1809 5dbd dfb0 83bf e212 96bd
00000120: 84be 0b3e 31c1 08bf e7a4 0ebe 8279 58be
00000130: 7a4a 883e 76a5 bd3b dfb3 51bb 16f6 c0be
00000140: 2881 3d3f 9a04 e03d 47c5 83bd c7e1 eb3c
00000150: 1d2b 6e3e 6aed 33be e391 103b 3fd6 9abd
00000160: 433c 84be fe9b e83d 3a5d 41be 737f e1bd
00000170: f419 febd 1bc2 3cbe 9ed0 cb3d 6ce3 883e
00000180: d5c5 ae3c 72d9 8a3f c7f0 80be e42b cb3d
00000190: 009c cf3b 9090 26be 1d5b babe 1599 cd3a
000001a0: 6abc dc3e a3f2 d5be d601 103d 9346 26bf
000001b0: 4ea6 123e d6f0 6dbe 589a 99bc cb2f 07bf
000001c0: 8232 eebd 4a4d 01bf 3b83 b6be 776e 27bc
000001d0: d985 e4be 8b1f bf3e b7af 2ebe ca6f 3abf
000001e0: 5788 dc3d cfe5 50be 0af0 b1be d44c 783e
000001f0: 0f13 133b 629e c5bb 1c62 943a a82f f7be
00000200: 1efd 933e b1a7 13bc 025f e93b ec4e 683e
00000210: 0992 813e 1437 9f3e 9ac9 14bd d7b4 0ebe
00000220: 20c3 17be 1544 09be f4d6 23be 71c7 b93d
00000230: 245d bbbd b187 7e3e 612f 6b3e 5ac7 463e
00000240: 2408 e8bd 41bf 25be 6c33 003c fceb 043e
00000250: c94b 5fbc 2fd5 e93e c925 61bd a00f 9cbe
00000260: 141f 423e 3b1c 063e c724 5f3e c069 5fbd
00000270: 3527 a43d e771 1f3d 8c9d 2cbd 8b51 bdbd
00000280: 398f 203e 17c1 4cbe bc50 ecbd 4109 5b3e
00000290: fcf8 26be 0d8b 27bd d9b1 333b 937c ea3b
000002a0: 034b 4dbe 1126 53bd 7ea9 153d d186 4bbb
000002b0: 8a8d 2cbd 8f35 22be 72e4 51be d29f 1bbe
000002c0: 5216 273d dfd9 2bbe 7092 cb3d 3c04 ec3d
000002d0: 4ead 093e faa4 713c f19d 223e 9c71 23be
000002e0: dc64 56bd 2bd9 893d ba5d a83c 79f1 033d
000002f0: ffd9 5c3d 30f5 96bd c830 533d 839d 82bd
00000300: 44d9 1a3e 6208 133e 2ba6 6cbe a60f 0dbd
00000310: 4e07 c03d 1cb6 833e a061 0ebe ae03 5c3d
00000320: 0fe3 75be 8751 06be ff85 233e d4be e83c
00000330: 56a4 d8be a4c2 b5bd 1624 413e 7ad6 00be
00000340: 02ec 15be 7021 90bc e355 1c3e 1130 213e
00000350: 1b1c e83d 34ab 90be 2efb 113d 96e2 bb3c
00000360: 6d52 a4bd 7ae3 febe 0524 413e fd6e a1b8
00000370: 495d 0fbe b68f b83c 083b f13c 2de9 74be
00000380: ddd5 6a3f b5de 6dbe 5443 c4be 3725 ccbe
00000390: 98f9 cdbe 6485 8bbe 8d72 4d3e d00c 4bbe
000003a0: d314 93be 1f2e cdbe f11a 8abe dca0 eabd
000003b0: 287c e0be 16ee efbc 6a95 8b3d f076 93be
000003c0: 5baf 6bbd 6f8c 1dbd bad4 f83d 22f0 2fbe
000003d0: 0f0d 5e3d 6b41 173e 44c8 013e bb01 48be
000003e0: 6c73 7fbe e34f 4dbe c664 b13c 7b87 d43d
000003f0: 0a82 743e 949d 5dbe ee91 593d 1333 e43b
0.04241753 0.28997692 0.10914465 0.29785347 0.097312264 -0.3012693 0.15963423 0.063632704
0.2254806 0.028734678 -0.0008917768 0.08931794 -0.06278711 -0.06679704 0.27417216 -0.08787071
0.088160366 0.29888692 0.058205828 -0.18118899 0.13162123 -0.034794804 -0.21636182 -0.0692853
-0.38420072 0.31552446 0.31738245 0.1596426 0.115174755 -0.13117418 -0.12245699 -0.23853679
0.10324578 -0.06462988 -0.13733281 -0.036147565 0.45495766 0.07996353 0.07426166 -0.18544808
-0.22379181 0.17825496 -0.11281212 -0.21341628 -0.07290412 -0.013796151 -0.009164407 0.15828821
0.39160097 0.56747735 -0.015630592 0.117602855 0.005998827 0.08016087 0.25192666 -0.74735075
0.24171287 -0.17350532 0.10448623 -0.012999488 0.16169146 -0.90154654 -0.0006119883 -0.416403
0.2279471 0.17181945 -0.36489666 0.14416519 -0.13062969 -0.05396375 -1.0288352 -0.0732782
0.13646895 -0.53419787 -0.13930093 -0.21140102 0.2661932 0.0057875467 -0.003199808 -0.3768775
0.740252 0.10938378 -0.06434112 0.028794182 0.23258634 -0.17571035 0.0022059612 -0.075603954
-0.25827226 0.11357878 -0.1888322 -0.11010637 -0.12407294 -0.1843342 0.099519 0.2673601
0.021334568 1.0847609 -0.251837 0.09920481 0.0063357353 -0.16266084 -0.3639764 0.0015685881
0.431125 -0.4178668 0.035158 -0.6495144 0.14321253 -0.23236403 -0.018750355 -0.528073
-0.11630727 -0.5050856 -0.35646996 -0.010219208 -0.44633368 0.37328753 -0.17059217 -0.72826827
0.10768192 -0.20400165 -0.34753448 0.24248058 0.002244178 -0.0060308436 0.0011320743 -0.48278546
0.2890405 -0.009012149 0.0071219215 0.22686356 0.25306728 0.3109671 -0.036325075 -0.13936172
-0.14820528 -0.13404877 -0.15999967 0.090712436 -0.091486245 0.2485645 0.22967292 0.19411984
-0.11329678 -0.16186239 0.00782476 0.12980646 -0.013628908 0.4567046 -0.054967675 -0.3048067
0.18957168 0.13096707 0.21791373 -0.05454421 0.08015291 0.038926985 -0.042142436 -0.09244069
0.15679635 -0.19995533 -0.11538836 0.21390249 -0.16305918 -0.040904094 0.0027419238 0.0071559637
-0.20048146 -0.051549975 0.036538593 -0.0031055699 -0.04212717 -0.15840743 -0.20497301 -0.15197685
0.04079277 -0.1678233 0.0994004 0.11524245 0.13445017 0.014748806 0.15880562 -0.15961307
-0.05234228 0.06730875 0.020552505 0.03221271 0.053918835 -0.073709846 0.051560193 -0.06377699
0.15121943 0.14358667 -0.23110263 -0.03443875 0.09376393 0.25724876 -0.13904428 0.053714447
-0.24012397 -0.13117038 0.15969084 0.028411306 -0.42312878 -0.088750154 0.18861422 -0.12581816
-0.14640811 -0.01759407 0.15267138 0.15740992 0.11333486 -0.28255618 0.035639934 0.022935193
-0.08023534 -0.49782926 0.18861397 -7.6977514e-05 -0.14000429 0.022529464 0.029447094 -0.23917075
0.9173258 -0.23229487 -0.38332617 -0.39872143 -0.40229487 -0.27250206 0.20063229 -0.19829106
-0.28726825 -0.4007425 -0.2697368 -0.11456463 -0.43844724 -0.029288333 0.06815608 -0.2880168
-0.05754028 -0.038464006 0.12149949 -0.17181447 0.054211672 0.14771049 0.12674052 -0.1953191
-0.24946374 -0.20050006 0.021654498 0.10377403 0.23877731 -0.21642143 0.053117685 0.0069640963

encoder.0.linear.bias f4 [128]
00000000: e421 4d3d 62c3 ff3b 7065 f23d 93c4 2bbd
00000010: 5872 b83e 5389 cfbd a0d8 e6be b3e6 11be
00000020: c72c 79bd b894 e33d 511d 3d3d 179b 32be
00000030: 0ac7 1d3d 18b2 aabe 722d e3be f6e8 aebc
00000040: 405f 7fbe 7ce7 5bbc f7bd f63c 1a84 053e
00000050: c469 9c3d 6f21 993b 9f5b 82be 447f 453e
00000060: b5a9 5c3e c21f 343c 9493 b83e 81ff d93c
00000070: 6fec 143e 74d5 fd3d 7239 3dbe cccc e63e
00000080: faee 18bc 4507 4a3d d4c3 8a3e 84b2 31be
00000090: 662e fa3d e9aa 34be 5458 413e efab 94bd
000000a0: d198 923e 981d 4a3e c56f 32be a724 dd3e
000000b0: 4aed 41be fb88 0cbe 96d1 2fbe 751a df3b
000000c0: 5988 81bd c256 e03d d554 513e bc44 1ebd
000000d0: c9b8 9bbc 3d04 f0bd 80f7 ff3b b316 cf3e
000000e0: cf13 6bbb 3842 45bd 9736 eabc f441 0a3e
000000f0: 0b1a 813e b811 62bd 56a4 203e a2dc 7f3e
00000100: 290a 2b3e cf65 0ebe 8ba4 c6bd dd4f ea3d
00000110: cf90 633e cedc bbbe 4fa6 fabd c387 acbe
00000120: 5114 83be ac0d 4fbe 8554 4c3c 689e 3fbe
00000130: 5a58 5d3d e335 ecbb 67c3 203d 0ab1 22be
00000140: 6382 33be 9489 c6bd 5f59 93be a1cc 4e3e
00000150: ff31 11be 8bed 47be a2e1 24be 296f 41be
00000160: 51b6 54bc b7ad 85bc e727 f63c c6a8 9dbe
00000170: fa6b a6be b0b3 c2bd ac81 e43e c51e 8f3e
00000180: 5360 08be 7ed0 1e3e 7ae1 3dbe 3331 953e
00000190: 9640 583e 2e05 a43d 59d5 f1bd 63ab 903e
000001a0: 8563 4cbe ed8d 213e 25c4 f8bd d168 0bbe
000001b0: cc26 093e d66c d8bc 08e2 7f3e 3e56 80be
000001c0: 5071 54bd 91ab a83d 55aa 4d3e 4782 6abe
000001d0: a95f 06bc af99 b43c 8909 febd 3e87 f33d
000001e0: 4bc1 dc3c 15dd 6b3e 9b6a 8dbc 321a db3d
000001f0: c64c 363e 8603 683e 3c8c ce3e 7f17 e53d
0.05008115 0.007805274 0.11835754 -0.041935515 0.36024737 -0.101336144 -0.45087147 -0.14248161
-0.06083372 0.1111235 0.046170536 -0.17441975 0.038519897 -0.33339 -0.4437061 -0.021351319
-0.24938679 -0.013421889 0.03011988 0.13038674 0.07637361 0.004673175 -0.25460526 0.19286829
0.21549113 0.0109939 0.36050093 0.026611092 0.14543317 0.123942286 -0.18478945 0.45078123
-0.00933432 0.04932334 0.2710253 -0.17353255 0.12215881 -0.17643322 0.18881351 -0.07259356
0.28632215 0.19737852 -0.17425449 0.43192026 -0.18938175 -0.13724129 -0.17169794 0.006808574
-0.063248344 0.10954048 0.20442517 -0.03863977 -0.01900901 -0.117195584 0.0078114867 0.40447006
-0.003586996 -0.048158854 -0.028590484 0.13501722 0.25215182 -0.05519268 0.15687689 0.24986508
0.16703095 -0.13906024 -0.09699353 0.11441014 0.22223209 -0.36691898 -0.12238752 -0.33697328
-0.25601438 -0.20220059 0.012471323 -0.18712771 0.054039337 -0.0072085722 0.03924885 -0.15887848
-0.17530207 -0.0969421 -0.28779122 0.20195247 -0.14179228 -0.19524209 -0.16101697 -0.1889006
-0.012982921 -0.016318185 0.030048324 -0.30792826 -0.32504255 -0.09506929 0.44630182 0.27953163
-0.13317995 0.15509221 -0.18543044 0.291391 0.21118388 0.080088004 -0.11808271 0.28255758
-0.19959839 0.15776797 -0.121467866 -0.13614203 0.13393706 -0.026419085 0.24988568 -0.25065798
-0.051865876 0.08235849 0.20084508 -0.2290126 -0.008201518 0.022045938 -0.124041624 0.1189103
0.026947638 0.23033555 -0.017262748 0.10698356 0.17802724 0.22657594 0.40341365 0.11186122

encoder.1.linear.weight f4 [64, 128]
00000000: 0fad 5ebd b57e b43d 76ba 8abe 3aac 723e
00000010: 9903 50be 9095 9fbe 6caf 593d 7079 93bd
00000020: c8bc 1cbc ba9c cb3e 5a6e b23c 0e14 f639
00000030: dcf1 27be bee4 74bc 795b abbd f8f9 e03c
00000040: 630b c73e d600 f73c ffce 633d 1b43 b13d
00000050: 31a4 a23c 53e9 dd3d 8da1 973e 068f 8ebe
00000060: 6e1b dd3d 28a1 323d d965 b4bb 435f 3b3c
00000070: 937b 013e 5c73 413b 00bd 53bc 3c1a f0be
00000080: bbfb 75be 2d49 e93e e8a1 1fbe 6663 693d
00000090: cb97 933e 4125 903c 25c5 9fbd bfc4 95bc
000000a0: 6144 89bd bfd8 413d 758b 37bf c748 85be
000000b0: b26a 173e fa33 543e a62e 8b3d ceed ecbe
000000c0: 25e6 6a3f 7662 133d e0d0 2bbe 347a 0c3d
000000d0: ac3d f3bc 19da e83d 7ad4 623d 4813 35bf
000000e0: 4a51 8f3d a1ab 31bd b7c4 ddbc 9fb5 803e
000000f0: 9612 bd3d 7698 1e3d b26b bdbd 6996 24bf
00000100: 7434 523e bba5 b13d 9e16 19bc 9512 e33e
00000110: 6484 0cbd 94d1 1b3f 9b9d 98bd 0ff9 c23e
00000120: 4289 cd3e ee2c 8fbd 12a8 a33d fb4e 833d
00000130: 79a3 5fbc d0b1 b93e 7a92 453e 25ea da3e
00000140: ba06 793e 2b38 793c b4c8 6f3e 67b8 c9bd
00000150: c258 2a3d 306e 463c de53 84bd dc94 04be
00000160: 5e24 38bc 5f95 adbd c3df a53e 213e 5bbd
00000170: 261e cabd 550b aebd 8e5f cfbe d2fc 9c3d
00000180: 0d20 5c3d 5205 59bd 9265 4b3e 9d1e e5bd
00000190: fd6e e4bd 8d93 5fbd a697 0c3d 3564 f13d
000001a0: d24f 953e 28f6 3d3e 9254 21bd 0564 273e
000001b0: 6448 36bf bfbb 383d 323b 56be 936b 143e
000001c0: 6eb2 fa3d bea5 14be 2431 e5bd cd2e 433f
000001d0: acd2 26be 5a03 433d 3e97 d83d 6413 3c3e
000001e0: f676 193f d59d 233d b92f aabc e268 d33c
000001f0: 8017 73be efa7 8b3c d5fd adbd 1483 4f3d
00000200: 549e 9fbd 0079 d6b9 1eeb 5cbd c2d8 0b3d
00000210: a2ca 89bd 742e 58bd fccf cc3c 96a2 51bd
00000220: aab3 e4bc ed58 83bd 259c 4fbd da77 3d3d
00000230: b665 1d3d 208a 23bd 9abe 373d 6a95 003d
00000240: 1617 4dbd bb69 91bd fd24 4abd 700a c5bb
00000250: 002a dcb9 aa16 1bbd 7271 5d3d d86c a2bd
00000260: ae91 56bd 5c5e 1fbd 9047 95bc 3653 693d
00000270: 8d71 9a3d 6876 333c e8cc 343c 77a4 77bd
00000280: e665 403d ea69 593d ecd3 d1bc c8a7 133d
00000290: e04c 46bc cad0 1c3d f919 b33d 27ad 63bd
000002a0: 790f 3abd 2e63 eebc c8e7 22bc 4954 99bd
000002b0: 51b4 b13d 20f2 2bbd f401 f13c 081c 213c
000002c0: 4897 68bc d0d2 753c 0492 b93c d8a2 4f3c
000002d0: 350f 913d 28e7 603c 024b 22bd a85a 87bd
000002e0: 1a4d 71bd c6b9 34bd f863 9b3c 7f01 af3d
000002f0: f6de 383d 243e 0c3d e810 b9bc 1454 d7bc
00000300: cf29 853d a771 98bd d0af f83c 6212 553d
00000310: b486 cdbc 37f5 9d3d 07d9 8e3d 57f1 81bd
00000320: aa81 383d 271c ac3d 5e4c 623d da2c 5f3d
00000330: 088d eebc e8ae 073d 5d2f 9b3d 1300 99bd
00000340: e048 553b e844 a3bd 1c99 37bd 5661 37bd
00000350: 9edb 58bd 8835 50bc c814 d9bc 50f7 3fbc
00000360: e0c4 49bc 30b8 8ebc 300f e7bb 608f 3b3c
00000370: 6a77 493d 4569 813d 191c 22bd 011f 58bd
00000380: d5f7 a63d f874 08bc a0d7 b43c f067 513c
00000390: a81f 23bc 7d6d 9cbd f4f2 a5bd 7899 10bc
000003a0: c046 f73a 10b4 45bc 96a8 a1bd 028d 393d
000003b0: 4ed5 193d 1ea8 563d 3d5a ab3d 005b 8bbc
000003c0: cec9 92bd 88ff f0bc 249f 85bd ae79 553d
000003d0: 5cc6 aabc 27c2 893d ff20 a43d caa7 463d
000003e0: 79e0 823d c385 a03d f0ba b93b 1fd7 68bd
000003f0: 5b0e 69bd 3b13 51bd dfb3 93bd 165b 5d3d
-0.05436426 0.0881323 -0.27095383 0.23698512 -0.20313872 -0.31168795 0.05314581 -0.07200897
-0.009566493 0.3976801 0.021781135 0.00046935718 -0.16400856 -0.0149471145 -0.083670564 0.027462944
0.38875875 0.030151766 0.05561733 0.086553775 0.019853683 0.10835519 0.2961544 -0.27843493
0.107962474 0.04361072 -0.0055053052 0.011436286 0.12644796 0.0029518222 -0.012923479 -0.46895015
-0.24021809 0.4556364 -0.15589106 0.05697956 0.28826746 0.017595889 -0.07801274 -0.018282292
-0.06702495 0.047325846 -0.7169717 -0.26032087 0.14786795 0.20722952 0.06796007 -0.4627518
0.9175742 0.03598257 -0.16778898 0.03429623 -0.029692493 0.11369724 0.055378415 -0.70732546
0.069979265 -0.04337657 -0.02707134 0.25138566 0.092320606 0.038719617 -0.09249057 -0.6429201
0.20527822 0.08674189 -0.009343771 0.44350114 -0.034305945 0.60866666 -0.07451936 0.38080642
0.40143782 -0.069909915 0.07991041 0.06411549 -0.013649815 0.36268473 0.19294158 0.42756763
0.24318972 0.015211145 0.23416406 -0.09849625 0.041588552 0.012111232 -0.06461309 -0.1294741
-0.011239139 -0.08475756 0.3239728 -0.053526048 -0.098690316 -0.08498255 -0.4050259 0.07665409
0.053741504 -0.05298359 0.19862965 -0.1118748 -0.11153982 -0.054584075 0.03432431 0.11786691
0.2916246 0.18550932 -0.039387293 0.16346748 -0.7120421 0.045100924 -0.20921019 0.14494161
0.12241064 -0.1451635 -0.111910135 0.7624329 -0.16291302 0.04761062 0.10575722 0.18366772
0.59947145 0.039945442 -0.020774709 0.025806848 -0.23739433 0.01704785 -0.0849568 0.050662115
-0.077938706 -0.00040907413 -0.053935163 0.034142263 -0.06728102 -0.052778676 0.025001518 -0.051180445
-0.027917702 -0.064134456 -0.05068602 0.046256877 0.038427077 -0.03992665 0.044859506 0.031392492
-0.050070845 -0.071002446 -0.04935168 -0.006013207 -0.00041992962 -0.03786341 0.054063268 -0.079309165
-0.052385025 -0.038908347 -0.0182226 0.05696412 0.07541189 0.010953523 0.011035182 -0.06045958
0.046972178 0.053079523 -0.025613748 0.03604868 -0.012103289 0.038285054 0.08745188 -0.055585053
-0.045424912 -0.029100027 -0.009942956 -0.07486779 0.08676971 -0.041978955 0.029419877 0.009833343
-0.0141962245 0.015003875 0.022652633 0.012673102 0.07082979 0.013726987 -0.039622314 -0.06609088
-0.05891142 -0.04412248 0.018968567 0.08545207 0.045134507 0.03423895 -0.02259107 -0.026285209
0.06502115 -0.074435525 0.030357271 0.052019484 -0.025088646 0.07712787 0.069749884 -0.0634486
0.045045532 0.08403807 0.05524861 0.054486133 -0.029119983 0.033125788 0.07577393 -0.07470717
0.0032544658 -0.07972127 -0.04482375 -0.04477056 -0.05294382 -0.012708075 -0.026499167 -0.011716679
-0.012315005 -0.017421812 -0.007051371 0.0114477575 0.049186148 0.06318907 -0.039577577 -0.052763943
0.08152739 -0.008328669 0.022075474 0.012781128 -0.009956278 -0.07638071 -0.0810298 -0.008825652
0.001886569 -0.012066856 -0.07893483 0.04530049 0.03755694 0.052406423 0.08366821 -0.017011166
-0.071673974 -0.029418722 -0.06524494 0.052117996 -0.020846538 0.06726485 0.08014106 0.04849986
0.06390471 0.07838013 0.0056680366 -0.05684578 -0.056898456 -0.05104373 -0.07212042 0.054041944

encoder.1.linear.bias f4 [64]
00000000: b479 bb3d ca26 03bd 2e8e b1bd 6506 b7bd
00000010: 4099 cdbc 0dca d2bd e715 233e 78c3 8a3d
00000020: 4495 41bc e6a6 d4bc 0f7c 183e c743 ad3d
00000030: 3f65 88bd 65f7 dd3d adfc ef3d 3abd d9bd
00000040: 80cc 3bbd 0c23 05be ef87 fa3c 1de7 88bd
00000050: 101d 1e3d 5dbf 68bb ccc2 45bd 89e1 3bbc
00000060: ae6f d43d 4e65 583b 2e14 8f3b 86fe 6b3d
00000070: 66c6 ec3d c119 013e e075 773d 6571 773d
00000080: 57ee 59bd f26e 30bd 5f44 cdbd 9498 98bc
00000090: d624 af3d 41e0 56bd f308 203d 13a9 5b3d
000000a0: 69ae 45bd 01d9 c3bd 0633 223e aef7 d53d
000000b0: d550 a03d 695c babc 885a 6cbd 3273 bcbd
000000c0: 798a 7e3d 5ca7 c3bd e696 51bd e8e6 1fbc
000000d0: 3f4b 39bd 2520 353e 885a 453d 52f9 42bb
000000e0: 5f79 393d 8897 133e 7c60 cd3d 1a3f c93d
000000f0: 37b8 fabd 5907 9fba f7f7 cbbd aca4 6abd
0.091540724 -0.032019414 -0.08669697 -0.089367665 -0.02509749 -0.102924444 0.15926324 0.06775564
-0.011815373 -0.02595849 0.14891075 0.08460193 -0.06659936 0.108382024 0.11718116 -0.10631795
-0.045849323 -0.1300165 0.030582396 -0.06684706 0.038601935 -0.0035514452 -0.048281476 -0.011467346
0.10372864 0.0033019367 0.0043664193 0.05761578 0.11561279 0.1260748 0.06041515 0.060410876
-0.053205814 -0.043074556 -0.100228064 -0.018627442 0.08551948 -0.05245996 0.039071035 0.05362804
-0.048262034 -0.095628746 0.15839776 0.10447632 0.078279175 -0.022749143 -0.057703525 -0.09201659
0.062143777 -0.09553406 -0.0511693 -0.009759642 -0.045237776 0.17688043 0.04818204 -0.0029750657
0.045281764 0.14413273 0.100281686 0.09826489 -0.122421674 -0.0012132927 -0.09959405 -0.05728595

encoder.2.linear.weight f4 [32, 64]
00000000: 42bb 013e 3e79 e53d 6a44 44bd d081 7a3d
00000010: b02b 563e 1687 c83d dab6 8cbe 43a7 b6bd
00000020: 00fa d0bd 1125 753d 298b 47bf e063 1ebf
00000030: cb7e 83bd e4cb f03c 1eee c6be 883f 1e3f
00000040: f107 d83c 1566 e7bd b9a0 c33d a7f0 7e3d
00000050: b5db 0fbd 29e9 343e 65c6 a83d d4ca cc3d
00000060: d2d0 27be 99a6 a5bd 2879 05bc cc41 d1bd
00000070: fa76 b2be c6d2 80be 8a22 223e e66d 843d
00000080: 2145 4ebc 59ec 23bd 1c2a f3bd 9c30 80be
00000090: 5039 453e f530 e33d 6078 f4bd a207 e53d
000000a0: 2410 1e3d 18a1 5a3d 710c 0bbf 25fe 15be
000000b0: 6abe 68bf 7fd0 003e e0a1 443d 68c8 c8bd
000000c0: 6ab7 ea3d 8bfb a7bc 37e5 9b3d a87d b2bc
000000d0: 9ec6 933d c1dd 19bf ccab fdbd ceae 8a3d
000000e0: ff09 38be f379 8cbd 768d 1d3e d7fa 41be
000000f0: 6ec2 9c3d d95d 6ebd 10f4 d7bd 0f28 d4bd
00000100: 9de9 38be 2cde c83d c949 d1bd d3b0 eebc
00000110: 4a1f c1bd e2b7 29bd 3d7d 06be 82be 9c3c
00000120: d0c9 fbbd df42 05be aa6d 92bd 132b 933e
00000130: c7ac 00bd 043f 273f 6bf1 a93e 2a64 143f
00000140: d82f f93d 3a0c 813f 5662 96be 76c9 243d
00000150: d04c f73c da06 c43e 4e7d a63d 8ebd 473d
00000160: bfbb aebe ad6e d5bd f9c4 5b3d 84a3 c5bd
00000170: a7f5 843e 7c0c fb3d 9245 3e3e e348 bb3e
00000180: 5f55 71bd b565 a9bd caa1 a43c d407 a7bd
00000190: 8be0 fa3e d327 253d 6fd3 babc 7bad 783d
000001a0: 05ad d93e 5bb7 9bbd d62f 9c3e 1944 ec3d
000001b0: 4c81 bfbe 92ed c03d 22bd babd d039 fc3d
000001c0: 15df 3d3d 85d6 31bd 60d4 e0bb 8225 cabd
000001d0: 409e 86bb 621d cd3d d000 d83c 22ce 8f3d
000001e0: 233a cb3e 385e d63e 59dc ccbb 73ec c3bd
000001f0: 15e8 043e 534d 463d da71 ecbc 0b75 23bd
00000200: be68 a53e 98b5 aa3c 2029 42bd e3f5 013d
00000210: ae6e 943d d584 fa3d 7195 543e 5c5c 1c3e
00000220: 1f5c a23d d708 9a3c 4554 a1bd fb66 323e
00000230: 6c4c e83d 6261 9ebf fb97 6abc 6559 213f
00000240: 7580 e63c 67ab bebe 12b1 6f3e 4f3a 233e
00000250: 6dad ec3e 19c1 aabe accb af3d be69 8f3c
00000260: 9d26 e1be 8f5c b7b9 97f5 d0be 8d32 a9bd
00000270: a7fd 36bd 8e60 26be 1bdb d03d 0455 0f3d
00000280: b946 813c 7f1e 7ebf c209 a2be b79c de3e
00000290: dedd a23e 9abe 83bc 88ee c6bc 2d86 3e3f
000002a0: 0a05 ffbe 4008 77bd 1a13 b23d c901 f4bd
000002b0: bc40 253f 6069 c13d 7fd1 72bc 5e61 2e3c
000002c0: ea98 d53d aed0 8bbd 2413 bebd 5019 4bbc
000002d0: 6c20 69bd 6a8c aa3d 663f 9cbd f88a a3be
000002e0: 5073 8b3d a0a5 463e d41a c5bd b203 0fbf
000002f0: a58b a73d 9c60 babd e02f 84bc 2860 d23d
00000300: 88a0 c4bd 3871 323d d447 19bd 5934 833d
00000310: 8519 ccbe 25a9 a63d 0b51 1d3e f824 2cbe
00000320: a4e8 4d3d 3f7e a1bf a655 3f3d 9d69 563d
00000330: d6f2 26bc 8274 ea3e 5817 783e ba0b 583f
00000340: 93bc 8dbd 2695 07be e63b 57be ffc0 9ebd
00000350: 302d a8be cdb6 883e f262 a3bd 6c4a 2f3d
00000360: 2556 70bd 665d 2f3b b533 173e d756 08bd
00000370: 500c 6a3e 9dd8 7fbe 9238 be3d 6024 a5bd
00000380: 0b9a d83d 9082 203f a5b0 373e 40f0 22be
00000390: a2ff 523e 7b69 163e 4a49 c6bd 325f f3bd
000003a0: 8e7f 9b3d e750 71bd 8ad7 903e c0ea c3bd
000003b0: bcf5 d83e 6059 1e3d bd4b 493d 41dc 923d
000003c0: 3a37 db3d 5201 f93c 0a1d f7bd 0455 a53c
000003d0: 0104 003e 814e 6b3e 2a7d 473d 056a f73e
000003e0: 0f42 223d 0489 4fbd e329 0e3d 2118 b1be
000003f0: 1a91 adbd 62a6 873c f4fd d43d 2e5e 763c
0.1266909 0.11204766 -0.047916807 0.061158955 0.20915103 0.097913906 -0.27483255 -0.089186214
-0.10203934 0.059849802 -0.77946717 -0.6187115 -0.06420668 0.029394098 -0.38853544 0.6181569
0.026370974 -0.112987675 0.0955214 0.062241223 -0.03512164 0.17667069 0.08240966 0.09999624
-0.16388252 -0.080884166 -0.008146562 -0.10217628 -0.34856397 -0.25160807 0.15833488 0.06466274
-0.012589724 -0.04002032 -0.11873266 -0.25037086 0.19260144 0.11093322 -0.11937022 0.111830965
0.03858961 0.053376287 -0.5431586 -0.1464773 -0.9091555 0.12579535 0.04800594 -0.098038495
0.11460765 -0.020505687 0.07612079 -0.021788433 0.072156176 -0.60103995 -0.12386283 0.067716226
-0.17972563 -0.068591975 0.15385994 -0.18943344 0.07654272 -0.05819497 -0.10544598 -0.10359203
-0.18057866 0.09808001 -0.102191515 -0.02913705 -0.09429796 -0.04143513 -0.13133712 0.01913381
-0.12294352 -0.1301379 -0.07149823 0.287438 -0.031414773 0.6533053 0.33192 0.5796534
0.121673286 1.0081856 -0.293719 0.04023119 0.030187994 0.38286477 0.08129369 0.048764758
-0.34127614 -0.104215 0.053654645 -0.09650329 0.25968668 0.122582406 0.18581226 0.36579046
-0.058919307 -0.08271352 0.020096678 -0.0815579 0.48999438 0.040321182 -0.022805898 0.06071232
0.42514816 -0.07603332 0.30505246 0.11536426 -0.37403333 0.09420313 -0.091181055 0.12315714
0.046355326 -0.043417472 -0.0068612546 -0.09870435 -0.0041082203 0.1001537 0.026367575 0.070217386
0.39692792 0.41868758 -0.0062518534 -0.095665835 0.12979157 0.048413586 -0.028862882 -0.039906543
0.32306474 0.020838544 -0.0474025 0.031728636 0.07247673 0.12232367 0.20760132 0.15269607
0.07927727 0.018803043 -0.07877401 0.17422096 0.11342701 -1.2373469 -0.0143184615 0.6302703
0.028137425 -0.37240145 0.2340739 0.15940212 0.46226063 -0.33350447 0.08583769 0.017506476
-0.43974772 -0.00034973442 -0.4081237 -0.08261595 -0.044675495 -0.1624777 0.10198041 0.034993187
0.015780794 -0.99265283 -0.3164807 0.4347894 0.31809896 -0.016082097 -0.024283662 0.74423486
-0.49808532 -0.060310602 0.086950496 -0.11914403 0.645519 0.09443927 -0.014820456 0.010643331
0.10429557 -0.06826912 -0.092809945 -0.012396172 -0.056915686 0.08327563 -0.0762928 -0.31941962
0.068091035 0.19399118 -0.09624258 -0.55865014 0.08180932 -0.09100458 -0.01613611 0.102722466
-0.096009314 0.043565005 -0.037422016 0.06406469 -0.3986322 0.081377305 0.15362947 -0.16810977
0.05027069 -1.2616652 0.04671254 0.052346814 -0.010189733 0.45792013 0.24227655 0.84392893
-0.06920733 -0.1324049 -0.21018943 -0.07751655 -0.32846975 0.26701966 -0.07977857 0.042795584
-0.058675904 0.002675855 0.14765818 -0.033285942 0.2285626 -0.24984975 0.09288134 -0.080635786
0.10576256 0.6269922 0.17938478 -0.1591196 0.20605329 0.14688675 -0.096819475 -0.118833914
0.075926885 -0.058915045 0.28289443 -0.095662594 0.4237498 0.038659453 0.049144495 0.07170916
0.10703893 0.030396137 -0.12066086 0.02018214 0.12501527 0.22979166 0.04870335 0.48323074
0.03961378 -0.050667778 0.034707915 -0.3458872 -0.084749416 0.01655883 0.104 0.015037103

encoder.2.linear.bias f4 [32]
00000000: 7ff7 fb3d 32c2 643e 6a68 a7bc db2a ff3d
00000010: f09c 02be 6f8b aebc 1642 f43d 43b6 293e
00000020: f2f6 d63d 95f2 4e3e 3ff3 8ebd 71ef 8a3e
00000030: 3828 9e3d 091c c13d 70c1 023e 3d4f acbc
00000040: bdea 07bd 9f36 e8bc 1fc3 d1bd 7203 bebd
00000050: cd95 193e 4785 913d b5bd 743d 6f43 ac3d
00000060: 6c29 d3bd 438b e0bd 6f83 103e f02a 6d3d
00000070: 1cb2 e1bd 5087 893e 79a8 3d3e 8b16 c2bd
0.123030655 0.22339705 -0.02043553 0.12459346 -0.1275518 -0.021306721 0.119266674 0.16573434
0.1049632 0.20209725 -0.06979989 0.27135804 0.07722515 0.094291754 0.12769103 -0.021033878
-0.03318285 -0.028346358 -0.102422945 -0.09278001 0.1499855 0.07105499 0.05975123 0.084112994
-0.10310635 -0.10964062 0.14112638 0.057902277 -0.110203 0.26861048 0.18521298 -0.09476956

encoder.3.linear.weight f4 [16, 32]
00000000: 23f6 aebe 7846 053e 8b2e 693e 6fbb a1bc
00000010: 099b 793d 3d0c 0cbe e89a e73d b513 bfbe
00000020: f25e 143e 3e37 5b3e 0747 003d fd61 b93e
00000030: 4e92 913e c29d a6be e9d2 293f 9021 543d
00000040: 785f 8bbe c385 05be e40d 2b3c 4f1f 163e
00000050: 27e9 a3be 8c0f 9fbd b449 b53d 879a 783e
00000060: 67bb 983d a2b6 9c3d bf5c e83e d334 7cbe
00000070: 53d4 e13c e823 9f3d 1fea 9e3e 5f82 f4bd
00000080: a9db 183e 5d88 efbd 07e9 55be a971 363e
00000090: 6942 aa3d e931 583d e8e5 943e 6592 4e3e
000000a0: 42b4 803e 23e6 953e 9e98 823d 237a 173e
000000b0: 6152 7fbe 4faa 023f 5220 1f3e 786e 773d
000000c0: 77dd 89bd 83b9 143e 6356 24be e130 853e
000000d0: 8e4a 68bd fbae 2abe ea51 413e 2039 0eba
000000e0: c0c5 78bd 6874 7e3d 7fb2 6ebe 05f2 993e
000000f0: 3127 673e 72fe 043e 407d f7bd 16e1 dabd
00000100: 36a8 133e 740c cfbd fba9 bcbd 64f1 2a3d
00000110: 5015 25bc 4c37 34bd 4538 49bd 6ed3 b6bd
00000120: 6160 b63d a882 3cbe 5184 dfbd c186 eb3d
00000130: 89c6 49be c8b8 f2bd 7cf4 8b3d 939a 9bbd
00000140: a4f2 8e3d 86b1 10be 8945 bebd 58ac 37bb
00000150: 6c88 0dbd a1ae 01be 6ab8 a4bc 63f1 063e
00000160: cf1e f1bd ac78 00be 933b 0cbd 3153 4abd
00000170: b2a3 5d3d 3545 38be 3498 da3d 0073 92bd
00000180: 06d8 8f3d 0ae8 563e ae1d b33e 5177 7d3e
00000190: 13d1 e4bd a0a1 873d eb83 17be 87f3 4bbe
000001a0: 277d 42bd 2f16 a03e 9038 493c 7f3d f63d
000001b0: 5920 fcbe 9e02 52bf 96be 593f d7d1 f7bd
000001c0: d232 af3d 0c88 3a3d 5a00 803d cd1c 263e
000001d0: c6b2 b33c 89c9 123e 8a85 463d 3cf8 053e
000001e0: 5447 123d 1b43 c63d 7057 34bf b0ab 6abe
000001f0: 0f60 34be 7752 cabd f70b 2fbf 6625 253d
00000200: 46d1 1ebe 5a48 3a3d 6317 75bd 7176 ff3d
00000210: a621 00be 62bd 61bd 38d5 4cbd f6d3 33be
00000220: b03c 26bd 986c 33be 7192 2d3e f607 f1bd
00000230: 2ad8 9f3a c9e9 8cbd a0ac 15bc 3ff6 9abd
00000240: 36ed 79bd f8bf 863d 48ae 10be 59ec cfbd
00000250: ddd1 243e ce87 bc3d 65a5 c0bd 5128 28be
00000260: a4bc c0bd 008b c1bb b62d 793b e62a 30be
00000270: d207 06be b64a 673d 4e9d 5ebd 4862 c93c
00000280: 6e4b 50bd d233 743e 4bd5 e7bd fd83 d73e
00000290: 9bf4 0f3d 9f4d 0abe 1ef9 e9bd 46ad 9d3e
000002a0: 6281 3e3e 904a 06be 0c1c a0bd 8737 773e
000002b0: a934 523e 10b5 e23e 20dc 04be 7186 82bd
000002c0: 4fbd d8bd c84c dfbd 2c3c 65be dafe ed3d
000002d0: 92ef 603d 77b3 2d3e 5d76 3e3e 1207 a23e
000002e0: 08ee e1bd 4bb5 0ebe 18f1 ddbd 03fc 7e3e
000002f0: 42b2 983e 6c01 1f3e a7e3 0ebe 0dd0 823e
00000300: c8e2 0d3d 451b 803d 3b28 dc3a a42f 29bf
00000310: 0cbc 773d 02e6 1b3e 5562 183f 095a dd3d
00000320: b059 4bbe 5a86 4ebe a295 60bd 361a 253f
00000330: 33b3 09bf 57de 9b3d eb5f a0be 00ea c63d
00000340: d0e1 9cbd da96 33bd abd6 e13c bf53 0b3f
00000350: f37e cb3e 882f b5bc 6d20 8dbe 52e1 d5bd
00000360: d998 123e a471 0bbe 1a26 f2be 46ae 843e
00000370: 0a08 d23e fc6a 31bb 4ee6 40be fab7 0e3e
00000380: c948 673f 9c16 ad3e e1ab ce3d dd6e 2b3e
00000390: 27b4 873d 7150 5bbd db3d 05bd abb8 da3e
000003a0: 7efd 753e 83c1 a4bd a5f8 6ebd ece5 413e
000003b0: f198 10be 5c14 2f3e 8e1e 2cbf 88e0 073e
000003c0: 5768 973d 632e 61bd 3ccc 89bd cd8c 00bd
000003d0: 29ce 123e b680 80bd 2eb5 903e 553f 273e
000003e0: a908 333e 002d 453d eb3b 2dbe 3ca3 2a3e
000003f0: f807 a53e 9e51 aa3e f806 22be ec98 933d
-0.34172162 0.13015163 0.22771661 -0.019742696 0.06093887 -0.13676544 0.11308843 -0.37319723
0.14489344 0.21407792 0.031317737 0.36207572 0.28431934 -0.32542235 0.6633745 0.05178982
-0.27221274 -0.13039307 0.0104403235 0.14660381 -0.3201382 -0.07766637 0.088519484 0.24277698
0.07457619 0.07652022 0.4538326 -0.24629526 0.027567064 0.077705204 0.31037995 -0.11938929
0.14927544 -0.11695931 -0.20889674 0.17816795 0.08313448 0.052781973 0.29081655 0.20173033
0.25137526 0.29277143 0.06376766 0.14792685 -0.24933769 0.5104112 0.15539673 0.060408086
-0.06731694 0.14523892 -0.16048579 0.26013854 -0.056711726 -0.16668312 0.18878904 -0.00054253824
-0.060735464 0.062122732 -0.23310278 0.3006746 0.22573544 0.12987688 -0.120844364 -0.10687463
0.14419636 -0.10109797 -0.09212109 0.041734114 -0.010075882 -0.043998048 -0.04912593 -0.08927046
0.089051016 -0.18409216 -0.10913909 0.11500312 -0.19704641 -0.118516505 0.06833741 -0.07597842
0.06979874 -0.1413022 -0.092906065 -0.002802631 -0.03455393 -0.12664272 -0.020107467 0.13178019
-0.117734544 -0.12546033 -0.034236502 -0.049395744 0.05411119 -0.1799515 0.10673562 -0.07150841
0.07023625 0.20986953 0.3498358 0.24752547 -0.1117269 0.066226244 -0.14796416 -0.19917117
-0.047482636 0.31266925 0.012281552 0.12023448 -0.4924343 -0.82035244 0.85056436 -0.12100571
0.08554615 0.0455399 0.06250067 0.16221924 0.021935832 0.14334692 0.048467197 0.13082975
0.035712555 0.09680768 -0.7044592 -0.22917056 -0.17614768 -0.0987901 -0.6837763 0.04031887
-0.15509519 0.045479156 -0.059836756 0.12473763 -0.12512836 -0.05511225 -0.05000803 -0.17561325
-0.04058522 -0.17521894 0.16950394 -0.117690966 0.0012195159 -0.068805285 -0.009135395 -0.07566499
-0.061017238 0.06579584 -0.14128983 -0.101525016 0.16095681 0.0920559 -0.094065465 -0.1642163
-0.0941098 -0.0059064627 0.003802163 -0.17203864 -0.1308892 0.056467734 -0.054349236 0.024582997
-0.050853185 0.23847893 -0.11319979 0.42092887 0.035145383 -0.13506173 -0.114244685 0.3079626
0.18604043 -0.13114381 -0.078178495 0.24142276 0.20527901 0.44278765 -0.12974596 -0.06373299
-0.10582983 -0.10903317 -0.22386235 0.11620875 0.054915972 0.16962992 0.1859984 0.3164602
-0.11031729 -0.13936345 -0.108370006 0.24900822 0.298235 0.15527886 -0.1395403 0.25549355
0.034640104 0.06255201 0.0016796658 -0.6608832 0.06048207 0.1522446 0.5952504 0.108081885
-0.19858432 -0.20168439 -0.0548302 0.6449312 -0.5378906 0.07610767 -0.3132318 0.09712601
-0.07660258 -0.043845035 0.027568182 0.5442466 0.39745292 -0.022117391 -0.275638 -0.10443367
0.14316119 -0.13617569 -0.47294694 0.2591421 0.41021758 -0.0027071824 -0.18837854 0.13937369
0.90345436 0.33806312 0.10091377 0.1674151 0.06626158 -0.05354351 -0.032529693 0.42719015
0.24022481 -0.08044722 -0.058342595 0.18935364 -0.14120843 0.1709761 -0.6723412 0.13269246
0.07392948 -0.05497588 -0.06728408 -0.031384278 0.14336456 -0.0627455 0.2826323 0.16332753
0.17483772 0.04813862 -0.16917388 0.16663831 0.32232642 0.33265394 -0.15822971 0.07206902

encoder.3.linear.bias f4 [16]
00000000: 6bf1 df3d f22f 573e 30a7 21be 1775 603d
00000010: 8c0f dfbd 031e 3e3e 56c3 c2bc 2976 c3bc
00000020: eb19 1f3d 964c 2d3e 19aa 533e 94f9 5a3d
00000030: e8f1 553e 83c8 85bd be29 af3d b5e2 8e3d
0.10934719 0.21014383 -0.15786433 0.054799166 -0.10891637 0.18566136 -0.023774784 -0.023860054
0.038843077 0.16923746 0.20670356 0.053460672 0.20893061 -0.06532385 0.085528836 0.06976835

encoder.4.linear.weight f4 [8, 16]
00000000: 8f56 693e bdf4 debe ffd5 adbd 28f4 f3be
00000010: 8bd4 823c cb06 b1bd ba5c 553e e354 cebd
00000020: 05e2 ed3c d011 d73e 27f2 263c 4c8d 5b3e
00000030: db3b 313e bed4 193e d111 3c3e 623c 01be
00000040: b088 a03e d642 6e3a dcc6 5a3c a034 7d3f
00000050: 8c53 d33d c116 b8bd 3853 163f b946 7bbe
00000060: a922 66be 3ed0 15bf 7ae2 bb3d cca0 3fbe
00000070: d6aa 6c3e 6b0d bd3e d7d3 783e 910f b1be
00000080: d7d6 703b 349b d7bd 8dff 11bd 84cf 66be
00000090: ee96 15be 2c0c 863e 85cb 88bd 1703 ee3c
000000a0: b448 dc3e a4a0 5f3e d332 3cbe 4c66 78bd
000000b0: 9136 eabd 7314 2f3e 74b0 ce3d 4d75 b53d
000000c0: 25aa eebe 4993 9d3e 9437 463e fbc1 fbbc
000000d0: 68bd 4dbe 1a9d 063e a52c 2c3e 8ec0 0cbd
000000e0: 5ddd be3d b08c df3e 932c e23d 401d 1b3e
000000f0: f7e8 4b3d 13d7 02be 75c7 8c3e d1c9 073f
00000100: 29ad 81be 2c01 8e3e 4b19 36be fc8e dc3e
00000110: e0f3 313d 9000 6a3e b228 5e3e 3378 db3e
00000120: 93f0 8a3d 8967 4dbd 877f fe3d 41d8 c6bd
00000130: 75a2 fa3e 68ee a73d dd4e 303f 73a4 14be
00000140: d083 eb3e c6a4 bf3d 31bb c03c e849 56be
00000150: fb1a a73d 993b e7be 80fe 44bb a387 05c0
00000160: d4fa 3fbd b6d9 c93d 6846 94be 00ce 8abd
00000170: 541c 88be 9cd8 6f3d a06c 213d 6cba f03c
00000180: e6db 043f 8f8d cb3e 36a5 d1bd bb06 ac3e
00000190: 2150 e4bb 6429 363e 7086 aabc d9db 283c
000001a0: 7b9d 453e a5fd babe d45f ea3e 885e 28be
000001b0: 2b43 363e e8d5 d83e d5fb a9be 12d6 9f3e
000001c0: 3f0a 3abe 75c3 2ebe 6c8b ca3d 72b5 2f3e
000001d0: 2069 193e 585d cfbd 2228 513e b031 cebc
000001e0: 1284 c4bc 4241 d43d eb61 6abe a022 aabd
000001f0: 2e1b 2d3e f5c5 53be cafe 92bd f0b2 c9bd
0.22786926 -0.43546095 -0.08488082 -0.47647214 0.015970489 -0.08643874 0.20836154 -0.100747846
0.029038439 0.42005777 0.01018957 0.21440619 0.1730799 0.15022561 0.18366171 -0.1262069
0.31354284 0.0009088939 0.013353076 0.98908424 0.1031867 -0.08988715 0.5872073 -0.24538697
-0.2247416 -0.5852088 0.09174056 -0.18713683 0.23112044 0.369243 0.2429956 -0.3458219
0.0036749148 -0.105276495 -0.035644103 -0.22540098 -0.14608356 0.2618116 -0.06679443 0.029054208
0.43024218 0.21838623 -0.18378763 -0.060644433 -0.11436189 0.17097645 0.100922495 0.08860264
-0.46614185 0.30776432 0.19357139 -0.030732146 -0.20091784 0.13145867 0.16813906 -0.034363322
0.093195654 0.43662024 0.11043658 0.15147877 0.04978272 -0.12777357 0.27495924 0.5304232
-0.25327423 0.2773527 -0.17783086 0.43077838 0.043445468 0.22851777 0.21695212 0.42865142
0.06784167 -0.050147567 0.12426668 -0.09709216 0.4895207 0.08199769 0.68870336 -0.14515857
0.45999002 0.093576 0.02352676 -0.2092663 0.08159443 -0.45162657 -0.003005892 -2.0864036
-0.046870068 0.09855978 -0.28959966 -0.06777573 -0.26584113 0.058556184 0.039410233 0.029385768
0.5189804 0.39756438 -0.102365896 0.33598885 -0.00696756 0.17789227 -0.020816058 0.010306322
0.19298355 -0.3652164 0.45776236 -0.16442311 0.1779906 0.42350698 -0.33199945 0.3121801
-0.18167971 -0.17066748 0.09889874 0.1715906 0.14981508 -0.10125226 0.20425466 -0.025170177
-0.023988757 0.103640094 -0.22888915 -0.083073854 0.169049 -0.20680983 -0.071775034 -0.09848583

encoder.4.linear.bias f4 [8]
00000000: 6545 ff3d 6cf0 683e a4df 4b3e 8090 acbd
00000010: ba63 4c3e 8994 37bd 8de0 ebbd 1f2d acbd
0.12464408 0.22747964 0.19909531 -0.08425999 0.19959918 -0.04481939 -0.11517439 -0.08407044

decoder.0.linear.weight f4 [16, 8]
00000000: ba09 5f3e 81ed 0b3f 4451 b83d 5456 b1be
00000010: d433 9ebd 5659 243e 9ad3 6c3e a8ca 603d
00000020: f440 debe 0e77 573c efef 403e b36d 06be
00000030: 8db3 b73e 124f f3bf f323 ce3d f89b 8cbe
00000040: fe5c 49be 870c b63e bcbb d3be 6115 fbbe
00000050: e55f cc3e 9cc5 e7bd 63d6 a43e c693 76be
00000060: 8373 d6be 5922 e0bd d301 a93e 49e7 f3be
00000070: 7553 e23e c129 d4be 7bf8 6a3e be5a 8bbe
00000080: 61c2 1f3f 2d05 07be f45f 8e3e a8a0 973e
00000090: 8acd cb3e 7506 383d a1a4 3f3e dbe6 423d
000000a0: 534a 6cbd 94f6 8fbe a8b1 c13e c8f4 323e
000000b0: 4115 d9be ca98 60be e59c d63e 85d1 e73d
000000c0: 436f 58bf 2de2 a23e 2011 893e 935d fa3d
000000d0: cca5 1cbe ba76 03bf 0ccb d73e 8ccb 92be
000000e0: e209 133e ada1 c83e ddec d03d 6600 173d
000000f0: 8472 c23e 4e7e 39be 46eb b2be a0a7 5c3e
00000100: 0fee 48bf fc18 fe3d 4899 8abe 34db bdbe
00000110: 86ba 183f 2f38 04be 2ca0 19bd d156 51be
00000120: a3c9 18bd e875 61be 2133 6e3e a2c4 a0be
00000130: 3531 c5be b4ff a1be 9a30 4dbd 5fbc 58be
00000140: a02a cdbe fbfe 15bf bc9e b83e 25b0 943e
00000150: 6fb3 39bd 0a42 313e 3f7e f6be e24c 82be
00000160: ca42 babe c86d 1abe d298 05be 7321 293f
00000170: 2fe6 5c3e 75d1 443e 032f 913e b66f 56be
00000180: 3efa 113f 814c 99be 5a68 7ebe 2210 573d
00000190: b0da d2be 9134 313f d1b8 893d f3a1 76be
000001a0: c106 d2bd 039e db3e 6155 de3e 2702 503d
000001b0: a8cf e33e 8168 af3d 7c57 74be 4563 413d
000001c0: 0d03 02be 505c e73c 018a 59be 610b 463e
000001d0: 5148 833d 381d d43d eebf 4bbe 9e54 7a3e
000001e0: de33 643f ca0a 713e de5b bc3e 965a 4d3e
000001f0: 9952 a0bd 1d3e 12bf 0fd4 d0bd a2e7 c1bd
0.21781054 0.5465928 0.08999875 -0.34636176 -0.07724729 0.16049704 0.23127595 0.054880768
-0.4340893 0.013150943 0.18841527 -0.13127784 0.35879174 -1.9008505 0.100654505 -0.27462745
-0.1966438 0.35556433 -0.41354167 -0.49039748 0.39916912 -0.11316988 0.32194814 -0.24079809
-0.41885003 -0.10944051 0.33009204 -0.47637394 0.44204298 -0.41438106 0.2294635 -0.27217668
0.62405974 -0.13185568 0.2780758 0.29614758 0.3980525 0.044928033 0.18715145 0.047583442
-0.05768807 -0.28117812 0.37830853 0.17476189 -0.42399028 -0.21933284 0.41916576 0.113192596
-0.8454477 0.31813183 0.26770878 0.12224879 -0.15297621 -0.5135304 0.421471 -0.2867092
0.14359239 0.3918585 0.10201428 0.036865614 0.37977993 -0.18114588 -0.34945124 0.21548319
-0.7848825 0.12407109 -0.2707007 -0.370813 0.5965961 -0.12912057 -0.037506267 -0.20443274
-0.03730167 -0.22017634 0.23261692 -0.3140002 -0.38514104 -0.31640399 -0.05009518 -0.21165608
-0.40071583 -0.58592194 0.36058605 0.29040638 -0.045337137 0.17310348 -0.48143193 -0.25449282
-0.3637908 -0.1508094 -0.13046578 0.66066664 0.21572183 0.19220527 0.2835618 -0.20941052
0.57022464 -0.2994118 -0.24844494 0.05250562 -0.4118247 0.69220835 0.06724704 -0.24085216
-0.102551945 0.4289399 0.43424514 0.050783303 0.44494367 0.085648544 -0.23861498 0.04721381
-0.12696476 0.02824226 -0.2124405 0.19340278 0.06410278 0.103571355 -0.19897434 0.24446341
0.89141643 0.23539272 0.3678884 0.20054087 -0.07828254 -0.5712603 -0.10196697 -0.094680086

decoder.0.linear.bias f4 [16]
00000000: b7ea 1abe 25ce eabe 6e8c b83e a71e 883e
00000010: c22f 7a3d a749 ddbe 268e 7f3d a034 9d3e
00000020: 09e1 cebe 1ee1 c2be 01ea ebbe edef 84be
00000030: be0b 92be 924f 71be 8ed8 bdbe 0545 aa3e
-0.15128599 -0.458604 0.3604464 0.26585886 0.0610807 -0.43220255 0.062391423 0.30704212
-0.40406063 -0.38062376 -0.46076968 -0.259643 -0.28524584 -0.2356551 -0.3707928 0.33255783

decoder.1.linear.weight f4 [32, 16]
00000000: 106e d9bd 9775 81be b84e 033d 52a5 423e
00000010: ad34 18be bf10 453e c5c4 18be e4b6 273e
00000020: 48a6 1c3d 9281 333e 2b13 653e dc80 bb3d
00000030: 744d 6fbe bcce bdbc e41e 493e 03d1 4fbe
00000040: 05bd ec3b f9cb 2a3e 19c5 07be 2d08 91be
00000050: 84bb 9d3e b73a ae3e 0bc3 84be 21b6 68bd
00000060: 9f58 a23d 2be8 8dbd eca8 5b3e a8f0 813e
00000070: aa93 8b3e fbc5 463e 4834 203e 2b4f 883e
00000080: 5c57 3bbe 9e1a 26be 6091 2abe 19e1 2b3e
00000090: a0cb 1fbd d5d3 823e 311a 6a3e 8b64 d43d
000000a0: 75f9 0e3f 3e33 a4bd fd3a e4bc c4c4 e5be
000000b0: 18ec c7bf 6422 5a3e 6beb 083e 7d1a b43e
000000c0: 82d7 a33d 3333 c13e 34f4 573e 4bfc a43d
000000d0: 40ce 953e 8c42 ddbe 94da f4bc a08b df3e
000000e0: cc3d 0d3e 6164 ac3d bd89 21bf b7a6 7bbe
000000f0: ada5 91be 24f8 063f 995b dc3d e051 08be
00000100: 8b7b 78bd fdf8 a5be 9c66 433e 828f 513e
00000110: 62ff a93e dd0e bbbe 36dc 6ebe d554 043e
00000120: 663e a4be d8de 84be bc33 77be b543 d4bd
00000130: 5302 f0be 5055 5fbb 90bb 2fbd f179 9c3e
00000140: 0f89 08be 99da 853e ee2c 613e 5451 8abd
00000150: 3fe4 6b3e e19d cd3e 7e78 4b3c cbbd 5abf
00000160: ee2a 8cbe c5d1 5f3e 6396 9ebe a758 a33e
00000170: 0c01 97be 4bb8 d9be 0c88 53be bab6 493e
00000180: a022 4cbd 2027 043c e435 1ebe a0f2 213d
00000190: 4cec 1cbe 2cf8 f1bd 94f9 813d 786c 523e
000001a0: 4487 14be 009d 053b 40bc e4bb 3ce3 bc3d
000001b0: f000 213d 8876 22be 3803 85bd 7420 84bd
000001c0: 9179 033f 763c 843e f367 073f 151d 0e3f
000001d0: beb6 18be 0516 9a3c e263 8bbd 5b51 0d3e
000001e0: 07f9 843e ba5b cc3d 6d01 4c3e 1468 263e
000001f0: 879e be3d 8899 8e3c 0016 91bd db6b ccba
00000200: ab29 c6bd 5024 96be afe6 663e 5959 f2be
00000210: 97c5 a53e e388 cdbe 6a3e 74be b46c 5b3e
00000220: 25d9 a43c 7e8e 15bd 0279 54bf ca95 c5be
00000230: c172 973e 69c9 993d 139d 43be 36fe ea3e
00000240: b208 7b3e 4f4b 0fbe f373 cbbe 485f 6ebf
00000250: bf72 e1bc 1f24 0bbe eb4c 48bf 282d 72be
00000260: 6644 41be 6491 213e 6e5d d4be 6f4d 4fbf
00000270: 54d3 09be 69c7 e3bd 4436 6cbe 94f6 893e
00000280: e027 fb3c 758e 65be 2fc1 36bd 57f2 373e
00000290: 5fb4 f3bc 4a22 1b3a 5847 e1bd 552e 013e
000002a0: 2d2d 2abc 76a2 5dbe 2849 f4bd 0daa ccbd
000002b0: 72cd 2cbe 6498 9c3d f683 0abe 6a63 3abd
000002c0: 6df2 c23c 39b5 153d b6a5 30be 1a8f b2be
000002d0: f2d4 9c3e 3343 bbbd 3cfd 06be b67e 0c3d
000002e0: d455 4e3e ffd9 ee3d 499c aebd 8a01 853e
000002f0: 2b03 b73e 4ec3 a9bd 552a 8d3d 59e6 313e
00000300: 9482 ac3e a010 8a3e 82e8 0e3e 3025 bc3d
00000310: 925d 8b3d 06c9 9f3e 9130 c9bd 7b88 633c
00000320: 20cf 133f bf3b 543e d76f 983d 4198 e1be
00000330: 9d77 d0be 3324 893d 4ad5 7d3e e3da 863e
00000340: 22c5 2dbf 0c14 1bbe 76db ea3e 1b6d fbbe
00000350: c1cc adbd 7607 543e 0229 30bd 17b5 da3e
00000360: c588 253f 3cdf b43d ad6a 8d3f 9a73 9d3e
00000370: 8381 ec3e 5895 573e c64b 42be ef6d 84bd
00000380: ee4d 46be 6318 a3bc 8f56 0dbd c236 703e
00000390: 3555 a3bd 7a98 01be 5241 6cbe e215 3c3e
000003a0: f86d 693e 40f1 f6bc 7a15 37be 1f42 35be
000003b0: c0ab a03c 385f 473d 345b 78be b58e 81be
000003c0: 2b35 1f3f 2862 90bd 9c8e 04bd 1194 3a3e
000003d0: 1976 243e 174c bc3e d776 8a3e 06cc 17bd
000003e0: 29da 2ebe f986 c2bd 11aa 873e fe85 0cbe
000003f0: 3dd2 d8bd 80b1 69be cc5d 563e 51e8 8c3d
-0.10616696 -0.25285026 0.032057494 0.19008377 -0.14863844 0.1924467 -0.14918812 0.16378361
0.038244516 0.17529896 0.22370593 0.09155437 -0.2336939 -0.023169868 0.1964069 -0.20294575
0.0072246813 0.16679372 -0.1325878 -0.2832655 0.30807126 0.3402917 -0.25930056 -0.056814317
0.079270594 -0.06929048 0.21451157 0.2537892 0.27261096 0.19411461 0.15644944 0.266229
-0.18295044 -0.16221091 -0.16657019 0.16785087 -0.03901255 0.2555224 0.22861554 0.103707395
0.5584939 -0.08017586 -0.027860159 -0.44876683 -1.5618925 0.21302181 0.13371055 0.3517646
0.08000089 0.37734374 0.2108925 0.080559336 0.2925892 -0.43214834 -0.029889382 0.43661213
0.13793105 0.08417583 -0.63100797 -0.24575315 -0.28446713 0.5272238 0.10759658 -0.13312483
-0.060664695 -0.32416525 0.19082111 0.204649 0.33202654 -0.36534777 -0.23326191 0.12922986
-0.32078856 -0.25951266 -0.24140829 -0.103644766 -0.46876773 -0.003407795 -0.042903483 0.30561784
-0.13333534 0.2614334 0.21989796 -0.06753793 0.23036288 0.40159515 0.012418864 -0.8544585
-0.27376503 0.21857364 -0.3097411 0.31903574 -0.29492986 -0.42523417 -0.20657367 0.19698611
-0.04983771 0.008065969 -0.15450245 0.039538026 -0.15324515 -0.11814913 0.063464314 0.2054919
-0.14504725 0.0020387769 -0.006980449 0.09223029 0.039307535 -0.15865529 -0.064947546 -0.064515024
0.5135737 0.25827378 0.5289299 0.55513126 -0.1491346 0.018809328 -0.068061605 0.13800566
0.25971243 0.09978433 0.19922419 0.1625064 0.093075804 0.017407194 -0.07084274 -0.0015596108
-0.09675916 -0.2932458 0.22548936 -0.47333792 0.32377312 -0.401435 -0.23851934 0.21428186
0.020123074 -0.036512844 -0.82997143 -0.38590842 0.29579738 0.07509119 -0.19102888 0.45897073
0.24515036 -0.13993572 -0.397369 -0.9311414 -0.027520536 -0.13587998 -0.7824237 -0.23650038
-0.18873748 0.15778118 -0.4147753 -0.8097753 -0.13459522 -0.11122019 -0.23067576 0.26945937
0.030658662 -0.22417624 -0.044617828 0.17963539 -0.029749094 0.000591789 -0.10999936 0.1261533
-0.010386747 -0.21644005 -0.11928016 -0.09993372 -0.16875246 0.07646254 -0.13526902 -0.045504965
0.023797238 0.03654978 -0.17250714 -0.34874803 0.30631214 -0.091436766 -0.13182539 0.03430053
0.20149928 0.11662673 -0.08525903 0.25977737 0.35744604 -0.082892045 0.0689284 0.17373027
0.33693373 0.2696581 0.13955882 0.091867805 0.068049565 0.31208056 -0.098237164 0.01388752
0.5773792 0.20725916 0.07443207 -0.44061473 -0.40716258 0.066963576 0.24788395 0.26338872
-0.67878926 -0.15144366 0.4587056 -0.49106678 -0.08486319 0.20705971 -0.043007858 0.42716286
0.6466182 0.08831641 1.104818 0.3075226 0.4619256 0.21053064 -0.18974218 -0.06466281
-0.19365665 -0.01990909 -0.034506377 0.23458388 -0.07975236 -0.12655821 -0.23071793 0.18367723
0.22795856 -0.030144334 -0.17879286 -0.17701004 0.019613147 0.048674792 -0.24253541 -0.2530419
0.621905 -0.07049972 -0.032362565 0.18220545 0.16060676 0.36776802 0.27043793 -0.037059806
-0.17075409 -0.094984 0.26496938 -0.13722989 -0.10586975 -0.22821617 0.20934218 0.06880248

decoder.1.linear.bias f4 [32]
00000000: 74b0 61be 8e97 47be 0219 643e 506f 6b3e
00000010: 9c2d 683c e1af ac3d 4a52 38be ea0b 34bd
00000020: d467 643e 412b 223f 6722 7abe 6974 503e
00000030: 02f1 94bc 7b45 81bd f13b cfbc 5392 a9be
00000040: 7585 873e 0c11 4c3f cfa2 b8be b98e ee3e
00000050: 1082 3cbd 6148 7e3e 412f a83e 8b99 d33e
00000060: c3ab 003e c73f cbbd 7dbb 9ebd 9ca7 d5be
00000070: 0c6d 39be 0455 773e 8091 cebb 5249 0d3c
-0.22039968 -0.19491407 0.22275165 0.22991681 0.01417103 0.08431984 -0.18000141 -0.043956675
0.22305232 0.6334725 -0.24427186 0.20356907 -0.018181328 -0.063120805 -0.025297137 -0.3311945
0.26469007 0.7971351 -0.36061713 0.46593264 -0.046022475 0.24832298 0.32848552 0.4132808
0.12565522 -0.09924274 -0.07750604 -0.41729438 -0.18108004 0.24153525 -0.006303966 0.008623438
